trained_models/lstm.pth (torch, 515470 bytes, 10 tensors)

lstm.weight_ih_l0 f4 [400, 13]
000000 7f d1 b6 3c 2b 75 2d 3e 3b 45 a2 bd e6 25 20 3e
       0.022316692 0.16939227 -0.07923361 0.15639457
000010 a7 15 39 3e 59 a4 d7 3d d5 1b 0f 3e 24 94 49 3d
       0.18074666 0.10529394 0.13975461 0.049213544
000020 fb 1f 17 3e 49 ee 35 3d 96 c0 73 3d 95 05 40 3c
       0.14758293 0.0444167 0.059509836 0.011720081
000030 36 c8 9d 3d 21 2c 84 3d 97 f0 29 3d ae 18 e7 3d
       0.07704203 0.064537294 0.04148921 0.11284004
000040 88 35 f2 bd 8f 64 e4 bd f2 98 08 bc 7b f4 db bd
       -0.118266165 -0.111519925 -0.008337246 -0.1073999
000050 6a 5c 4a 3c c1 24 40 bd d1 f7 eb bc ce 63 e6 bc
       0.012351135 -0.04691005 -0.028804692 -0.028123762
000060 a6 e4 2d 3c 18 13 64 bd 04 2f 0d 3d fc b0 a4 bd
       0.010613596 -0.05568227 0.034468666 -0.080415696
000070 9f e4 15 bd a0 49 66 3d 28 c4 e7 3b d6 41 08 3c
       -0.036594983 0.056222558 0.007072944 0.008316478
000080 06 4c 5f 3a f8 34 b1 3c 35 46 8a 3d eb 3f 79 3d
       0.0008518103 0.021631703 0.06751672 0.060851973
000090 d0 88 ae bc f1 08 9e 3c 41 69 28 3d a3 18 67 3d
       -0.021305472 0.019291373 0.041116003 0.05641998
0000a0 8c d5 90 3d 11 ee 38 bd 7c 22 88 bd ad 26 83 3d
       0.07071981 -0.045148913 -0.066472024 0.06403861
0000b0 18 26 d6 3b b3 17 a3 3d fc 1a 3b bd 03 ef a4 3d
       0.006535303 0.07963505 -0.04568003 0.080534
0000c0 f8 0d bc 3d 28 ec 6c bd 3c 6a 3b 3d 20 17 ef 3d
       0.09182352 -0.057842404 0.04575561 0.116743326
0000d0 cb 90 0d 3c 00 5d 86 bd d3 c4 b9 3b a6 0a 41 be
       0.008640478 -0.06560707 0.005669215 -0.18851718
0000e0 a2 37 62 3d 4f 84 a3 bc 5b 96 c5 bd cd ac b6 3d
       0.055228837 -0.01996055 -0.09647819 0.08919678
0000f0 52 b8 19 bd 21 aa 10 bd 66 e7 5e 3d 1c 6b 4b bd
       -0.037529297 -0.035318498 0.054419897 -0.049662694
000100 5b 41 e4 bb a5 e3 06 3d 7d f7 29 bd e6 31 a9 bc
       -0.006965799 0.032931942 -0.04149579 -0.020653676
000110 de 3e f9 3c 4a ff b2 bb 86 b2 03 bd ea 0e ab bd
       0.030425485 -0.0054625617 -0.032152675 -0.08352454
000120 80 75 32 3d 7c 42 8f 3c da 53 a1 bd d4 35 91 bd
       0.043569088 0.017487757 -0.078773215 -0.07090345
000130 2b 4e 3f bc 01 49 84 bd ac 51 ff bc f2 3f 83 ba
       -0.011676352 -0.06459237 -0.031166874 -0.0010013564
000140 da a1 15 3d 4d e3 02 3d 3e e6 cf 3d c3 82 87 bd
       0.036531307 0.031955052 0.10151337 -0.06616738
000150 1e 30 80 3d d5 61 72 bd ed f1 02 bb de fa 6a bd
       0.062591776 -0.05917533 -0.0019980625 -0.05736815
000160 7b 18 0d 3c b6 f2 10 bd d7 4e 19 bd 09 5f 82 bd
       0.008611794 -0.035387717 -0.037428703 -0.06365783
000170 fe ba 8b bd 59 f9 94 bd f7 41 9f 3d 7d 1e 68 3d
       -0.06822775 -0.07274122 0.07776254 0.0566697
000180 4b fd 01 3d 31 be 02 3d 59 df cd 3d f1 a2 12 bd
       0.0317357 0.031919662 0.10052366 -0.035799924
000190 49 d1 a6 bd 5e ee cf 3d da 5e 96 bd b3 2c a8 3d
       -0.08145387 0.10152887 -0.0734231 0.08211651
0001a0 6f fa 79 3d 4b 3f 44 bd 18 85 99 3d 67 c0 2d bd
       0.061029848 -0.047911923 0.07496089 -0.042419817
0001b0 04 06 35 ba 45 be 4e 3c 94 64 a5 bd 2c 8e a3 bd
       -0.00069054984 0.012618606 -0.080758244 -0.079861015
0001c0 b7 4a 27 bd 60 d3 13 be c5 31 78 39 c8 ce 0f 3d
       -0.040842738 -0.14436102 0.00023669664 0.03510931
0001d0 a4 91 3c 3c ae bb b9 bd 49 a6 9b bb f2 e5 a0 3d
       0.011509333 -0.09069 -0.0047500473 0.078563586
0001e0 66 4c b4 bc f7 42 d2 3c 70 a7 a3 3d de 9a d6 bc
       -0.022009086 0.025666697 0.079909205 -0.026196893
0001f0 ae 12 88 3c e5 88 89 3d a0 17 af 3d 55 41 bd bd
       0.01661047 0.06715564 0.08549428 -0.09240977
000200 36 cf b7 bd 86 8b a2 bd d7 f6 82 3c b3 67 de 3c
       -0.08975069 -0.07936768 0.015986843 0.027149057
000210 c5 86 0f be 18 cb 7a 3d e2 60 4f 3d 7b 10 08 bd
       -0.14016254 0.06122884 0.050629504 -0.033218842
000220 7f aa 2a 3d 6c 41 9e 3d d4 62 0e 3e 87 2c 19 bd
       0.041666504 0.07727322 0.13904887 -0.03739598
000230 7e 3c 3e 3d 92 fd ad 3d 8d 39 0c 3e c7 e1 67 3d
       0.04644441 0.0849563 0.13693829 0.056611802
000240 56 d4 8b bc 11 ee d5 3d 62 4d 47 bc dd ff d4 bd
       -0.017069023 0.10445798 -0.012164446 -0.104003645
000250 d0 14 51 3d 16 96 bf 3b 6f aa 24 bc b7 b1 93 bc
       0.05104524 0.005846749 -0.0100504 -0.018029077
000260 07 d2 76 3d d3 6f 9f 3d b1 c6 b4 3c db bd a0 3d
       0.06025889 0.07785001 0.0220674 0.07848712
000270 d5 3c 09 bd 41 4c dd 3d 64 2a 30 bc 83 32 44 bd
       -0.03350528 0.1080556 -0.010752294 -0.047899734
000280 6e 73 70 bc 8a 90 37 3d 08 ce 5a bd f3 85 ec 3c
       -0.014675958 0.044815578 -0.053419143 0.028872466
000290 1d c5 17 3d 6d 33 4a bc d6 b1 0e 3e db a1 1a bd
       0.037053216 -0.012341362 0.13935027 -0.037752014
0002a0 96 cd 97 3d 03 7e 9d 3d 7d e0 9f 3d 3c 1a 02 bb
       0.07412259 0.076900505 0.078064896 -0.0019852063
0002b0 28 4c 92 3c 0a c1 ef 3b 25 fc b1 bd c7 69 02 3d
       0.01785858 0.007316713 -0.08690671 0.03183916
0002c0 4f cb b2 bd d3 9e 02 3d ea 5e dc bc 5e 44 51 bc
       -0.08730184 0.031889748 -0.026900727 -0.012772648
0002d0 6d 6f 43 bd d7 f9 56 bd e7 ef 17 3e 9b 37 96 bd
       -0.047713686 -0.05248436 0.14837609 -0.07334825
0002e0 e8 9c 2f 3c 47 12 ca 3c e0 1c 0c 3e 47 a0 12 bd
       0.010718562 0.024666918 0.1368289 -0.035797384
0002f0 b5 36 dd 3d 04 cd 05 3b c1 87 1f bc 48 c4 73 3c
       0.1080145 0.0020416388 -0.009736956 0.01487834
000300 26 0d e2 bd 8f 42 bb bd ab 7c ea 3b f0 12 42 3d
       -0.11037664 -0.091435544 0.007155975 0.04738134
000310 91 55 ad 3c 30 fa eb bd 0b b3 c8 bb 8b 63 86 3d
       0.021158965 -0.11522329 -0.006124859 0.06561955
000320 39 99 87 3d 21 b3 de 3b 9c bb 17 3e bd cb 21 3e
       0.06621022 0.006796256 0.14817661 0.15800376
000330 04 92 75 3d 4a 03 04 bd 1d 39 52 3d e3 99 49 3d
       0.059953704 -0.0322297 0.051324 0.049219023
000340 49 6e 2a bc 78 46 c7 3c 04 3b d0 bd 21 35 af 3d
       -0.010402271 0.024325594 -0.10167506 0.085550554
000350 15 b5 be 3d 29 dc f4 bc b9 e1 4f 3d 3b 8b ae bc
       0.093118824 -0.029890137 0.050752375 -0.021306625
000360 b3 69 be 3c 54 5d 24 3e c2 34 ac bd 2c eb 74 3d
       0.02324376 0.16051227 -0.084085 0.05979459
000370 72 a2 13 3e 1e 37 14 3c 2b fd 01 be b8 25 00 3d
       0.14417437 0.009046344 -0.12694232 0.03128597
000380 e7 ff de bd ce ce 91 3c 26 82 c3 bd 96 f4 4d bd
       -0.10888653 0.017798807 -0.09546308 -0.050282083
000390 49 45 5b bd 1a d6 26 3d 1f 5b 93 bc cf e0 22 3c
       -0.053532872 0.040731527 -0.017987786 0.009941294
0003a0 51 bf fd bd da 8f dc bd d7 ce 4f 3c 36 b3 f4 bb
       -0.12390006 -0.10769625 0.012683592 -0.0074676527
0003b0 50 2a 18 bd 72 72 19 bd c8 ce 8b bd fa 3f 9b 3c
       -0.037149727 -0.03746266 -0.0682655 0.018951405
0003c0 92 0e cd 3d e9 ee 4d 3d d4 b9 1c 3d 1c e0 b6 3d
       0.10012545 0.05027667 0.038263157 0.08929464
0003d0 07 09 81 3b 5c cb e0 bd 05 e6 1d bc 33 0c ca bb
       0.0039378437 -0.10976288 -0.00963736 -0.006166005
0003e0 65 97 01 3e 63 dc c9 3c 4a 7b 14 3b 69 9c 28 3d
       0.12655409 0.024641221 0.0022656494 0.04116479
0003f0 f1 e5 03 3e 9a 4e 17 bd 49 01 9d 3a 1b 43 00 bd
       0.12880684 -0.036940195 0.0011978532 -0.031313997

lstm.weight_hh_l0 f4 [400, 100]
000000 34 ed ab 3d 8a d3 b7 bd c4 1c 01 bd 7c ea b2 bc
       0.08394852 -0.08975895 -0.031521574 -0.021840326
000010 fb 03 1e 3d b1 e2 a2 3d bd ca 0d bd 1e ee 51 3d
       0.038578015 0.07953394 -0.034617174 0.051252477
000020 ee 51 5c bc 29 ed ff bd e2 b8 f1 3c 43 60 bc 3d
       -0.013447268 -0.124964066 0.029507104 0.09198048
000030 e3 da ee bd 52 73 ab 3b cf 12 fd 3d a9 5c 1c 3d
       -0.11662843 0.005232253 0.12357103 0.038174305
000040 7c 55 fd bc 7e 3a 02 be c4 af 44 3d 7e 1b aa 3c
       -0.030924551 -0.12717625 0.048019186 0.020765062
000050 20 29 ff 3c 54 9b 0e 3d a7 12 2f 3d 8d 52 d3 3d
       0.03114754 0.0348161 0.042742398 0.1031848
000060 6e 85 c7 bc 58 98 25 3d e2 7b 28 bc 1d 65 9a 3d
       -0.024355616 0.04042849 -0.010283442 0.07538817
000070 06 5b c0 3a 2f 6c cb 3d ed 38 b6 bd 10 e9 09 3c
       0.0014675565 0.09932744 -0.088975765 0.008417383
000080 12 d2 c3 bd f8 90 76 bd 8b de 2d 3c fd 12 ec 3d
       -0.09561552 -0.060196847 0.01061214 0.11527059
000090 db 93 55 bd 18 e9 9c 3d dc 38 90 3d 1f a6 cf bd
       -0.05214296 0.076616466 0.07042095 -0.10139107
0000a0 67 6f c2 3d 45 35 00 bd 60 a8 16 bb e0 68 2d bd
       0.094939046 -0.0313008 -0.0022988543 -0.042336345
0000b0 35 bc bf bd 4b 68 41 3d 64 56 9a bd a0 8a 26 3d
       -0.093620695 0.047218602 -0.07536009 0.040659547
0000c0 f7 83 f8 bb 78 7e d9 3c 30 29 ec 3d 9a 9f 49 3c
       -0.007584091 0.026549563 0.115312934 0.012306118
0000d0 98 92 51 3d a1 59 9c 3d 95 8b 4b bc 5b 81 9d bd
       0.051165193 0.07634283 -0.012423416 -0.07690688
0000e0 1e 65 b1 3d 96 aa 15 3d 2d a1 be 3b ce f1 81 bc
       0.08661865 0.036539637 0.0058175535 -0.015862372
0000f0 c6 31 bc 3b 09 be 34 3d 7d 2e 99 bb 88 f0 0e 3e
       0.005743238 0.044126544 -0.0046747313 0.13958943
000100 3f d4 6a bd 69 eb 2e bc 7b 99 4d bd b3 00 9d 3d
       -0.05733132 -0.010676243 -0.0501952 0.07666149
000110 8f 31 3b 3b 57 52 61 bd 5c 99 98 bd 84 d4 99 bd
       0.0028563475 -0.055010166 -0.07451126 -0.07511237
000120 cc b5 c6 3c fa 5c cc bd 5a ac 2a bd ca 02 d7 3c
       0.02425661 -0.09978671 -0.041668274 0.026246447
000130 be 97 02 3e eb 01 e0 3c df 64 50 3d 21 45 5a bd
       0.12753198 0.027344665 0.05087745 -0.053288583
000140 15 ad 79 bb 6d 8e 33 bd 4f d0 a7 3c 64 b2 05 3d
       -0.003809755 -0.043837 0.020485071 0.03264083
000150 8b ab 1e 3c ea 47 bc 3c ac 73 05 be 16 5f 16 3d
       0.009684454 0.02298351 -0.13032407 0.036711775
000160 b7 d6 cc bb 99 fa 3d 3d 88 59 ad 3a 51 a7 8f 3d
       -0.006251182 0.046381567 0.0013225535 0.07014335
000170 0c 6a a8 bd 86 61 60 3d bc 8d 74 bd 05 71 27 be
       -0.08223352 0.054780506 -0.05970548 -0.16351707
000180 66 bf 0e 3d 51 ed 39 3d f1 f9 50 bc f2 b8 3e bd
       0.0348505 0.04539234 -0.012754903 -0.046563096
000190 1a 3f 9a bd b4 5c 06 bd 08 2f 84 bc 26 b9 bf bd
       -0.07531567 -0.032803252 -0.016135707 -0.09361486
0001a0 e3 82 3d bc f5 8c ba bc 93 8e 1f 3d d5 7f 79 bb
       -0.01156685 -0.022772292 0.03895433 -0.0038070579
0001b0 cd 81 16 3d a1 d5 93 3d cd 71 68 bd d6 8e a9 bd
       0.03674488 0.07218481 -0.056749154 -0.08279197
0001c0 60 3a 22 3d 1a d6 d1 3c 71 2d 8d 3d ad ba b2 3d
       0.039606452 0.025614787 0.06893433 0.08727012
0001d0 ff 71 8f 3d 7b 4e 32 bd 2a 3f 37 bb fa f1 f9 39
       0.07004165 -0.043531876 -0.0027961233 0.00047673268
0001e0 f1 00 b6 bd ee c2 d0 3d 82 65 de 3d b2 98 d8 bb
       -0.08886898 0.1019343 0.10859205 -0.0066099996
0001f0 ad e3 8a 3d 8f f3 22 3d 4f de ac 3d 5f bc fc bb
       0.06781707 0.039783057 0.084408395 -0.0077128853
000200 d9 e9 6f 3d d3 4f 9e 3d af aa d1 3d 8f be d2 bc
       0.058572624 0.07730069 0.102376334 -0.025725631
000210 8e 8c 99 3d ef f0 b6 3d c1 ab 81 3d 47 4f 63 bd
       0.07497512 0.08932673 0.063315876 -0.055495527
000220 ee 51 5e 3d 84 48 13 3d 04 20 3f bb e5 9e c3 3b
       0.054277353 0.03595783 -0.002916337 0.0059698694
000230 13 40 b5 bc 73 7a 47 3d fc 96 5e bc 24 a2 f7 bb
       -0.02212528 0.04870076 -0.013585802 -0.0075571705
000240 1e d9 58 bd b3 da d9 bd e4 a6 2d 3c 42 8a 31 3d
       -0.052941434 -0.10637417 0.010598872 0.043344744
000250 2d 93 55 3d be 5c b7 bd 7f b1 f0 bc 2f c6 a0 bc
       0.05214231 -0.08953236 -0.029381512 -0.019625751
000260 b6 d1 eb 3b 67 95 89 bd aa bf 3c bd 43 16 76 bd
       0.0071966304 -0.06717949 -0.046081223 -0.060079824
000270 85 33 3c 3c c4 de 0d 3d 8e 5e 71 bd 79 4e 32 bd
       0.011486893 0.034636274 -0.058928065 -0.04353187
000280 df d7 8c bc 88 1a 63 bd 8c a7 95 bd e3 05 ad 3d
       -0.01719278 -0.055445224 -0.07307348 0.084483884
000290 f2 59 87 3d 41 d0 c6 bc bb 48 2b 3d 41 4f 29 3c
       0.066089526 -0.024269225 0.041817408 0.010333837
0002a0 09 9b b5 bd 28 c6 2a 3d a2 c1 65 bc 7d a0 37 3d
       -0.08867461 0.041692883 -0.014023216 0.044830788
0002b0 b5 ee b6 3d ee b6 bc b9 cc 2a 19 3d d5 60 f1 3c
       0.089322485 -0.00035994448 0.03739433 0.029465118
0002c0 5f 63 a2 bd df 33 66 bc 9f 3e 0f bc 83 45 3c bd
       -0.0792911 -0.014050453 -0.008742957 -0.04596473
0002d0 67 d1 69 bd 4d 1e b7 3d 36 60 01 be 69 dc 28 bd
       -0.057084467 0.08941326 -0.12634358 -0.041225825
0002e0 14 69 9a 3d 1b 2b 83 3c 83 63 37 bd 73 02 98 bd
       0.07539573 0.016011765 -0.044772636 -0.07422342
0002f0 ca 6f 87 3d c1 fd 9b 3d fd f4 6b 3d 2a 19 74 bd
       0.06613119 0.07616759 0.057606686 -0.05959431
000300 9f b8 de bc 4b d1 b4 3d 29 3c b0 bd 44 42 94 3d
       -0.027187644 0.08828982 -0.08605225 0.07239202
000310 be 0d 04 bd 45 a4 92 bb df 16 9c bd 47 15 4c 3b
       -0.032239668 -0.004475149 -0.0762155 0.0031140612
000320 c0 68 fd bc 0f 3c d2 3d 89 76 82 3d 86 65 1d 3d
       -0.030933738 0.102653615 0.06370265 0.0384269
000330 fc 9c 07 3e 57 76 02 3d 5a ce bf bd 0b 02 b3 bd
       0.13243479 0.03185114 -0.0936553 -0.08740624
000340 cb c7 33 be 70 4d 10 3d 04 c4 67 bd 95 f5 b2 3d
       -0.17556684 0.0352301 -0.05658342 0.08738247
000350 f4 ad 58 3b c6 15 40 bd ab 0a 94 3d bf 14 9d 3d
       0.0033062669 -0.046895765 0.07228597 0.07669973
000360 d9 df 29 bc c9 2e c6 bd 2a 22 ae 3d 90 dc 9c bc
       -0.010368311 -0.09676892 0.0850261 -0.019148141
000370 04 09 ac bd 7b 5d a3 3c 0e ad 7e bc b9 54 15 bc
       -0.08400157 0.019942036 -0.015544189 -0.009114438
000380 e1 a0 36 3d be fc a6 bc c4 d8 2f 3d 5a c4 99 bd
       0.04458702 -0.020384189 0.042931333 -0.07508154
000390 54 1b 1c bb 68 5c 13 bd 48 a1 2b bd 31 92 53 bd
       -0.002382 -0.035976797 -0.041901857 -0.05165309
0003a0 16 81 c2 3d f6 b6 f5 bb 70 a8 64 bc 3f 57 f2 3c
       0.094972774 -0.0074986173 -0.013956174 0.029582618
0003b0 c8 41 9b bd b8 03 b0 bd 43 64 96 3d 03 cb ee bc
       -0.07580906 -0.08594459 0.07343342 -0.029149538
0003c0 06 9b b9 3d 6f b6 00 3d 0b 17 6b 3d 88 41 ae 3a
       0.090627715 0.031423982 0.057395022 0.0013294676
0003d0 ba 1b b9 bd 6b ee ba 3c 58 72 bc 3d 87 54 b5 bc
       -0.090384915 0.022818765 0.09201497 -0.022135032
0003e0 36 76 04 bd eb 5d 3a 3d ba 7d ab bd 3f e4 4a 3d
       -0.032339297 0.045499723 -0.0837359 0.04953408
0003f0 93 6e 1e 3d c1 ad 5b 3c 12 a7 6a 3d 01 93 3c bd
       0.03867967 0.013408125 0.057288237 -0.04603863

lstm.bias_ih_l0 f4 [400]
000000 08 89 c2 3c be da ad 3d d1 1a 52 3d 66 47 f7 3b
       0.023746982 0.084889874 0.051295105 0.007546353
000010 42 8d 65 bd f7 27 93 bd b6 6f be bd 5c 90 7b 3d
       -0.056042917 -0.07185357 -0.09298651 0.06141697
000020 91 b6 0a 3c 86 a4 a8 3d ae 20 c5 bd 5d cf b5 3c
       0.008466379 0.08234505 -0.09625374 0.022193605
000030 c3 22 02 3d 86 b3 38 bd d3 c7 17 3d 03 f0 9c 3a
       0.031771433 -0.045093082 0.0370558 0.0011973385
000040 5e 12 be 3c f0 cf 3b bd 5d 57 81 3c 9a 8d f2 3c
       0.023202118 -0.0458526 0.015788728 0.029608537
000050 e4 9f d9 3d 36 57 fa 3c f1 26 05 3c 88 21 6f 3d
       0.106262 0.030559164 0.00812696 0.058381587
000060 45 a9 89 3d 31 ee 9e 3a fd 7d 0c 3d 28 e0 f7 bc
       0.06721739 0.001212543 0.03429984 -0.030258253
000070 0b a6 3b bd c9 21 f0 bd 7a ca 7e 3c ff 12 c4 3d
       -0.045812648 -0.11725194 0.015551204 0.09573936
000080 a7 6a 01 3e 40 2c 03 be 85 47 aa 3c 84 1c a7 bd
       0.12638341 -0.12809849 0.020786056 -0.08159736
000090 8a 1b a6 3d fa 8e d6 3c 14 5e a3 3d bf c0 97 bc
       0.081107214 0.026191223 0.07976928 -0.018524526
0000a0 c3 a7 d1 3b 00 60 7e bb bb 5e e4 bd 2c 4c 75 bb
       0.0063981726 -0.0038814545 -0.11150881 -0.0037429435
0000b0 90 d4 d1 bb 0d 63 70 3d b0 df ca bd 0f 35 d9 bb
       -0.0064035133 0.058688212 -0.09905946 -0.0066286395
0000c0 ed 35 2a bd b0 a4 89 bc 2a 6f 32 bd 0f a1 03 3d
       -0.041555334 -0.016802162 -0.043563046 0.03213602
0000d0 19 5f 81 3d a0 81 16 3d 87 58 41 3c f8 a0 f5 3c
       0.063169666 0.036744714 0.011800892 0.029983982
0000e0 52 90 8f 3d b8 4a e3 3c fb 06 43 bd 9c a0 98 bd
       0.07009949 0.02774559 -0.04761408 -0.07452509
0000f0 58 9d 47 3b aa 7f 16 3d 61 c8 a7 3d 45 d6 5c 3d
       0.0030458774 0.036742844 0.08192516 0.05391528
000100 3d 56 c5 bd 51 90 1f 3c 26 c5 87 3c 3f 08 71 ba
       -0.09635589 0.009738998 0.0165735 -0.0009194649
000110 b6 a4 37 bd fa 9f 32 3d a0 61 8b bd b7 f2 95 3d
       -0.044834815 0.043609597 -0.0680573 0.07321685
000120 fe c6 ab 3d 46 e1 6d 3d cc c0 ab bd 02 76 f9 bd
       0.08387564 0.058076166 -0.083863825 -0.12180711
000130 c7 19 ad 3d 2c 51 3c 3d b9 18 05 bd 27 29 ef bd
       0.08452182 0.04597585 -0.03249428 -0.11677771
000140 a0 f3 7d bd 1f d0 31 bd 29 e4 7d 3e cd e0 ab bd
       -0.061999917 -0.04341137 0.24794067 -0.08392487
000150 10 f7 91 bc ea d8 c7 bd 08 ab a7 3d 6f 18 30 3d
       -0.017818004 -0.0975817 0.081869185 0.04299205
000160 2a 39 fc bc df 3f b1 bb 37 7f 1e 3d e9 23 98 bc
       -0.030788977 -0.0054092254 0.03869554 -0.01857181
000170 81 24 0f 3d d4 3c 53 bd 82 96 0a bd be 22 53 3d
       0.034946922 -0.051571682 -0.03383494 0.051546805
000180 6d 34 97 bd 79 49 1a 3c 03 be f3 bc 3b 65 88 bd
       -0.07383046 0.009416931 -0.02975369 -0.06659933
000190 1b dc bc bb a8 c5 da bd c9 0b a5 bd d0 70 a6 bd
       -0.0057635433 -0.10682231 -0.080588885 -0.08126986
0001a0 7d 5b ba 3d 40 32 a9 3d 43 aa 2c 3d 52 cc 37 3d
       0.09099481 0.082615376 0.04215456 0.04487259
0001b0 45 cd 30 3e 23 06 9b 3d db 4e 23 3d 31 85 99 bc
       0.17265804 0.0756953 0.039870124 -0.018740268
0001c0 b6 64 38 3d 57 a7 83 bd 44 c8 65 bd 94 61 ae bd
       0.04501792 -0.06428402 -0.05609919 -0.08514705
0001d0 e8 23 d7 bd d2 87 7a bc be cc 10 bd 38 2a 52 bd
       -0.105048954 -0.015291171 -0.035351507 -0.051309794
0001e0 7b e4 b1 3c 9d 22 90 ba 8a e9 55 3b fc ce 1b bd
       0.021715393 -0.0010996644 0.003264042 -0.038039193
0001f0 35 a7 82 3d 11 4c 8a 3d b2 59 df 3d 80 a9 ab bc
       0.063795485 0.0675279 0.1090578 -0.020954847
000200 e1 22 ba 3d ff cd a0 3d 28 6a 8a bd fe 83 cb 3d
       0.09088684 0.07851791 -0.06758529 0.09937285
000210 e9 5b c1 bc f4 8e 7b bd ee bd b7 bd 58 c1 c4 bb
       -0.023603396 -0.061415628 -0.08971773 -0.0060044937
000220 ff cb 7c 3d 1b ec 9d bd 07 d9 0c bd 40 d6 28 bb
       0.061717983 -0.07711049 -0.03438666 -0.0025762469
000230 aa 2d 2b bd 35 66 af bd 6e 65 79 bd 1d ae de bc
       -0.041791596 -0.08564416 -0.060887747 -0.027182633
000240 74 c6 cd bd 49 4c ce 3c f0 f5 ec bb d4 ed a7 bb
       -0.100476176 0.02518286 -0.0072314665 -0.005124787
000250 30 cd 03 b7 d0 f5 1d 3d 0f fa 20 3d dd 5f 31 bc
       -7.855982e-06 0.038564503 0.039300974 -0.010826078
000260 a7 35 0f bd c9 47 a3 bd cd e9 2e 3d 2b fb 8f bd
       -0.034963276 -0.07972676 0.04270344 -0.07030328
000270 d7 b7 87 bc 9e 02 c7 3c d8 47 80 3d d9 12 80 3b
       -0.016567154 0.02429324 0.06263703 0.003908497
000280 7f f1 44 3d d8 06 66 3c 26 e8 a5 3d ee d9 c5 3c
       0.04808187 0.014039718 0.081009194 0.024151769
000290 71 e4 8b 3c b4 9d ac 3c 68 d8 b3 bd 3a b6 21 bb
       0.017076703 0.021071292 -0.087815106 -0.0024675266
0002a0 65 f4 14 3d 32 32 90 3d 4d 0f ee bd 56 1a ed 3c
       0.036365885 0.07040824 -0.11624012 0.028943222
0002b0 20 8f 82 bd 01 21 ea 3c 18 d6 84 3d f0 a4 10 bd
       -0.06374955 0.02858019 0.06486148 -0.035313547
0002c0 d8 3b 92 3d 1b 4d 04 bd 37 79 95 3d af a8 79 bc
       0.071403205 -0.032300096 0.072985105 -0.015237971
0002d0 b1 5c a4 3d 94 0e 94 bd 30 28 01 3c ed d9 e6 bd
       0.08025492 -0.07229343 0.007883117 -0.11272035
0002e0 0e c4 c2 3d 9e e5 94 3d c3 9e 10 bd a8 10 73 bd
       0.09510051 0.072703585 -0.035307657 -0.059342057
0002f0 00 a0 d2 bc 56 25 86 bd ec cf 88 3d 77 c7 8e bd
       -0.02571106 -0.0655009 0.06680283 -0.06971639
000300 f3 e3 9e 3c 90 67 f4 bd 63 39 8a bd e5 60 a5 bd
       0.019395804 -0.119338155 -0.06749227 -0.08075122
000310 73 62 f5 bd 5c ed 4c bd 09 c2 da bd ed b7 f2 3c
       -0.11981668 -0.05003105 -0.106815405 0.029628718
000320 3b 1d b3 bc 9f a3 a0 bd 5c 12 ec 3c ad 89 b4 3d
       -0.021864524 -0.07843708 0.028817348 0.08815322
000330 4b 2a c0 bc 9c d7 8f bd f8 1b 85 bc db 93 a1 3c
       -0.023457667 -0.07023546 -0.016248688 0.019723823
000340 78 89 31 bd 6d fc 56 3d 77 d8 3f 3d 61 d2 5e bd
       -0.04334399 0.052486826 0.046837296 -0.05439985
000350 ba ef 19 3d 45 4f 71 3b 43 4c c9 bc ba 21 0b 3c
       0.037582137 0.003682093 -0.024572497 0.008491928
000360 91 91 0a 3d ab 48 05 3d 3e f2 b2 3d da 84 ab 3d
       0.03383023 0.032540005 0.0873761 0.08374949
000370 0e ef a0 3c bd e8 9c bc cf 21 9b 3d 89 cf 29 bd
       0.01964524 -0.019153947 0.07574808 -0.041457687
000380 6e 9f 48 bc 92 c3 f7 3b 89 59 d6 3d 96 90 10 be
       -0.012245042 0.0075611556 0.10466296 -0.14117655
000390 69 1d c3 3c a9 ee 03 3d f4 64 2f 3d 59 5a f7 3d
       0.023817735 0.032210026 0.042820886 0.12077779
0003a0 2b 4b 0d 3c ad cb 81 3d 02 10 0c bd 3a bc b6 bd
       0.0086238785 0.06337676 -0.034194954 -0.0892262
0003b0 ac ea 72 bc de 41 0c 3d 16 b5 28 bc 22 07 17 be
       -0.014826458 0.034242503 -0.0102970805 -0.14748815
0003c0 5b 93 26 bd fe 31 24 bd 77 44 fd 3b cb 01 1f bd
       -0.040667873 -0.04008674 0.007729109 -0.03882007
0003d0 34 09 70 bd 5b 98 08 3d b7 40 d3 bd 2e 8f 3e 3d
       -0.058602527 0.033348422 -0.10315078 0.046523266
0003e0 4a 5a 77 bd 7d 83 75 bc 0e 0e c5 bd 2d ab 9b bb
       -0.06038884 -0.0149849625 -0.09621821 -0.0047506304
0003f0 e2 87 6b bd a1 9e 92 3d 2e 1c c2 bd ca b3 30 bd
       -0.057502635 0.07159162 -0.09478031 -0.04314021

lstm.bias_hh_l0 f4 [400]
000000 d8 0a a8 3b 14 84 eb 3b 64 93 55 bd 35 bd 07 3d
       0.005128246 0.007187376 -0.052142516 0.033139426
000010 04 e3 08 3d fe 21 51 bc ad b7 08 3a f6 5c 36 bd
       0.033419624 -0.012764452 0.0005215358 -0.04452225
000020 5c a0 06 3d ea fa 86 bd 74 44 e3 bd 60 05 a3 3d
       0.032867774 -0.06590827 -0.11097041 0.079600096
000030 53 c7 f6 3d 0a d5 84 bd 35 d5 56 bc f1 74 02 bd
       0.12049737 -0.064859465 -0.013112356 -0.031849805
000040 01 78 1f be 5b 78 fc bc 28 87 da bd 32 08 93 3c
       -0.15573122 -0.030819109 -0.1067031 0.017948244
000050 e8 49 a3 b9 14 0d 4a bd 6d 52 45 3d 19 f4 c6 3d
       -0.00031144847 -0.04932888 0.04817431 0.09714527
000060 3d 77 de 3c fe 73 a7 3c 69 bd 32 3d b4 a7 97 bd
       0.027156467 0.020441052 0.043637667 -0.07405034
000070 a3 96 0d bd d3 91 a0 bd 02 c2 cf 3c 58 f5 32 3d
       -0.034567486 -0.07840314 0.025361065 0.04369101
000080 8c 26 21 3d 9e e9 b0 bd c6 51 0e be ea 0d 15 3d
       0.0393434 -0.08638309 -0.13898382 0.036390223
000090 44 5c 93 bd e1 de fb bd 8c 98 58 bd df 04 a0 bd
       -0.07195333 -0.1229837 -0.052879855 -0.07813429
0000a0 17 7b 8d bd d0 a2 aa bd b4 5b 1b 3d dd 94 3b 3d
       -0.06908243 -0.08331835 0.03792925 0.045796264
0000b0 6d 41 2d bd 78 32 81 3d c0 c2 89 3d 92 5e 8a bc
       -0.042298723 0.06308454 0.06726599 -0.016890798
0000c0 83 b2 a0 3d 62 99 44 3d 77 b0 04 bc ea 1a b8 3d
       0.078465484 0.04799784 -0.008098713 0.089895085
0000d0 f5 88 33 bd 81 21 d1 bd 37 92 9a 3d 8a fc 18 be
       -0.043831784 -0.102114685 0.075474195 -0.14940086
0000e0 36 f0 ff bc 91 8e c6 bd b7 48 9a bd d3 59 0a bc
       -0.031242471 -0.09695161 -0.075334005 -0.008444267
0000f0 38 06 aa 3d 2b 49 95 3d 22 25 12 3d 73 31 38 bd
       0.083019674 0.07289346 0.035679944 -0.044969033
000100 e7 3a 20 3d 7d a7 21 3d 35 52 ac 3d 09 8f 24 bc
       0.039118674 0.03946637 0.08414117 -0.010043868
000110 2e 05 88 bd 47 4d 39 3e 5c 6a 14 3c 19 24 21 3e
       -0.06641613 0.18095885 0.009058561 0.15736426
000120 a2 1b 02 ba 86 5b 35 bd 49 00 88 bd c8 91 d7 bd
       -0.0004963224 -0.044276737 -0.066406794 -0.105258524
000130 49 7b be 3d 16 7a c7 3d 7c 8d 8d bc 45 eb ac bd
       0.093008585 0.09740083 -0.01727938 -0.084433116
000140 cc 0b a1 bd 5f 4d e9 3c 21 73 47 3e 7a ec 1e 3c
       -0.07863578 0.028479276 0.19477512 0.009699935
000150 1f 79 04 bb 22 cf 5c bd f4 02 f8 3d 1a 43 c8 3c
       -0.0020213795 -0.053908475 0.12109938 0.024446059
000160 35 80 f0 bc b8 a3 cd bd 15 89 9e 3d 45 d6 a1 3d
       -0.029358009 -0.100409925 0.0774099 0.07902197
000170 26 9b b6 3d ff b1 84 bd 7c 10 ca bd 47 cd 5f bb
       0.08916311 -0.064792626 -0.098664254 -0.0034149454
000180 c4 26 88 3c 7a 7c 11 3d cc 2c f4 bd a8 1d e1 3c
       0.016620047 0.0355191 -0.11922607 0.027479962
000190 85 87 91 bd e9 e1 55 bc 75 da 4c bd ea 80 d6 39
       -0.071059264 -0.013054349 -0.050013024 0.0004091331
0001a0 1a 86 ff 3d 07 a6 24 bd 49 2f ee 3d a5 07 8f bd
       0.1247675 -0.0401974 0.11630113 -0.0698388
0001b0 ab c2 19 3e 77 81 43 3c 49 47 43 3d f5 4d bc 3d
       0.15015666 0.011932722 0.047675405 0.091945566
0001c0 da 66 3a bd 05 82 b8 3d 94 d6 3f 3c 94 43 d7 bd
       -0.045508243 0.09009174 0.011708874 -0.105109364
0001d0 37 e5 fd bd 64 f0 ad bd 7e b7 eb bc 47 63 a3 bb
       -0.12397235 -0.084931165 -0.02877402 -0.0049862
0001e0 b0 e2 92 bc 11 43 ca bc bf 0d cc 3c dc 80 b9 3d
       -0.017930359 -0.024690183 0.024908898 0.09057781
0001f0 be ee 25 bc d4 f4 3c bd 7e 58 8d 3d ae d5 7c bd
       -0.010127721 -0.046131924 0.06901644 -0.06172722
000200 ad 7f ac bd 1f 61 3c bd 46 05 18 3b 24 83 89 3b
       -0.0842279 -0.04599106 0.0023196503 0.0041965414
000210 7b f2 c7 3c dc ed 5b bb af de 2e 3d 21 b8 ec bc
       0.024407616 -0.0033558523 0.042692836 -0.028896393
000220 74 a2 be 3c a6 80 e3 bd 99 5b 1a 3c 8b 15 4f 3b
       0.023270823 -0.11108522 0.009421253 0.0031598534
000230 d2 69 d7 bd 12 65 5e 3d 8f 4a d7 bd f3 45 e4 bc
       -0.105182305 0.054295607 -0.10512268 -0.027865386
000240 91 95 81 3d dc ea a3 bb e9 a8 70 3c ad 91 42 bd
       0.06327356 -0.0050023627 0.014688709 -0.04750221
000250 91 13 40 3d c6 30 65 3d 4c 5a b4 bd 77 e9 18 3d
       0.04689366 0.055954717 -0.08806285 0.037332024
000260 9f 09 3d 3c 36 34 b8 3b 8d 18 99 bd 4e f0 ec 3c
       0.011537938 0.0056214584 -0.07475386 0.02892318
000270 4c 31 95 bd b2 60 49 bd fb 64 17 bc 7a c7 09 bb
       -0.07284793 -0.04916448 -0.009240384 -0.0021023438
000280 0a e5 cb 3d 35 c2 89 bd 89 7d 07 bd 38 d1 d0 bd
       0.09955795 -0.06726495 -0.033078704 -0.10196155
000290 a3 70 2e bd 45 5d 3f 3d e9 94 6a 3c df 1e f2 bd
       -0.042587887 0.046719808 0.0143177295 -0.118222944
0002a0 c3 da 60 bd fb 16 25 3d 8a c5 39 3d 4f 58 f9 3d
       -0.054896127 0.04030512 0.045354404 0.12175047
0002b0 fd 2c f4 bb cf 93 2a bd 11 73 ec 3c d7 7f 81 3d
       -0.007451652 -0.041644868 0.028863462 0.06323212
0002c0 4a f3 19 3d 91 bb 1b 3d 0b ba 1a 3c 28 5d 71 bd
       0.037585534 0.038020674 0.00944377 -0.05892673
0002d0 36 44 39 bd 6e 19 f8 bd 49 ae 28 3c 78 c8 5c bd
       -0.045231067 -0.12114225 0.010295459 -0.05390212
0002e0 7d ad 2d bc a9 8a 9a bd c3 d8 27 bd 07 3c 61 bd
       -0.010600445 -0.075459786 -0.040978204 -0.054988887
0002f0 d4 ab 25 bd 40 de 74 3d 36 bc c9 3c 2d 3a 01 bd
       -0.04044707 0.059782267 0.024625879 -0.03154962
000300 15 41 d3 bc 6f 39 10 bb de 77 fe bc 9f 5e a9 3d
       -0.02578787 -0.002200689 -0.031063017 0.08270001
000310 d3 30 f3 bd bd 49 96 bc d5 4c e6 bc c4 3b 9b bd
       -0.11874547 -0.018345708 -0.028112808 -0.07579759
000320 76 77 c4 bd 5c 4b 53 3d e2 1b 62 bc ee fb 25 bc
       -0.09593098 0.05158554 -0.013800593 -0.0101308655
000330 ff 67 12 3d 8b 41 a4 3d 7a 99 63 bd b4 f5 85 3d
       0.03574371 0.08020314 -0.05556629 0.06541005
000340 a6 35 0c bd 41 56 63 3d 23 a0 aa 3b 76 39 24 3c
       -0.03423085 0.05550218 0.005207078 0.010023465
000350 06 64 91 bd 71 84 83 3d 91 d6 b1 3d ba 7f 8b 3d
       -0.07099156 0.064217456 0.086835034 0.06811471
000360 97 fd e3 bc d5 39 ec 3c 03 8a 72 bd 84 2a 3e bd
       -0.027830882 0.02883617 -0.05921365 -0.046427265
000370 ee bd 23 bd 7e 20 0c bd ec 4c bc bd 1c a5 a1 bb
       -0.039976053 -0.034210674 -0.09194359 -0.0049330126
000380 36 4c 8c bd 13 85 a1 3d 00 24 5a bb 95 be 9c bc
       -0.068504736 0.0788671 -0.0033285618 -0.019133845
000390 fb e6 1b bd 3f 2a c7 3d 01 77 6e bd fa 8c e4 3d
       -0.038062077 0.09724855 -0.05821896 0.11159702
0003a0 d9 19 02 be 9f 01 a8 3d fb ca 97 3b 04 b0 8a 3d
       -0.12705173 0.08203434 0.0046323515 0.067718536
0003b0 0d 9e 59 bc ad 7b 8d 3c 32 54 3f 3d 9c 7b 32 bd
       -0.013282311 0.017270887 0.046711154 -0.043574914
0003c0 bd 0e 3a 3d 46 66 87 3d e6 01 bc 3d 99 3d 16 bd
       0.04542421 0.06611304 0.091800496 -0.036679838
0003d0 62 67 e0 bc ba 03 b7 3d d8 75 ae bd 5e 5f d0 bc
       -0.027393047 0.08936258 -0.08518571 -0.0254361
0003e0 ca 28 17 3d a3 34 e3 3c 99 77 5c bd 96 04 97 3d
       0.036904134 0.02773506 -0.053824995 0.073739216
0003f0 b1 30 ae 3c d2 03 5e bd d6 5c 26 bc 72 3c c3 bc
       0.021263452 -0.054202862 -0.01015397 -0.023832534

lstm.weight_ih_l1 f4 [400, 100]
000000 f8 fc f5 3c 68 4a 6b bd 60 a4 a2 3c 20 71 72 bd
       0.030027851 -0.057444006 0.01985377 -0.059189916
000010 5e 7b 6e bc 1f 0a 8c 3d 90 40 55 bc e1 10 86 3d
       -0.01455578 0.06837868 -0.013015881 0.06546188
000020 dc df f4 3b 84 8f 44 3d b4 7e d0 bd 29 db b6 3b
       0.007472975 0.04798843 -0.10180417 0.005580325
000030 bc f8 85 bd 98 58 f7 bc d5 27 d4 3d 24 e7 0e bd
       -0.06541583 -0.030193612 0.1035916 -0.0348884
000040 4d 96 9a bd 24 65 fb bd 23 1f 27 3d 2c 31 57 bd
       -0.07548199 -0.122751504 0.04080118 -0.05253713
000050 7b 06 93 bb fc 97 99 b9 15 ff c1 bc 13 03 f1 3d
       -0.0044868565 -0.0002929567 -0.023681203 0.117681645
000060 7e 8b 42 3d 42 94 6c 3d 50 0b 24 3d 84 db db bc
       0.04749631 0.057758577 0.04004985 -0.026838072
000070 c7 df d0 3d 44 78 4f bc e3 80 71 3d 1c 4c ce bc
       0.10198932 -0.012662951 0.058960807 -0.025182776
000080 ac 59 3f bc bb 98 95 bc ec 35 ad 3b ee b3 c8 3c
       -0.011679094 -0.018261304 0.005285969 0.02449986
000090 6c c2 e3 bd 6b a8 be 3d 3f 51 26 3c 6a f9 7e 3d
       -0.111210674 0.09309467 0.0101512065 0.06224958
0000a0 8f 4c bc 3d 2b 47 a2 3c 03 40 9d bd 08 8c 0b be
       0.0919429 0.019809326 -0.07678225 -0.13627636
0000b0 89 45 38 bd 21 b1 65 bc 70 06 8a bd f6 33 fe bc
       -0.04498819 -0.014019282 -0.06739509 -0.031030636
0000c0 51 7c b3 bd 57 bb f0 bc 23 99 5e 3c 0c b9 7f 3d
       -0.08763946 -0.029386206 0.013586315 0.062432334
0000d0 9c 18 ff 3d f4 79 91 bd 53 45 4e bd cc e6 c9 3c
       0.12455866 -0.07103339 -0.05035908 0.024646185
0000e0 95 92 07 3d 43 a3 2d bd d6 59 be bb 0b 14 e1 3d
       0.033098776 -0.042392027 -0.005809049 0.10990151
0000f0 93 51 b0 3c db e4 8e bd d5 fc b5 bd 36 c4 47 3d
       0.021523273 -0.069772445 -0.088861145 0.048771106
000100 69 75 4b 3d 1f 19 91 bd 6c 14 85 3d 0e ea 2d 3d
       0.049672518 -0.070848696 0.06498036 0.04245954
000110 5a 6f 80 bd 2d d7 c3 bd 59 0c ec bc 24 26 da bc
       -0.062712386 -0.09562526 -0.028814482 -0.026629515
000120 73 02 ba bd 51 6d aa 3b 0f e2 05 3e c4 d8 c3 3d
       -0.090824984 0.00520102 0.13074516 0.09562829
000130 60 a2 50 b8 31 b5 60 3d b5 6b 83 3d 39 c4 ff 3b
       -4.9742288e-05 0.054860298 0.06417028 0.007805374
000140 8f 36 93 bd 08 0b b3 bd 26 b7 09 3e 0d c8 17 bd
       -0.071881406 -0.087423384 0.13448772 -0.037056018
000150 20 f1 19 bd e1 11 10 be 36 db 11 be 39 90 03 3d
       -0.03758347 -0.1406932 -0.14243779 0.032119963
000160 b8 20 89 bd 55 e1 a3 3d 46 30 bd bd 7f 9c e9 3d
       -0.06695694 0.08001963 -0.09237723 0.114068024
000170 76 3c 7f 3d 8f eb ef bd db 95 3d 3c 1d fb 8e 3d
       0.06231352 -0.11714851 0.011571373 0.0698149
000180 a1 75 80 3d d2 cf c2 3c a4 3c 90 3d ca 0d cc 3c
       0.06272436 0.023780737 0.07042816 0.024908919
000190 0e 0d 7f 3d 1c 21 94 3d 61 1c 5d bd 1a d8 f0 3c
       0.06226831 0.072328776 -0.053982142 0.02939992
0001a0 3a 76 15 bd 74 33 50 bc 1d d8 ca 3d 58 1e 29 3d
       -0.036489703 -0.01270758 0.099045016 0.041288704
0001b0 f5 b5 a6 3d c6 92 15 bd a2 67 d3 bd 7d cf bd bd
       0.08140174 -0.036516927 -0.10322501 -0.09268091
0001c0 e4 a5 a4 bc dc c0 ce bc 81 64 c1 3d 07 e0 60 bd
       -0.020098634 -0.025238447 0.09442998 -0.05490115
0001d0 c7 2a 7b 3d a8 ce da 3d 00 b8 2b bd 05 03 10 bd
       0.061320093 0.10683948 -0.041923523 -0.03515913
0001e0 de 84 20 bb ff 96 07 3e 08 57 f7 3d 29 f6 95 bd
       -0.0024493258 0.13241194 0.12077147 -0.07322342
0001f0 3e c1 27 3d 39 3a 2e 3b e5 fc 96 3d e5 55 66 bd
       0.040955774 0.0026584996 0.073724546 -0.05623426
000200 fb 81 c6 bc 9e 52 84 3d af 55 fd 3d 15 60 ad bd
       -0.024231901 0.064610705 0.123698585 -0.08465592
000210 50 90 ed 3d 00 21 e1 bd 20 4e 67 3d c5 fd 57 3d
       0.11599791 -0.109926224 0.05647099 0.052732248
000220 fc e7 6a bd dd ef 48 bd ac d5 3c 3c 66 2b 09 bd
       -0.057350144 -0.049056876 0.011525553 -0.033488654
000230 95 9f c5 3b f9 9e 25 3d b9 7b 9b bd 20 1b fa 3c
       0.0060309866 0.04043481 -0.075919576 0.030530512
000240 8a 0e c5 3d 6f 0b 93 bd 5a 06 4a 3d 46 85 6f 3d
       0.09621914 -0.07179915 0.049322464 0.05847671
000250 35 c0 01 bd 1f 6b 86 bd 6d d6 02 bc 1d 59 29 be
       -0.031677444 -0.065634005 -0.007985693 -0.165379
000260 a8 1d f1 3c 7e 2f 2b bd d2 d1 ae bd e1 b8 1b 3d
       0.029433087 -0.04179334 -0.08536114 0.03801811
000270 9c 04 8f bb ca 17 2c bd df 45 c6 3d e9 db cc bc
       -0.004364563 -0.042014875 0.096812956 -0.025007205
000280 5d 15 f7 bd b0 7e 5e 3d d1 ad a7 bc b8 bb 13 3b
       -0.120646216 0.054320037 -0.020468624 0.002254231
000290 7f 1d 97 3d cd e2 a1 3d d4 6a af bd 9c 3f 7e bc
       0.07378673 0.07904587 -0.08565298 -0.015518095
0002a0 d0 0c 6d 3d df c1 b0 bd ee 4b d1 bd 41 32 5a bd
       0.057873547 -0.08630728 -0.102195606 -0.053270582
0002b0 4e aa ca bc fa ee cc 3c e9 9e 63 3d c0 60 14 be
       -0.02473941 0.025016297 0.05557147 -0.14490032
0002c0 1d 70 f3 bd 53 28 82 3d c2 55 85 3c 9c bc 19 3d
       -0.11886618 0.063553475 0.016276244 0.037533388
0002d0 8c d2 87 3d f5 d9 a8 bd 7b ec 23 be 7d 49 80 3d
       0.066319555 -0.08244697 -0.16008179 0.06264017
0002e0 0d c0 d1 3c c1 a8 8e 3d 4c bb 24 3d 13 ad 7a 3d
       0.025604272 0.06965781 0.040217683 0.061200213
0002f0 12 a0 ae 3c a5 43 58 3d a6 6e a5 3d 5c b2 37 3c
       0.021316562 0.052798886 0.08077745 0.011211958
000300 bb ac 91 3c e4 56 6b bd 2b f7 8a bd 1c a6 0a bc
       0.01778256 -0.057455912 -0.06785425 -0.008462455
000310 cc 44 62 3d c5 12 03 bd e7 d1 93 bd 51 a9 9b 3b
       0.05524139 -0.032000322 -0.0721777 0.0047504087
000320 c4 62 8d bd 23 ff e1 bd be da f3 bd cc e5 0d 3e
       -0.06903604 -0.110349916 -0.11906956 0.13857192
000330 b8 b2 19 3e d5 11 93 bd d9 aa 30 3a dc 0d 1e 3d
       0.15009582 -0.071811356 0.00067393255 0.038587436
000340 30 91 cc bb f3 cb 27 be aa 84 96 bc c7 e0 5a bc
       -0.0062428936 -0.16386394 -0.018373806 -0.013359255
000350 ac c8 87 bd ce b8 17 3d 1c 03 86 3d d8 b7 b7 3d
       -0.06630072 0.037041478 0.06543562 0.08970612
000360 2d e9 29 bd 3a 33 3e bd 16 b5 58 3c 7e 1a 8d 3d
       -0.04148214 -0.046435572 0.013226768 0.068898186
000370 ed c7 4e bc b5 96 fd 3c 6f 67 b9 3c c2 9f 01 bd
       -0.012620908 0.030955652 0.022632329 -0.031646498
000380 68 4c 95 bc 05 95 b9 3d c9 46 ad 3d eb b3 b3 3d
       -0.01822491 0.09061626 0.08460767 0.08774551
000390 0a b3 d8 3d a9 95 24 be f2 e5 b9 bb 07 31 d7 3d
       0.10581024 -0.16072716 -0.0056731636 0.10507398
0003a0 9a 54 f8 bd 84 39 8d b9 e0 81 c0 3d 1e 2f 8b 3d
       -0.121255115 -0.00026936468 0.09399772 0.06796096
0003b0 98 cf 05 be e2 b0 9d 3d a9 66 a0 bc 49 2b f2 bb
       -0.13067472 0.07699753 -0.019580202 -0.007390414
0003c0 05 a2 44 3d 56 e6 00 be 90 76 01 be f7 52 26 be
       0.048006076 -0.12587866 -0.12642884 -0.16242586
0003d0 c1 cb af bd e1 6a 20 3e 68 25 19 3e 71 b9 47 bd
       -0.08583785 0.15665771 0.14955676 -0.048760835
0003e0 9e 30 f2 bd d9 45 d7 bd f3 f3 f6 bb 3c 52 8b bc
       -0.11825679 -0.10511369 -0.007536405 -0.017006986
0003f0 bf e5 cb 3d cc 70 15 3e 9e 15 20 3e cf 83 5b bd
       0.0995593 0.1459381 0.15633246 -0.0535925

lstm.weight_hh_l1 f4 [400, 100]
000000 2b 61 a2 3d a9 aa e4 ba 52 95 a5 bd eb 14 b8 bc
       0.079286896 -0.001744588 -0.08085121 -0.022470912
000010 22 42 98 3d b2 f3 42 3d 65 e6 ad bd 89 c3 1a bd
       0.07434489 0.047595687 -0.0849121 -0.037784133
000020 74 59 0e 3d db d0 c2 3d 5e 74 bb bb 05 e7 d7 3d
       0.034753278 0.09512492 -0.005720659 0.1054211
000030 d4 d0 a6 3d fa 52 8b bd 46 a1 ad 3c d7 98 44 3d
       0.081452996 -0.06802936 0.021195065 0.047997322
000040 f1 d0 44 bd 62 c3 2f bd 07 1f d1 3c 45 20 63 bc
       -0.048050825 -0.04291094 0.02552749 -0.013862674
000050 89 03 d5 bc fb 1f 3d bd ab d1 97 3c 52 3d 45 3d
       -0.026002662 -0.046173077 0.018532595 0.048154183
000060 5a 03 22 3e 59 6e 97 3c c5 ff b8 3d 52 97 99 3c
       0.15821591 0.018485235 0.09033159 0.018748913
000070 41 52 7c 3d 32 42 e1 3d 5a 77 1e 3d a0 21 dd bd
       0.06160188 0.10998954 0.03868804 -0.10797429
000080 c2 ff a1 3d e4 60 e4 bd 2b 58 f1 bd fc a8 d9 3d
       0.0791011 -0.11151293 -0.11784395 0.10627934
000090 e4 39 d2 bc 34 65 db 3c c6 3b d1 bc b5 df fd ba
       -0.02566237 0.026781656 -0.025541198 -0.0019369038
0000a0 0a 04 3a 3d 0c a2 a7 3c 0b c2 df bd bb b2 c8 bd
       0.04541401 0.020463012 -0.10925683 -0.09799715
0000b0 89 ee 80 3d 4b 0a 84 3d 50 99 9a 3d 40 18 d7 bd
       0.06295497 0.06447276 0.07548773 -0.10502672
0000c0 12 91 62 bd 28 6d 2d bc 04 fa 9a 3b a3 2c a0 3d
       -0.05531413 -0.010585107 0.004729511 0.07821014
0000d0 e3 77 c0 3c c0 75 d4 3c f0 98 36 bc c0 b6 72 bc
       0.023494666 0.025935054 -0.011144862 -0.014814079
0000e0 2e 94 0e 3d 65 f7 d5 b9 28 39 97 bd 9e 0a ac bc
       0.034809284 -0.0004081085 -0.073839486 -0.021001156
0000f0 d8 ec ec 3d cf e2 fb 37 06 10 dd 3d 1e a1 a1 bd
       0.11568612 3.0027148e-05 0.10794072 -0.07892059
000100 38 d9 3c bd 1f f8 fb bd f1 f8 a7 3d 7d 62 0b be
       -0.046105593 -0.12303185 0.08201779 -0.13611789
000110 ed 4b 56 3d 78 b5 6c 3c d8 50 d9 bc 53 de e7 bb
       0.052318502 0.014447562 -0.026527807 -0.0070760637
000120 b0 d4 9c 3d 01 f2 e8 3c 69 9d 8d 3c 18 97 66 bd
       0.076577544 0.028435709 0.017286973 -0.056296438
000130 ac d3 92 bd 5c 7f bd bc a0 5c ec bc d7 48 c1 bb
       -0.071692795 -0.023132019 -0.02885276 -0.0058985758
000140 df 3a 23 bd f0 94 63 3d 8f f5 c4 3d 28 f7 41 bd
       -0.039851066 0.05556196 0.09617149 -0.047354847
000150 53 16 82 bd bf 41 12 3d 83 ba 09 3d c6 0a 65 bd
       -0.06351914 0.03570723 0.033625137 -0.055918477
000160 19 f4 b0 bd 1d ea 3e bd 73 57 cf 3d ac d8 7d bc
       -0.08640308 -0.046609987 0.101241015 -0.015493553
000170 b0 7a b1 3d c0 7d 94 bc 19 c1 d1 bd 05 43 12 bd
       0.08665979 -0.018126369 -0.102419086 -0.035708446
000180 82 5b ac 3c 4d 0c 56 3d b1 db dd 3d b6 30 1d 3d
       0.021039728 0.052257825 0.108329184 0.038376532
000190 07 3e da bd 61 b0 d6 3c fe 3e f0 ba 16 09 97 3d
       -0.10656362 0.02620715 -0.001832932 0.0737478
0001a0 e2 37 dd bc a5 b0 9b bc 9d 65 04 3c 5a 26 a0 3d
       -0.027004186 -0.01900513 0.008080867 0.07819815
0001b0 46 8f 68 3d 88 4c 54 bc aa af a5 3d 5d 5c 9a bc
       0.05677726 -0.0129577 0.08090146 -0.01884287
0001c0 11 6e 8d bc dc c4 db bd 9a d5 6d 3d 72 f3 27 bd
       -0.017264398 -0.10730907 0.058065034 -0.041003652
0001d0 21 6b 7b bd 59 21 8d bd 79 1e fb 3c 72 c4 62 3c
       -0.061381463 -0.06891126 0.030654179 0.0138407815
0001e0 3b b5 16 3d 29 13 19 3d 19 be 92 bc 17 dd 28 39
       0.03679393 0.03737179 -0.017912911 0.00016104091
0001f0 f5 05 d5 bd 51 bf 4b 3d d4 a7 c0 3d 74 13 a5 bd
       -0.10401527 0.049743 0.09407011 -0.08060351
000200 9b ab 87 bd be 8f 86 3d 62 35 9c bc c3 6d 51 3c
       -0.06624528 0.065703854 -0.019068424 0.012782517
000210 61 a6 80 bc 52 48 b6 bb 72 d6 89 3b 25 51 c6 3d
       -0.015704336 -0.0055628205 0.004206472 0.09683446
000220 91 f1 f9 bc 66 a1 d7 3d 29 1e 79 bd e5 54 6d 3d
       -0.030510696 0.10528831 -0.06081978 0.05794229
000230 3d 7d a2 bd de de b0 bb 43 62 bd 3d 5c 21 9c 3d
       -0.079340436 -0.0053976616 0.092472576 0.0762355
000240 b9 b1 d0 bb 7a cb a8 bb 2d 6d df bd d3 5b a7 3d
       -0.0063688424 -0.0051512094 -0.109094955 0.08171811
000250 47 7e 98 bd 27 c2 09 bc 8f 11 94 bc 45 6f 62 3d
       -0.074459605 -0.008408106 -0.018074779 0.055281896
000260 db 40 3c 3d 02 63 b9 3d 48 8a f8 bc db 60 da 3d
       0.04596029 0.09052087 -0.030339375 0.10663005
000270 9a 90 2a 3c 69 8b 99 bd 43 4f 39 3d 65 73 24 bd
       0.010410452 -0.074972935 0.045241605 -0.04014911
000280 5f 58 4c bd 27 50 e8 3c 57 33 81 bd 01 f2 82 3d
       -0.049888965 0.028358532 -0.063086204 0.06393815
000290 23 38 a5 3d 14 98 60 bd 11 9b 59 3c 88 c6 3e bd
       0.08067348 -0.054832533 0.0132816 -0.046576053
0002a0 cd b4 52 bc fd e5 66 3c 15 a4 84 bc 5f ef a7 bd
       -0.012860489 0.014092919 -0.016191522 -0.08199953
0002b0 fb c3 6d 3d b0 f3 ae 3d 3d 63 9b bd ab 9c c2 3d
       0.05804823 0.085425735 -0.075872876 0.09502538
0002c0 0f ba 6e bd c5 fb ce 3d 54 5b 4e b8 37 52 b8 3c
       -0.058282908 0.10106615 -4.9199283e-05 0.02250014
0002d0 01 cf 8e 3c bf 22 4d 3d e0 99 33 bd 2e fa b9 3d
       0.017432692 0.050081965 -0.04384792 0.09080921
0002e0 75 eb 66 3c 67 8f c5 3d f2 df a5 3d f8 81 ba bd
       0.014094223 0.096464925 0.08099355 -0.09106821
0002f0 58 55 e2 3d d0 b9 ad bc e4 0f 49 3c c8 0a 3a bd
       0.11051434 -0.021206766 0.012271855 -0.045420438
000300 48 48 d4 3d 42 c0 6e 3d fd 1a d3 bd 23 3a 6b bd
       0.10365349 0.05828882 -0.10307882 -0.05742849
000310 e3 10 10 3d 85 bb aa 3c 3e 6d 87 bd e4 8c 78 bd
       0.035172354 0.02084137 -0.06612633 -0.06068124
000320 f6 3b 8f 3d 01 1a 81 3d 36 05 d5 3c 11 b2 d6 bd
       0.069938585 0.06303788 0.026003461 -0.10483182
000330 34 b9 58 3d 54 9b 10 be 6f 2d 89 3d 4a f8 37 be
       0.052911 -0.14121753 0.06698119 -0.17965809
000340 b5 db b8 bd c9 38 0e 3d 10 55 98 bd 07 88 12 3e
       -0.09026281 0.034722123 -0.074380994 0.14309703
000350 15 b4 86 3d 7d 16 fb 3d c1 27 9d bc b4 cc a9 bd
       0.06577317 0.12260149 -0.019183995 -0.08290997
000360 d5 e2 f0 bd 3c 5c ee bb cc 3f 79 bd ad b2 9e 3d
       -0.11762015 -0.007274179 -0.060851857 0.077489235
000370 21 15 0e be 30 40 c0 bb a3 86 a2 bd d9 f5 2c be
       -0.13875248 -0.0058670267 -0.07935836 -0.16890658
000380 5e ce a0 bd 7c e7 a2 bd ce a1 14 3c 66 ef 39 3e
       -0.078518614 -0.079543084 0.00907178 0.1815773
000390 c6 72 01 3e e8 ed c3 3d c9 39 2e be 5d 0c d0 3d
       0.12641439 0.095668614 -0.17014231 0.10158608
0003a0 36 66 94 3d 6d 99 b2 3c 5b 9f 2e be 1d eb ba 3d
       0.07246058 0.021801675 -0.17052977 0.091268755
0003b0 c2 68 a0 3d 6c 7f 11 bd 50 c6 09 3a 52 24 a2 3d
       0.07832481 -0.03552191 0.0005255686 0.07917084
0003c0 f9 ee 1c 3e 10 15 22 3d 53 78 98 bd f6 d2 21 ba
       0.15325536 0.039570868 -0.07444825 -0.0006173098
0003d0 b5 98 55 bd bc e5 5d bd cb c1 58 bc 63 78 06 be
       -0.052147586 -0.05417417 -0.013229798 -0.13131861
0003e0 b5 2f 09 3d f8 fb d6 ba 09 f0 76 bd 62 33 17 bd
       0.033492763 -0.0016401997 -0.06028751 -0.036914237
0003f0 e6 49 f1 bb c0 9c b6 bd 27 91 72 3d bb 6f ab 3d
       -0.0073635457 -0.089166164 0.05922046 0.0837092

lstm.bias_ih_l1 f4 [400]
000000 fd 93 ce bd cb 1e 9e 3d 01 ba 63 bd 27 aa 9e 3c
       -0.1008682 0.07720717 -0.05559731 0.019368244
000010 be 04 80 bd a9 82 c5 3d 5b 30 9b bd 55 8b 8f 3d
       -0.062509045 0.09644062 -0.075775824 0.07008997
000020 f1 5a 21 3d 0e 8a 1b 3d f7 72 31 3d 13 d9 d9 3d
       0.03939337 0.037973456 0.04332253 0.10637107
000030 94 de 19 be 65 45 08 be 26 73 3c 3c 60 a1 10 bd
       -0.15026313 -0.13307722 0.011502063 -0.03531015
000040 eb b7 ff bd f3 98 05 be bc 8f 89 3d 12 22 f4 3d
       -0.124862514 -0.13046627 0.06716868 0.11920561
000050 d5 c5 17 bd 09 3e ae bd cf f1 00 3d 9d e4 81 3c
       -0.0370539 -0.08507926 0.031480607 0.015856082
000060 f9 ab 34 bd c4 d8 24 3e 8d 90 32 bb 70 a8 bc 3c
       -0.04410932 0.16098315 -0.0027246804 0.023029536
000070 16 ef b3 3d 78 26 57 bd 68 c6 4a bd 55 21 ea bd
       0.087858364 -0.05252692 -0.04950562 -0.11432139
000080 46 22 63 bd e6 5c 10 be f2 b0 15 3d 18 4f 34 3a
       -0.055452608 -0.14097938 0.0365457 0.0006878241
000090 47 d0 1d bc c5 67 81 bd 5d 34 01 bd c5 27 e0 bc
       -0.009632177 -0.063186206 -0.03154408 -0.027362714
0000a0 79 32 4a 3d f6 f6 e0 bb 6e 98 69 bc 2a f3 0e be
       0.04936454 -0.0068653775 -0.0142575335 -0.13959947
0000b0 34 75 8b 3a 1e 66 25 bd 5f 88 be 3d ff a5 a1 bc
       0.0010639788 -0.04038059 0.093033545 -0.019732473
0000c0 bf d8 7d bd 21 a6 2e bd 3e 9b 20 bd f9 59 04 be
       -0.061974283 -0.0426389 -0.03921055 -0.12924947
0000d0 d7 71 95 bd 3d d5 46 bd a0 42 ac bd 83 b5 94 bd
       -0.07297104 -0.048543204 -0.08411145 -0.07261183
0000e0 3d 98 f8 bb a9 45 cf bc 80 30 b5 3d 4d 49 b3 3d
       -0.0075865076 -0.025301771 0.08847141 0.087542154
0000f0 4c 89 92 3d 40 36 e2 bc 59 5c 70 bd 53 b8 55 3d
       0.071550936 -0.027613759 -0.05868182 0.05217774
000100 2e 2e 8c bc 6f bf 4d 3c d8 8d 84 3b 04 d5 bc bd
       -0.017111864 0.012557848 0.0040452294 -0.09220317
000110 23 f1 b4 3c ac 55 17 3c 89 fa a4 bd 56 81 1a bd
       0.02208764 0.009236734 -0.08055598 -0.037721
000120 01 9b 69 3c 49 be 62 bd e3 ba 74 bd c1 bb 03 bc
       0.014258147 -0.05535725 -0.05974854 -0.0080403695
000130 13 5e de bd db 5c 4f 3d 1c d0 46 bc ae 60 33 bd
       -0.10857787 0.050625663 -0.012134578 -0.043793373
000140 f1 c0 11 3e be fc ae bd bf cb 12 bb 1b a1 b3 bc
       0.14233758 -0.085443005 -0.0022399274 -0.021927407
000150 4a 74 4e 3c 0e 82 de bc 33 a3 c9 bd 2e 2f 19 bd
       0.012600968 -0.027161624 -0.09845581 -0.03739851
000160 13 5c 91 bc 32 c6 84 bd 29 c2 ac 3d 74 ea 3f bd
       -0.0177441 -0.06483115 0.084354706 -0.04685445
000170 45 6f 83 bd ae f2 98 3d b3 4f 33 3d ca 02 00 3d
       -0.06417707 0.074681625 0.04377718 0.03125266
000180 27 f6 ba 3d 8c bc 08 be e0 ab ab 3d 79 91 9a bd
       0.09128981 -0.13353175 0.08382392 -0.07547278
000190 c6 f6 54 bd 29 83 c2 3c 7c 08 48 3d 16 7a a7 bd
       -0.051993154 0.023744183 0.048836216 -0.08177583
0001a0 a5 39 aa bb cd 6a 8b bc 18 4f 19 3d c2 04 e2 bd
       -0.00519486 -0.0170187 0.037428945 -0.11036064
0001b0 47 e8 dd 3c 8a 66 71 3d 71 a8 f6 bc 3c f3 e1 3c
       0.027088298 0.05893568 -0.030109616 0.027581804
0001c0 72 81 c1 3b 48 c8 8e bd 98 d3 98 3c f2 79 92 3d
       0.0059053237 -0.06971794 0.018655583 0.071521655
0001d0 2a 02 a5 bd f6 78 f4 bc b9 9b 8f bd 27 65 c4 3d
       -0.080570534 -0.029842835 -0.070121236 0.09589606
0001e0 83 41 6a 3d 72 fc 95 bd 5e 1c ee bc 32 c3 27 3d
       0.057191383 -0.07323541 -0.02906626 0.040957637
0001f0 ae a9 4c bb ee ad 22 3d c3 be 96 bd c0 c8 1a 3d
       -0.0031229067 0.039716654 -0.07360604 0.037789106
000200 dd 30 36 3d be 63 6d bc 3b a5 b1 bb cd aa 72 bd
       0.044480193 -0.014489112 -0.0054213083 -0.05924492
000210 66 71 73 bd 84 21 48 3d 27 45 05 3c 30 aa d6 bc
       -0.059434317 0.048860088 0.008134163 -0.026204199
000220 ff fb c1 bd 52 81 b2 3c 22 28 21 bd 3b 3c ff bd
       -0.094718926 0.02179018 -0.039344914 -0.1246266
000230 ec 54 9a 3b 41 80 eb bc 98 f6 e0 bd 08 00 06 be
       0.0047098305 -0.02874768 -0.10984534 -0.1308595
000240 74 14 0d bd 5c 8a ed bd 5f ec 50 bd ca 2c e5 3c
       -0.034443334 -0.115986556 -0.05100667 0.027975459
000250 11 73 00 3c fa 8c 02 bd 4d 12 ac bd 9a fb 82 3d
       0.007839934 -0.031872727 -0.08401928 0.063956454
000260 07 ef 64 bd 18 3d 83 3d d3 78 d2 bc 8b fc 71 bd
       -0.055892017 0.06408137 -0.02569238 -0.059078734
000270 9e cc e7 bd 80 53 7c bc 1e e2 9c 3d 3f 12 ee bc
       -0.113183245 -0.015400767 0.07660316 -0.029061435
000280 85 db 2c 3d e5 50 a0 bb a0 09 7f ba 94 9d 8e 3d
       0.042201538 -0.004892456 -0.0009728912 0.069636494
000290 44 3a df bd 0e 55 1e 3d 2a 17 ed bc bd 1a ad 3d
       -0.10899785 0.038655333 -0.02894171 0.084523655
0002a0 5e b2 66 bd 32 af 6e bd 56 85 48 3c d3 3a 00 be
       -0.056322448 -0.058272548 0.012238821 -0.1252244
0002b0 0b c1 39 bc 70 03 a2 bc 9f 27 1c be 6d db 55 bd
       -0.011337529 -0.01977703 -0.15249489 -0.052211214
0002c0 d7 c8 7a bd fa 78 50 3c 6a 0c 30 3d 0c 24 21 3d
       -0.061226692 0.012724156 0.04298059 0.039341018
0002d0 af 2c c3 3d 2b 84 e0 bd 64 4f eb bd 2a 66 8e bd
       0.09530007 -0.10962709 -0.11489752 -0.0695308
0002e0 cb 33 d9 bd 4b ba b0 3c e8 62 78 bd 95 c5 12 3b
       -0.10605582 0.021573206 -0.0606412 0.00223956
0002f0 be 71 c8 bd b6 35 bc ba 03 53 fd 3c eb 4d c5 3d
       -0.097873196 -0.0014359269 0.030923372 0.09634002
000300 1c bf 1a 3d a1 8f c9 bd ab e3 08 bd 51 bc 35 ba
       0.037779912 -0.09841848 -0.033420246 -0.00069326634
000310 88 d5 3f bd ae 03 28 bd 07 ac eb 3c e0 aa d7 3b
       -0.0468345 -0.041019134 0.028768552 0.006581649
000320 da 8b df bd c1 57 1e 3d c9 88 b6 3c ab 32 c2 3d
       -0.109153464 0.038657907 0.022282021 0.094823204
000330 cc 5b d7 3c bd 48 f9 3d 71 8d b2 3d 39 a6 13 3c
       0.02628889 0.12172077 0.08718384 0.009011799
000340 a1 0b 85 3d ee b3 d7 bd 97 83 a2 3d 02 b2 ba bd
       0.06496359 -0.10532366 0.07935255 -0.091159835
000350 09 9a b5 bd 0d 33 4a bb 4c d5 a0 3d e0 46 69 bd
       -0.088672705 -0.0030853183 0.07853183 -0.056952357
000360 a4 ad 9e bd ea 7d 83 3d 4f 38 96 3d d9 a9 08 be
       -0.07747963 0.064205006 0.07334959 -0.13346042
000370 f2 5a ba 3c e7 87 c0 bd 4a 60 9f 3d 20 f4 95 3d
       0.022748444 -0.09400921 0.077820376 0.07321954
000380 a9 61 1e bd 3c b6 e9 bc 82 b3 a2 3d 8a d9 b2 bc
       -0.038667355 -0.028529279 0.07944395 -0.021832246
000390 5a c1 a1 bd 63 50 ea bb ee 0d ab 3d 3c a4 ce 3d
       -0.07898207 -0.007150696 0.08352266 0.10089919
0003a0 c5 53 4d bc cc 78 58 bd 3f 60 87 3d 54 c7 94 bd
       -0.012532179 -0.052849576 0.06610154 -0.07264581
0003b0 7b ee 8a 3d 3b 8d 8e 3d b5 e9 e6 3c 1f df 43 bc
       0.06783768 0.06960531 0.028187612 -0.011955052
0003c0 b5 a5 93 bd 5f 64 04 3d ae 80 f9 3c 68 ba 43 bd
       -0.072093405 0.032322284 0.030456867 -0.047785193
0003d0 3f fc f0 3d ca 83 f5 bc 9f 14 37 bb 0e f9 99 3d
       0.11766862 -0.029970068 -0.0027935875 0.075182065
0003e0 4f 28 ba bc 00 c5 06 bb 7f af a2 bd 9d bb cc 3d
       -0.022724299 -0.0020564198 -0.079436295 0.09996722
0003f0 57 df 68 bd 3a 8a ff 3d aa ca 8b 3d ae 0c e5 bc
       -0.05685362 0.124775365 0.068257645 -0.027960148
