trained_models/seq2seq_atn/seq2seq210.pth (torch, 63650 bytes, 13 tensors)

encoder.gru.weight_ih_l0 f4 [96, 13]
000000 d5 c1 eb bd ba 79 5e 3d a7 cb 42 bd 06 db e3 3c
       -0.1151158 0.054315306 -0.0475575 0.0278144
000010 dd d3 ab be f7 b9 73 bd fd 58 ad be e0 4b 92 be
       -0.33560076 -0.05950352 -0.33856955 -0.28573513
000020 aa cb cd be da 1f 80 be db 6d 4f 3e a5 a8 56 3d
       -0.40194446 -0.250243 0.2025675 0.052406926
000030 08 22 bd bd 77 b6 83 3e 80 48 55 be 59 c2 23 be
       -0.092350066 0.25725147 -0.20828438 -0.15992106
000040 ed 60 a6 be 4a 6b 17 3e 9d cc 01 be a4 be 31 3d
       -0.32495824 0.14787021 -0.1267571 0.0433947
000050 95 2d 51 bc f7 73 ce bd 03 88 53 bd 4a 3f 90 bd
       -0.012767215 -0.10080712 -0.051643383 -0.070433214
000060 41 fa 8b be b3 0e 13 3e 9f dd bd 3d d7 5b 09 be
       -0.27339366 0.14361076 0.092707865 -0.1341394
000070 19 8c 2b 3e 6f 2c 53 be 42 a0 78 bd d1 98 ba bd
       0.16752662 -0.20622419 -0.06069971 -0.09111179
000080 51 c0 86 bd 81 aa 1c 3d 99 00 c2 3c 43 57 c0 3d
       -0.0657965 0.038248543 0.023681926 0.09391644
000090 73 c1 ea bd 98 82 d5 bd 66 e1 49 3e 72 99 06 3e
       -0.11462679 -0.104252994 0.19714889 0.13144472
0000a0 d2 3a 2c be 88 4c 41 bd 8f 76 24 3d c4 4d 78 3d
       -0.16819313 -0.047192127 0.04015213 0.060621038
0000b0 2a 4b a5 3c b5 74 4c 3e 82 de 18 3e b8 4b e4 bd
       0.020177443 0.19966395 0.1492863 -0.11147255
0000c0 ca 87 b8 3d 07 da 75 3c b9 de a9 bd 52 fa 8c 3d
       0.09010275 0.015005595 -0.08294434 0.06883682
0000d0 af 75 99 be f2 33 96 3e 12 fb 97 bc 87 28 3c 3e
       -0.29972598 0.29336506 -0.018552337 0.18374835
0000e0 b4 95 ad 3d e4 83 45 be d2 39 b2 3c 52 a7 03 3e
       0.08475819 -0.19288594 0.021756086 0.12856796
0000f0 16 c1 87 bd cd 7f 77 3d 86 94 3b 3e 16 b6 75 3e
       -0.06628625 0.060424615 0.18318376 0.23995242
000100 86 c5 1c 3e c4 04 32 bd bc 49 1c bd 00 cf 0f 3d
       0.15309724 -0.043461576 -0.038156256 0.03510952
000110 86 a1 26 be 94 fb 07 3e 8f ed 61 bc 4b d7 7a 3e
       -0.16272554 0.13279563 -0.013789549 0.2449619
000120 2c f3 2a 3e f0 63 f0 3d 59 8e 1e 3e 57 83 a1 be
       0.16694325 0.117378116 0.15483989 -0.31545517
000130 ce 52 5f be e4 60 51 3e cd 42 29 be 17 95 c5 be
       -0.21808931 0.20447117 -0.16529389 -0.3859031
000140 99 9a 17 be 78 08 5b 3d 2c 9f c8 bd ce 9f 9c bd
       -0.14805068 0.053474873 -0.097959846 -0.07647668
000150 ab 41 48 3e f0 44 4e 3d be 64 b7 bd 51 88 12 3d
       0.195563 0.050358713 -0.08954762 0.035774533
000160 bb 22 2e bf 43 e0 c9 bd 3f 1e 0f 3e 69 32 11 be
       -0.68021744 -0.09857228 0.13976382 -0.14179386
000170 8c a1 57 3e 6f ad 51 3e 05 d6 01 3e 55 ed b3 3d
       0.21057719 0.20476316 0.12679298 0.08785502
000180 53 49 b3 3d d6 25 5b bd d5 50 31 3e e2 dd 44 3d
       0.0875422 -0.05350288 0.17315991 0.048063166
000190 8f 73 1c be 09 03 03 bd c0 0e 96 be 87 3f 29 3d
       -0.15278457 -0.031985316 -0.29308128 0.04132035
0001a0 e6 9f f7 3c 6f 70 c0 bd a2 2b 67 be 77 10 e3 ba
       0.030227613 -0.09396445 -0.22575238 -0.0017323632
0001b0 86 73 46 3e 08 6b 1c 3e 83 72 3e 3d a7 eb 1a 3e
       0.19380006 0.15275204 0.046495926 0.15128957
0001c0 4c 3c 4b 3e 47 54 80 bc 03 d8 a5 bd 16 77 12 be
       0.1984722 -0.015665187 -0.080978416 -0.1430324
0001d0 f7 9d 5e bd c0 70 62 3e f8 42 2a bd 61 8b 35 bc
       -0.054349866 0.22113323 -0.041567773 -0.011080594
0001e0 e1 8c 37 3b 01 df 4d be fc b0 9a 3d b2 f3 9e be
       0.0028007554 -0.201046 0.07553288 -0.310453
0001f0 f3 df a0 be bf c5 a7 be d7 19 30 3d d2 8f 45 3e
       -0.3142086 -0.32768056 0.042993393 0.19293144
000200 e1 1b 2c be 02 52 93 be d1 8d 54 3e 2c 36 3d be
       -0.1680751 -0.28773504 0.20757224 -0.18477696
000210 91 dc 5e 3d f4 25 36 3d e9 80 9e bd a5 52 4e be
       0.054409567 0.04446979 -0.077394314 -0.20148714
000220 4f 75 45 3d 49 56 8c bd 9b f7 65 bb 0f 34 45 bd
       0.048207577 -0.06852395 -0.0035090211 -0.04814535
000230 c2 bd fe 3d 3e 18 a4 3d f1 17 29 be df 85 ee bb
       0.12438537 0.08012436 -0.16513039 -0.0072791423
000240 57 b5 d1 3d 18 f1 37 bd 79 ef 54 3e 5a e2 16 be
       0.10239666 -0.04490766 0.20794477 -0.14734784
000250 24 61 03 3d f0 7e ed 3d 89 97 d4 bc 8e 24 06 be
       0.032075062 0.11596477 -0.025951164 -0.13099882
000260 ee 58 93 3d 46 d5 cd 3d 9c 39 ed 3d fb 62 96 3d
       0.07194696 0.10050444 0.11583254 0.07343098
000270 61 99 e4 3c 49 d9 c8 3d 81 bd 89 bd 94 9d 8f 3d
       0.027905168 0.09807069 -0.06725598 0.070124775
000280 ae f5 e2 bd 34 ee ad 3d 12 60 f0 3c 50 69 1b be
       -0.11082016 0.08492699 0.029342685 -0.15176892
000290 c4 f7 cb bc 67 19 b0 bd 65 f5 9f 3e 4a af 1c bc
       -0.024898417 -0.08598595 0.3124191 -0.009563277
0002a0 58 fe e8 bb 26 28 ea bc 10 04 3a 3e 9b 49 c2 bd
       -0.0071103983 -0.028583597 0.18165612 -0.094866954
0002b0 df 64 7d 3e 6e 41 2d be 90 f0 94 3d 99 30 39 be
       0.2474551 -0.1691949 0.07272446 -0.18084945
0002c0 72 e7 29 be a5 3d fa bd bf d4 07 3c 86 1c 53 3e
       -0.16592196 -0.12218789 0.008290469 0.2061635
0002d0 df 03 40 3e 65 58 20 be ca 73 d7 3d 16 a3 b1 be
       0.18751477 -0.1565872 0.10520132 -0.34694737
0002e0 6e 2c 08 3e ad 26 28 be 10 da 57 3d ff a4 47 be
       0.13298199 -0.16421004 0.052698195 -0.19496535
0002f0 5c ba 61 be 7b 10 18 be e4 b7 87 bd 82 02 d4 bd
       -0.22043747 -0.14850037 -0.06626871 -0.10352041
000300 a4 53 69 3e 17 4f 0a be 60 b6 e3 3c 1e 4e 68 bc
       0.22785813 -0.13506733 0.027796924 -0.014178781
000310 1c a4 9e 3d 19 2e 9e 3d 32 52 c7 bd ab 2c 1b be
       0.07746145 0.07723636 -0.097324744 -0.15153758
000320 20 c8 db 3d 40 8f 78 3d 79 95 f8 3d 3a bc 2e be
       0.1073153 0.06068349 0.12137885 -0.1706399
000330 96 8c 72 be 69 2c c7 3e dd c0 1e be 24 bd 11 bc
       -0.23686442 0.3890107 -0.15503259 -0.008895192
000340 59 e1 a2 3e be 8f ca be c1 da a4 bd 34 49 48 bc
       0.31812552 -0.39562792 -0.080495365 -0.012224484
000350 ad eb 91 bc 1e 5a b5 bd 50 9b 56 3e 72 3e 5b 3b
       -0.017812574 -0.08855079 0.20957685 0.0033453968
000360 4a 9d 35 3d f8 04 1f 3d 7c 81 08 bf 7f 39 72 be
       0.044339456 0.038823098 -0.5332258 -0.23654746
000370 10 ba 4c 3d 94 87 4d bd 3d d8 c7 bd bd f5 02 3d
       0.04998213 -0.050178126 -0.09758041 0.031972636
000380 79 37 08 bd d7 1c 7e 3d bc c6 2a be 8c 90 0b bd
       -0.033256028 0.062039223 -0.16677374 -0.034073398
000390 0b 1a 14 be c8 23 1c be f1 63 4a 3d 4f 30 6a 3e
       -0.1446306 -0.15248024 0.049411718 0.22869991
0003a0 1b 04 25 3e 2a 36 28 be af f8 d0 bd a1 6c cf bd
       0.16114847 -0.16426912 -0.10203683 -0.10128141
0003b0 c2 cb 39 3d 5a 65 1a 39 38 cb ef 3c 43 ed 95 bb
       0.045360334 0.00014724341 0.029271707 -0.004575403
0003c0 78 05 e7 bc f0 21 66 3d e4 86 f6 3d e1 74 9d 3d
       -0.02820085 0.05618471 0.12037447 0.076883085
0003d0 d5 49 59 bd 26 26 dc 3c e5 8e d7 ba 38 08 10 3d
       -0.053048927 0.02687366 -0.0016445784 0.035164088
0003e0 2b 8f 7f be 5d da 7d 3e 47 90 82 be af 22 a7 be
       -0.24956958 0.2479033 -0.255007 -0.3264365
0003f0 68 b0 63 be cd e5 57 bd 1b b7 2d bd 21 17 42 be
       -0.22235262 -0.05270939 -0.04241095 -0.18954135

encoder.gru.weight_hh_l0 f4 [96, 32]
000000 b3 92 28 3e 79 40 52 3d 87 62 9f 3e 6b 4e c5 3d
       0.16462211 0.051331017 0.31129858 0.09634098
000010 59 25 d6 bc 71 eb 24 bd be cc 00 3e ef 65 93 bc
       -0.026140856 -0.040263597 0.12578103 -0.017992942
000020 10 0a 7c 3e 61 0d b9 3d bb 4d 73 3c c8 06 c5 3d
       0.24613214 0.09035755 0.014850075 0.09620434
000030 3e 76 2a bc 5e 18 6b bd 2f ed ac bd 0b f0 34 3e
       -0.010404168 -0.057396285 -0.08443677 0.17669694
000040 fb c4 78 be 11 2d 44 3e db 7f ff 3d 5c 7a bf 3e
       -0.24293892 0.19157816 0.12475558 0.3739804
000050 44 6a a5 3e 11 fd b6 bd 35 11 f4 3d 15 0f b3 3e
       0.32307637 -0.08934987 0.119173445 0.34972444
000060 1c f6 f1 bd a4 46 92 bd b7 cb 8e be 94 08 bd 3d
       -0.1181452 -0.0714238 -0.27889797 0.09230152
000070 e7 70 5f be cc 78 ad 3d 5e 13 ad bd b9 d6 a2 be
       -0.21820413 0.08470306 -0.084509596 -0.31804445
000080 ab 11 bd 3d e0 06 ec 3d 1f 12 13 bd 04 e5 97 3d
       0.092318855 0.11524749 -0.035905953 0.07416728
000090 83 dd e3 3d ac 44 1a 3e 27 ab b2 bc 61 7c 40 be
       0.111262344 0.15065259 -0.021810127 -0.18797447
0000a0 84 cc 51 be 13 5e 54 3c a9 48 21 bd ae 18 36 3e
       -0.20488173 0.012961882 -0.039375935 0.17782852
0000b0 02 0f 63 3d dd a6 a5 3d 62 cb fa bd 67 97 08 be
       0.055434234 0.08088467 -0.122458234 -0.13339005
0000c0 3f 5b d4 bc 09 8a c0 3e 4d 39 80 3d 96 d1 49 bc
       -0.025922416 0.37605312 0.06260929 -0.012318036
0000d0 68 0b 4e 3e ca 72 0d 3e 2a 19 04 3e d3 4b 10 3e
       0.20121539 0.1381332 0.12900224 0.14091425
0000e0 ec 30 78 bd 29 8c b7 bd 87 9a 81 bb 27 67 0d be
       -0.06059353 -0.0896228 -0.0039551887 -0.13808881
0000f0 bb 1f d5 bd f1 0b 41 bb d8 b5 3f be 64 db 4e be
       -0.10406443 -0.002945658 -0.18721712 -0.20200878
000100 a2 fd b2 3b 4f 26 79 be 7d eb 8a 3d 54 7f 35 be
       0.0054623643 -0.2433102 0.06783197 -0.17724353
000110 49 8d 5f 3e 55 ed 0b be f1 fb 94 3d 0b 25 f3 bd
       0.2183124 -0.13664754 0.072746165 -0.118723
000120 64 0b 87 3d 94 7f 37 3e 05 f5 5a bd 70 67 5b bd
       0.065939695 0.17919761 -0.053456325 -0.053565443
000130 fd 1c f6 bb 1b fb 94 bd 8f f5 b1 bd 9f 51 41 be
       -0.00751078 -0.07274457 -0.08689415 -0.18878792
000140 10 6c ff 3a e4 26 a0 3d 09 70 91 3d 39 fc 5b 3e
       0.0019487161 0.07819918 0.07101447 0.21482934
000150 90 40 7c bd 86 f3 9e 3d 65 82 9b 3e b4 0c a3 bd
       -0.06158501 0.07761292 0.3037292 -0.07961407
000160 2f 3b 6a 3d 0c 59 ab bc 91 9f 5b bd 53 2e d6 bd
       0.057185348 -0.020916484 -0.05361897 -0.104580544
000170 42 cc 2f 3e d1 c7 8e bd 1c ab 8a 3d ce e1 69 3d
       0.17167762 -0.06971706 0.06770918 0.05710011
000180 5e a2 21 bd fe 9b 97 3d c7 7f e4 3d 67 47 3b be
       -0.039461486 0.074028 0.11157184 -0.18288957
000190 fd 04 10 3e 41 7e c6 3e 4e 6f 96 3e 62 55 93 be
       0.14064403 0.387682 0.29381794 -0.2877608
0001a0 2e 64 f4 bd 3c ed b3 3c 10 85 1d be 7a 3a 03 3d
       -0.1193317 0.021963708 -0.1538279 0.03203819
0001b0 ee 1e 25 be 2d 84 33 be e3 db 8e be 7e a8 bb be
       -0.1612508 -0.1753089 -0.27902135 -0.36651987
0001c0 31 7e 67 be ad cc b0 3e 1e a6 46 3c cf 2c 71 3d
       -0.22606732 0.34531155 0.012124566 0.058880623
0001d0 2a 45 89 3e d8 0a 1d be 43 50 96 3c 3d 0b 85 be
       0.2681058 -0.15336168 0.018348819 -0.25985137
0001e0 46 27 e7 bd aa 29 c7 3c 02 35 0d bd 65 79 ab 3e
       -0.11286788 0.02431186 -0.03447438 0.33491054
0001f0 f6 4f 0c 3d 05 f3 3f 3c 8c eb 31 be e1 30 22 be
       0.034255944 0.011715655 -0.1737501 -0.15838958
000200 0c e6 62 bd b5 b1 01 3a 16 59 82 bb 8a 20 0d be
       -0.05539517 0.000494744 -0.003977905 -0.13781944
000210 d1 eb f2 3d 24 f1 d5 bd d7 4d 82 bc 8d 0b 4d 3e
       0.11861385 -0.104463845 -0.015906258 0.20023938
000220 1d 3f 91 bd 74 f6 d5 bc 5d f4 82 3e f0 fd d5 3b
       -0.07092116 -0.026118495 0.2557706 0.006530516
000230 23 aa b4 3d e2 61 c5 3d cb 46 d9 bb 9e 58 7b bd
       0.088215135 0.0963781 -0.0066307536 -0.06136381
000240 2b 22 1d 3d a1 51 8b bd cc 94 a8 3d 39 40 a7 3c
       0.038362663 -0.06802679 0.08231506 0.020416366
000250 e2 16 4b 3d fc b2 b5 bd 00 28 75 ba c3 19 fa 3d
       0.04958237 -0.08872029 -0.0009351969 0.12211945
000260 90 f6 06 be a5 38 b6 bd 00 fa bd 3d 43 42 a7 bd
       -0.13179994 -0.08897523 0.09276199 -0.08166935
000270 8b 1c 47 be 41 1f ec bd 79 61 28 3d 3e e3 23 3e
       -0.19444482 -0.11529399 0.041108582 0.16004655
000280 f2 aa d5 3c f0 0d 4a be b1 eb 92 bd 23 c1 0b 3e
       0.02608249 -0.19731879 -0.07173861 0.13647895
000290 bb 91 40 3e 7f bb 42 3d a9 60 13 3e b6 e1 73 bd
       0.18805592 0.04754209 0.14392342 -0.059541427
0002a0 b2 4a 87 be fc bd a7 3d d4 a0 d2 3d 81 37 1a 3e
       -0.26424176 0.081905335 0.10284582 0.15060236
0002b0 4b 3a 01 bd b8 9e 17 bd 15 c8 92 bd 3d 2c 0a bd
       -0.031549733 -0.0370166 -0.07167069 -0.033733595
0002c0 cc a7 4d 3b 25 f8 4a 3d 73 68 7a be 20 23 cc 3d
       0.0031380532 0.049553055 -0.24453907 0.09967637
0002d0 92 44 24 be dc a6 73 38 dc 3f ee 3c 84 bc 25 be
       -0.16041782 5.8091115e-05 0.029083185 -0.16185194
0002e0 72 4f 92 3d 7a 0d eb bc 0f 2b 21 3e a0 a3 ef bd
       0.07144059 -0.02869295 0.15739082 -0.11701131
0002f0 01 d4 00 3d bf 55 20 bd 55 ad 2d 3e ab c1 0e be
       0.031452183 -0.039144274 0.16960652 -0.13941066
000300 18 ff 9a 3e a7 c9 0d 3d 6a 70 a7 bb 01 c3 c9 bd
       0.30272746 0.03461614 -0.0051098363 -0.09851647
000310 38 27 23 3d 61 4e 0a 3f ff 80 c5 3e 4d 91 04 bd
       0.039832324 0.54025847 0.3857498 -0.032365132
000320 f1 a1 32 be 72 87 42 be 13 76 f9 bd 56 00 a7 bd
       -0.17444588 -0.18996981 -0.12180724 -0.08154361
000330 6b f1 18 be 0e d6 ad 3e 43 06 3e be 14 d0 92 be
       -0.14935844 0.33952373 -0.18557076 -0.28674376
000340 7f 90 a7 be db 85 9d 3e b4 5e 33 be d4 34 e3 bd
       -0.3272743 0.30766186 -0.17516595 -0.110940605
000350 55 9b ed bd dd d8 73 bd 1c 4b 1b 3d e4 0f c9 be
       -0.11601893 -0.05953299 0.037913427 -0.39269936
000360 c9 1c 14 3c af 99 5f bb 37 8c 8a 3c f5 f5 a0 3b
       0.009040066 -0.0034118702 0.016912563 0.004912133
000370 3d c6 d2 bd 85 21 06 bd 35 94 2a 3e 20 6a fd bd
       -0.10291717 -0.03274681 0.16658099 -0.12373757
000380 8e 0d ec bc 0d b9 22 3d 7e 23 0c 3e 6e 16 d2 3d
       -0.028815057 0.03972726 0.13685414 0.102581844
000390 df 21 1f 3d 86 0f d8 bd 2d e1 bb 3d c8 1f a2 be
       0.03885066 -0.10549836 0.09173808 -0.31664872
0003a0 38 b5 04 be d5 71 75 bd 1d 02 f4 3d 22 73 d1 bd
       -0.12959754 -0.05992301 0.119144656 -0.10227038
0003b0 53 ed a2 3d d8 90 53 3e 64 7e 68 be 39 ff a3 be
       0.07955422 0.20660722 -0.22704464 -0.32030657
0003c0 10 17 90 bd f1 ad 69 3e 60 23 09 3e 65 82 98 3d
       -0.07035649 0.2282026 0.133924 0.07446746
0003d0 5c b3 87 3e 0b b9 11 be 58 6a 58 39 da ff 4e 3e
       0.26504028 -0.14230745 0.00020638981 0.20214787
0003e0 1f ea 1b 3e 26 6e 18 be a4 d6 1a be ed e8 88 3e
       0.15226029 -0.14885768 -0.15120941 0.26740208
0003f0 b4 5f b3 be 70 b9 e5 ba 52 40 7e 3e fc 95 45 be
       -0.35033953 -0.0017526578 0.24829224 -0.19295496

encoder.gru.bias_ih_l0 f4 [96]
000000 c0 39 58 3e 6b e8 54 be 5e c8 b0 bd 87 2b 95 bd
       0.2111578 -0.20791785 -0.08631967 -0.07283693
000010 9c e4 6e bd 02 17 2a be 73 03 b7 bd 1e df 0d bd
       -0.058323488 -0.1661034 -0.08936205 -0.03463661
000020 3b 67 19 3e 12 0e b0 bc 56 dd bf bd 8c 96 be bd
       0.14980786 -0.021491084 -0.09368388 -0.09306058
000030 8f 77 cc 3d bc 54 9e 3d f3 3b 51 bd 0f a5 71 3e
       0.099837415 0.077310055 -0.051082563 0.23598121
000040 cd 5f 0f 3d ba a8 15 be 91 e6 19 3e 06 56 27 be
       0.035003472 -0.14615145 0.1502936 -0.16341409
000050 dc c8 25 3e 0d 72 30 3e 85 dd 08 3e 8b 8a 6d 3d
       0.16189903 0.17231007 0.13365753 0.057993453
000060 21 15 a0 bb 10 5f 2a 3e 52 da 90 3e 13 3d 3c bd
       -0.0048853313 0.16637826 0.28291565 -0.045956682
000070 06 c0 47 3b ed 1b 8e 3d e3 d8 0d 3e a5 1a c3 3c
       0.0030479445 0.0693892 0.13852267 0.023816416
000080 fa cc 25 bd 41 0e e6 bb 08 ca 89 3d 71 35 26 be
       -0.040478684 -0.007020742 0.067279875 -0.16231324
000090 8d f9 2b 3e 88 17 d2 b9 41 cf 2a be ca 92 92 be
       0.16794415 -0.00040071853 -0.16680624 -0.28627616
0000a0 89 d8 5c bd ce df 86 be 8d a3 ba be 9d cf 06 be
       -0.05391744 -0.26342624 -0.36452904 -0.13165136
0000b0 ed a5 19 3e 1a 59 f7 bd 0b ad 1c be 72 89 9a be
       0.15004702 -0.12077542 -0.15300386 -0.30182987
0000c0 b3 3d 31 bc 6d 3a d4 bd e7 c5 40 3e 83 c6 b3 bd
       -0.010817933 -0.10362706 0.18825494 -0.087780975
0000d0 15 e8 ef 3c 87 5a 7f bd a0 3c cd bd 91 a5 1f 3e
       0.02928547 -0.062342193 -0.10021329 0.15590502
0000e0 b7 c6 b6 bd e5 a2 fe bd 92 0f 79 3d c4 09 6f bb
       -0.089246206 -0.124334134 0.060805865 -0.0036474327
0000f0 1a bd ec bd 2e 45 88 bd 5c 6a e1 3d 1e bc 2f be
       -0.11559506 -0.0665382 0.110066146 -0.17161605
000100 e4 d0 d0 bd 56 49 f6 3d ec 64 ea 3d fd 17 1a 3e
       -0.10196093 0.120257065 0.114450306 0.15048213
000110 ca 59 f8 bd 3b 95 08 3e c4 29 25 3d 9e 3e d4 3d
       -0.12126501 0.13338177 0.040323034 0.10363506
000120 33 96 f8 3b e6 43 d3 bc f5 1e 4b 3d c0 2e b0 bd
       0.0075862645 -0.025789212 0.04959007 -0.08602667
000130 c9 a7 06 3e af 82 18 3e cb 68 12 be 33 7e db 3d
       0.13149942 0.14893602 -0.14297788 0.1071743
000140 79 88 93 3b b8 e2 13 3e b3 32 f0 3d 7f 5b 3b be
       0.004502353 0.14441955 0.1172842 -0.18296622
000150 f1 36 3f bd 99 53 d8 3d 39 37 bb 3d 91 2a 2e bd
       -0.046683256 0.1056282 0.09141392 -0.042521063
000160 b7 42 7a 3d 78 35 56 3d ec fa 80 bc 47 08 67 3c
       0.06109878 0.052297086 -0.015744649 0.014101095
000170 a8 ee cc bd 8a b5 91 bd 2b 71 9a 3c 55 d4 58 3d
       -0.100064576 -0.07114704 0.01885279 0.05293687

encoder.gru.bias_hh_l0 f4 [96]
000000 13 d5 d1 3d 20 83 1f bd 43 0b d5 bd 55 1d cd 3d
       0.10245719 -0.03894341 -0.104025386 0.1001536
000010 73 51 9b 3c 76 4e 4d be f3 2e b8 bd c7 f6 b1 bc
       0.018959736 -0.20049462 -0.0899333 -0.021724118
000020 19 a8 f3 3d d5 b1 00 3d 8f 26 15 be d4 52 c2 bc
       0.118972965 0.031419594 -0.1456549 -0.023721136
000030 a3 d7 6c 3e 1e a5 89 bd 65 53 6f 3d f5 e7 76 3e
       0.23129134 -0.06720947 0.05842914 0.24111922
000040 14 3e 6e bc b4 ef 0d 3e f4 5e 9a 3d 59 1b bd bc
       -0.014541168 0.1386097 0.07537642 -0.02308433
000050 74 a8 7a 3e f1 ca 29 3e 65 9f 52 bd 3c d9 f1 3d
       0.24478322 0.16581322 -0.05142154 0.11809012
000060 57 79 2a 3e 0d 83 34 ba d3 9c 33 3e 5d 52 b5 bd
       0.1664785 -0.0006885983 0.17540292 -0.088536
000070 8c e1 fb bc 9b f2 32 3d ce 2e 00 3b df 61 e0 bb
       -0.030747198 0.043688398 0.0019559148 -0.0068476046
000080 5d c6 0a 3d 41 1e 1a 3e b9 4a 8b 3c 3d 61 a1 be
       0.03388058 0.15050603 0.017003404 -0.315195
000090 7a e5 06 be 06 a9 94 be e6 44 6e 3d a4 c5 20 be
       -0.13173476 -0.29035205 0.058171175 -0.15700394
0000a0 14 66 57 3e 8d 94 94 3c b1 e8 69 be f1 60 98 bd
       0.21035033 0.01813724 -0.22842671 -0.07440365
0000b0 dd 45 fc bd 89 f7 70 3d 3f 3c 97 bd 16 3b 83 be
       -0.12318013 0.058829818 -0.07384538 -0.25631016
0000c0 9e 8f 02 3e 36 0b 6b 3d a9 cd ed 3d 6c 72 34 be
       0.12750098 0.05738374 0.11611492 -0.17621773
0000d0 13 0f bb bd 94 94 84 3d f1 f2 1f bc 6c b5 5e 3c
       -0.091337346 0.064736515 -0.009762512 0.013593059
0000e0 10 1f db 3d ac a1 52 be d3 ab 35 be f1 89 08 3e
       0.10699284 -0.20569485 -0.17741327 0.1333387
0000f0 44 76 3a be 3c 3e 75 3e db 15 ad bd 4c 7d fa bd
       -0.18209177 0.23949522 -0.08451434 -0.1223093
000100 aa dc fb 3d 58 b4 b9 3d b6 b6 b5 3d fa 59 bd bd
       0.12297948 0.09067601 0.0887274 -0.09245677
000110 78 86 cb 3d 66 30 f4 bd de e6 a2 3c d1 5b 24 be
       0.09937757 -0.11923294 0.019885477 -0.1605065
000120 25 82 33 be 65 9f fd bd e7 9a fc bd 20 6e 19 be
       -0.17530115 -0.12383918 -0.12334233 -0.14983416
000130 87 10 9b bd 37 cc 11 3e a4 cf 9c bd 98 a2 c9 bd
       -0.07571512 0.14238058 -0.07656792 -0.098454654
000140 3b 11 85 3c 38 2b 20 be bf e1 51 bd a0 e4 7d bd
       0.016243568 -0.15641487 -0.05124068 -0.061985612
000150 18 84 3e be 5c f8 29 3e 48 e2 34 bd e6 02 67 bd
       -0.18605077 0.16598648 -0.04416111 -0.05639925
000160 d6 7a 8e bd 08 2c 37 bd ca 27 e8 bb b2 c6 16 3b
       -0.06957023 -0.044719726 -0.0070848214 0.0023006615
000170 7b ca 28 be 5d 0b b0 bd d7 9d 80 3c a7 ea 09 3e
       -0.1648349 -0.085959174 0.015700264 0.13468419

decoder.attention_model.attn.weight f4 [32, 64]
000000 e5 ca 38 3e c5 04 30 3c 34 3c 34 3e 4c ef 1b 3e
       0.18046148 0.010743325 0.1760109 0.15228003
000010 3b d9 45 3e f6 a6 e9 bd e7 f2 8a 3c a3 7d 93 bd
       0.19321148 -0.114087984 0.016961528 -0.07201698
000020 f3 dc 39 bc 49 89 a8 3c 32 c4 b1 bd cb c7 b7 3e
       -0.011344182 0.020573275 -0.086799994 0.35894617
000030 72 79 56 bd 91 80 42 be 31 a4 a1 3d 3e 69 a0 3e
       -0.052361913 -0.18994357 0.07892645 0.31330293
000040 fc b0 3e bc 43 2e 24 3d dd b9 45 3d 56 58 9c bd
       -0.011638876 0.04008318 0.048272956 -0.07634036
000050 b5 c5 0d 3c e6 f4 a8 3d 79 9d 58 bd b2 74 91 3d
       0.008653094 0.08249836 -0.052884553 0.07102336
000060 7b d8 3d 3d 1c 3d 1e 3e 4d 00 ce bd f7 53 fc bd
       0.04634903 0.15452999 -0.10058651 -0.123207025
000070 f6 48 16 be 08 e4 b2 bc d1 af 1a be ec 29 43 3e
       -0.1467627 -0.02183725 -0.15106131 0.1905896
000080 4d 9e 39 3e 4c 70 6c 3c 52 da 60 bd 7b ae c0 bd
       0.18126793 0.014431071 -0.054895706 -0.094082795
000090 4c 57 ef bc 11 0a da 3e bc 18 9e 3e 23 7a 66 3d
       -0.029216431 0.42585805 0.30878246 0.056268822
0000a0 59 1f cf bd 8b c4 45 bd f5 be cc 3c 88 ed 17 bd
       -0.10113401 -0.04828314 0.0249934 -0.03709176
0000b0 7a 04 b1 bb ff fd b8 3d 54 9e b9 3d 11 ed aa bd
       -0.005402145 0.09032821 0.09063402 -0.08345998
0000c0 df ad 85 bd b6 fe 6f bc f8 85 2d 3d 42 3b d3 bd
       -0.06527304 -0.01464813 0.04236409 -0.10314037
0000d0 f6 22 fc 3c e0 22 40 3e 26 44 c7 bd 26 ff 05 3c
       0.03077839 0.18763304 -0.09729795 0.008178508
0000e0 f2 ed 8c 3d 00 21 43 bd 08 26 cd 3d de f7 8b 3d
       0.06881322 -0.047638893 0.100170195 0.06834386
0000f0 92 0e bc 3b 83 99 92 3d de 31 25 3e 1a 32 49 3d
       0.0057390416 0.07158186 0.16132304 0.049120046
000100 b2 bf 53 3e e7 94 4d 3e 16 dd da 3d 59 cf cc bd
       0.20678595 0.20076333 0.106867 -0.10000486
000110 0d ac 35 3e d4 d6 12 be 29 55 fa 3b 3f e0 24 3e
       0.17741413 -0.14339763 0.0076395464 0.16101168
000120 97 1f 51 3d 40 8a 1d bb 04 01 d8 bc 47 54 d2 3e
       0.051055517 -0.0024038702 -0.026367672 0.41079924
000130 17 57 f6 bd 5b a7 7b be b9 5c 43 3d 87 31 f1 3e
       -0.1202833 -0.2457556 0.04769585 0.471081
000140 ec 43 3c 3c b2 a0 24 3e b6 e7 e6 3d 8b c8 2c be
       0.011490803 0.16076925 0.11274664 -0.16873376
000150 fa 3d d0 bd 18 9f fd 3d 5f 03 70 bd c2 2f 6a 3d
       -0.10168071 0.1238386 -0.058596965 0.05717445
000160 39 51 1a be 4b 86 1c 3f 83 24 24 be 76 e7 22 bd
       -0.15070046 0.61142415 -0.16029553 -0.03977152
000170 55 1f 47 3d bc 05 ab bd 57 68 99 bc 1c 38 b0 3e
       0.048613865 -0.08350703 -0.01872651 0.34417808
000180 3d c4 3e 3e a2 15 46 bd 8a 46 19 bc d6 62 f1 bc
       0.18629546 -0.048360474 -0.009355197 -0.029466074
000190 bc 54 36 be 8a bf 6f 3e 75 90 c2 3e 63 23 52 3d
       -0.17805761 0.2341291 0.38000837 0.05130328
0001a0 9e ac 5b be 62 37 6a be 39 5c ae 3d 80 dd 35 bd
       -0.21452567 -0.2287269 0.08513684 -0.044400692
0001b0 05 e3 bf bc b3 fa 02 3e 38 b9 89 bc 84 90 ca bd
       -0.023423681 0.12790947 -0.016811952 -0.098908454
0001c0 d0 74 87 3c 7d c9 e0 bd f6 88 85 3d 3f 1f cd 3c
       0.016535193 -0.10975931 0.06520264 0.025039313
0001d0 af 5d 83 bd 69 c2 5c 3e ae 36 66 3d 89 6a 0c bd
       -0.06414353 0.21558537 0.05620449 -0.034281287
0001e0 fd 8c c1 bd b9 53 f9 bc d3 27 08 bc 95 37 a8 3d
       -0.094507195 -0.03043543 -0.008310276 0.082137264
0001f0 f3 3a 0f 3c 78 26 5f 3b ea 7e 18 3e a4 ec e9 3d
       0.008742082 0.0034050029 0.14892164 0.11422089
000200 57 db f3 bc 75 68 30 3e 0e 0c 9c bc 14 fd b0 3b
       -0.029767675 0.17227347 -0.019048717 0.005401263
000210 97 ee 39 be 7e 21 c9 3c 0e e8 5f bc f6 25 05 3e
       -0.18157421 0.024552103 -0.013666166 0.13002762
000220 c6 ea 14 bd 56 4f 14 3d fb 91 67 bd 51 06 87 be
       -0.03635671 0.036208473 -0.056535702 -0.26372007
000230 88 c8 9d bd f3 ac ab bd ac f4 16 be 83 df 1c be
       -0.07704264 -0.08382597 -0.14741772 -0.15319638
000240 e1 c4 8e be 92 aa 52 3e 02 81 85 3e 36 1c 19 bd
       -0.27884582 0.2057288 0.26074988 -0.03738042
000250 4f 79 0d 3e 12 be 6f bd 69 d8 47 3e d5 cd b8 3d
       0.13815807 -0.058530875 0.19516148 0.09023634
000260 0d 63 c0 bd f9 b9 11 be e4 4e 3c 3d a0 13 ed bb
       -0.093938924 -0.14231099 0.045973673 -0.0072350055
000270 9e 3d 49 3e 58 76 b5 3e ef 3d de 3a d9 8d ba bc
       0.19652411 0.35441852 0.0016955714 -0.022772716
000280 4d a9 fa bd 80 19 f8 bd ab e9 bb 3d c4 55 5b 3e
       -0.12239323 -0.12114239 0.09175428 0.21419436
000290 92 30 b3 3d ec fa 9a be 1c 1a 6c be ef 0f d4 bd
       0.087494984 -0.30269563 -0.23056835 -0.103546016
0002a0 ce 6d 37 3e ec 36 09 3d 0c 87 d5 3d b7 4d 73 bd
       0.17912981 0.033499643 0.10426149 -0.059400287
0002b0 17 9b 8b 3d fa 17 4c bd 32 3f ba bc 14 6b af bc
       0.068166904 -0.049827553 -0.022735212 -0.021413364
0002c0 3c a7 39 3e 05 85 06 be a3 ab 5d bd 97 aa 89 3d
       0.18130201 -0.1313668 -0.054118764 0.067219906
0002d0 a5 99 9e bd e8 54 42 be 67 f8 bd 3d 98 ce f7 bc
       -0.07744149 -0.18977702 0.092758946 -0.030249879
0002e0 4f 4a 81 bd 2e 51 68 3d 33 de 6d 3b e0 01 a4 bd
       -0.06313001 0.056718044 0.003629577 -0.0800817
0002f0 26 83 2f 3c 2b d8 f3 bd 6e 86 34 be 22 bd 94 3b
       0.010712421 -0.11906465 -0.17629406 0.004539148
000300 f5 c2 fb bd 08 a9 4d bd d2 7d 06 be 5d e4 1d be
       -0.122930445 -0.05021003 -0.13133934 -0.15419145
000310 88 b2 60 bd 6d ad 18 3e b6 8d 53 bd 03 c2 e7 3c
       -0.05485776 0.14909907 -0.051648818 0.028290754
000320 c0 6d ee 3c f8 2b d9 bd 84 54 04 3e f6 52 ad be
       0.029105067 -0.106040895 0.12922865 -0.33852357
000330 e4 aa 57 bd 51 a4 48 3e ce c6 e6 3d cc d2 46 be
       -0.05265321 0.19593932 0.11268388 -0.1941635
000340 f0 78 2a bd 35 6a 1f be 9f 02 69 be f1 b6 c8 bd
       -0.04161924 -0.15567859 -0.22754906 -0.09800518
000350 98 bf 31 3d 96 b6 38 be b6 75 27 3e 15 4a 0a be
       0.04339561 -0.18038401 0.16353497 -0.13504823
000360 bf 2f 16 3d aa db af be 5d 7a fa bc 1d 4d 87 3c
       0.036666628 -0.34347278 -0.030575925 0.016516263
000370 a0 9c ea ba 9d 86 81 3d 7d c6 34 3d b3 c8 ac be
       -0.0017899461 0.063245036 0.044134606 -0.3374687
000380 df d2 0f be ab 1b a9 bd cf 9b 6d 3d af fd e8 3d
       -0.14045285 -0.0825723 0.05800992 0.11376511
000390 be cd b4 3d a1 b6 56 be d5 e5 53 be 86 23 9d 3d
       0.08828305 -0.20968105 -0.20693143 0.07672791
0003a0 83 85 22 3e c6 34 06 3e 29 0b 12 be e3 7a e1 3d
       0.15871243 0.13106069 -0.1426207 0.11009767
0003b0 f5 62 18 be 24 52 74 be 60 13 23 3d 31 42 df 3a
       -0.14881499 -0.23859459 0.0398134 0.0017033276
0003c0 5d d7 dc 3d fe 04 ab 3d 6c 25 c2 3d 16 a1 23 3c
       0.10783265 0.083505616 0.09479794 0.009987136
0003d0 6d ec 89 3d fd 78 5a be c4 ec 0f 3e ae fa 39 3e
       0.06734548 -0.21335216 0.14055163 0.18162033
0003e0 05 4e de bd 3f 3c 95 bd 85 8b 3e 3c 2a b3 b0 3d
       -0.10854725 -0.07286882 0.011629944 0.08627923
0003f0 28 e7 03 3e 21 8c 71 bc 0b 74 e8 bd a7 84 22 be
       0.12881148 -0.014742882 -0.113502584 -0.15870915

decoder.attention_model.attn.bias f4 [32]
000000 91 d5 a3 3d b0 1f f5 3d 70 50 a2 3d 6d 62 02 3d
       0.07999719 0.119689345 0.079254985 0.031832147
000010 87 ab 38 be 7d 07 25 3e 42 b4 3d 3e 49 5a 31 be
       -0.18034182 0.16116138 0.18525794 -0.17319597
000020 f7 47 6e bd 03 05 3c 3e 7d ec 82 bc f0 4a 10 3d
       -0.0581741 0.18361287 -0.015981907 0.035227716
000030 f2 4e 12 3e be 3e 10 3e a6 dc dd 3c f1 49 3d 3e
       0.14287928 0.14086434 0.027082752 0.18485238
000040 dd 6b 52 bd 2f c6 6a 3b 8d 78 54 3d d8 49 c9 3c
       -0.051372398 0.0035823693 0.05187278 0.024571344
000050 dd 45 86 3c 59 76 8c 3e df 10 95 3e e3 e1 10 be
       0.016390735 0.27434042 0.29114434 -0.14148669
000060 37 80 27 bd 40 1a 2c 3e 13 60 04 be c4 4d a6 bd
       -0.04089376 0.16806889 -0.12927274 -0.08120301
000070 d8 30 ce bd a2 a9 5c 3d 5d 41 ff bd d0 ec 16 be
       -0.1006791 0.053872712 -0.12463639 -0.14738774

decoder.attention_model.v.weight f4 [1, 32]
000000 e1 d5 99 3d ca 07 0b 3e 3e 50 6c be 08 6e 6f be
       0.07511497 0.1357719 -0.23077485 -0.23381817
000010 7e 69 4a be d6 cb 1b be 54 58 86 3e 6c 6e 8b be
       -0.19766805 -0.15214476 0.26239264 -0.27232683
000020 2b fb 38 be c1 40 56 3e 50 ff f6 bd 16 9a 3b 3e
       -0.18064563 0.20923139 -0.12060416 0.18320498
000030 7c 77 5d 3e e6 cf 8a 3e 57 66 96 3e 5e 9c 5f 3e
       0.21627611 0.2711174 0.29374954 0.21836993
000040 3c 29 3b 3e e8 17 96 be 66 58 9e bd c3 bc 62 3e
       0.18277448 -0.29315114 -0.077317044 0.2214232
000050 78 63 4e be c5 d9 8c 3e 38 2f f1 3d a5 34 9f be
       -0.20155132 0.27509895 0.117765844 -0.31094852
000060 0c 76 57 be 7c f3 8e be c5 7e 44 3e 16 96 2c be
       -0.21041125 -0.2792014 0.19188984 -0.16854128
000070 7c 3b 8d be 06 22 14 3e 71 6b d7 bd db b7 84 be
       -0.27584445 0.14466104 -0.1051854 -0.2592152

decoder.gru.weight_ih_l0 f4 [96, 45]
000000 58 88 91 be 02 22 d6 3c 3f 5c b6 3d 85 5f b8 3c
       -0.28424335 0.026139263 0.08904313 0.022506485
000010 46 3e 07 be ee 05 00 be 6e 56 43 be b6 39 d3 bc
       -0.13207349 -0.12502262 -0.19075939 -0.025784355
000020 73 98 b2 bc 8f d4 2e be d6 af 7f 3d ed 4a c7 bd
       -0.02180121 -0.17073272 0.06242355 -0.09731088
000030 37 b2 22 bd ec 6c 34 3d ae e9 7b 3d f9 ca 12 be
       -0.03972074 0.04404919 0.06150215 -0.1433524
000040 d1 6b b4 3b 47 e7 2b be 7a 20 42 3e 30 12 c3 3c
       0.005506017 -0.16787444 0.18957701 0.023812383
000050 eb 19 26 3d 31 e2 ad 3d 08 c7 b8 bb e7 ae 70 3d
       0.04055206 0.08490408 -0.0056389607 0.05876055
000060 ae 0e 2a 3c 5d 0b d7 3d af 53 42 bd 46 2a 30 3d
       0.0103794765 0.10500214 -0.04744309 0.043009065
000070 ae 4a 26 3e 72 d9 02 be 97 ef ed 3d c0 1d b3 3c
       0.16239426 -0.12778261 0.11617964 0.021864772
000080 6b b0 26 3e f7 d2 dc bd 71 c0 ae bd bf d6 9d 3c
       0.16278236 -0.10782426 -0.08532799 0.019267438
000090 a8 a6 07 be 44 68 18 3e 4e 80 83 bd ec b4 48 3e
       -0.13247168 0.14883524 -0.064209566 0.19600266
0000a0 37 6a 40 3e f7 24 b3 bd 79 57 a5 3d 24 4a 9f 3d
       0.18790518 -0.08747285 0.08073325 0.07777813
0000b0 00 c5 ed bc 6f cf 04 bf 10 cd 47 3e 02 70 ca be
       -0.029024601 -0.5187902 0.19511819 -0.3953858
0000c0 32 9d d7 3e 49 15 a8 3d 90 07 2e 3e eb 3f 63 3e
       0.42112118 0.08207185 0.16995072 0.22192352
0000d0 a8 1d fc 3d 9b ef 0c 3e a6 de cb 3d 09 b2 52 3d
       0.12310344 0.13763277 0.09954576 0.05143932
0000e0 67 6a f7 3e c8 fb 52 3e fd c4 5b 3e fd b1 8a 3d
       0.48323366 0.2060386 0.21461864 0.0677223
0000f0 68 f5 ec bd a8 83 7f be a9 9c 65 3e aa 96 1b 3e
       -0.11570245 -0.24952567 0.22423042 0.15194193
000100 0f 2f ff 3d 25 15 a8 bb df 67 6b be 3e 4a f7 be
       0.124601476 -0.0051294737 -0.22988842 -0.4829883
000110 bb 1e 3f 3e 80 34 99 bd 92 f0 10 3e e9 db a1 3e
       0.18664066 -0.07480717 0.1415427 0.3161309
000120 ea 8e 8e bd 3c da 55 bd a7 96 b3 3c 05 37 dd 3c
       -0.069608524 -0.052210078 0.021922423 0.027003774
000130 de a1 0b be a2 a0 9d be 77 2e 63 be 80 e3 c0 3d
       -0.13635966 -0.30786616 -0.22185694 0.09418392
000140 93 52 ae 3d d5 89 70 bb 37 6c 43 be 1d c2 2d 3e
       0.085118435 -0.0036703248 -0.1908425 0.1696858
000150 ea e2 21 3e f7 60 4d 3b 92 b3 02 3d f4 1a b6 3d
       0.15809217 0.0031338313 0.031909533 0.0889186
000160 21 d0 a4 3d 8e ca b1 3e 04 71 59 3e 5d 57 17 be
       0.0804751 0.3472485 0.21234518 -0.1477942
000170 14 cc 4d 3c 89 01 58 be 94 30 07 be cb 3a 1c bd
       0.012560863 -0.21094336 -0.13202125 -0.038142007
000180 ba 15 ce bd 7e 8c 0e be e8 77 60 be f6 5e 62 be
       -0.10062738 -0.13920781 -0.2192074 -0.22106537
000190 1e 3d 63 3e 10 f7 0a 3e eb 6c b9 bb 24 10 1a 3e
       0.22191283 0.1357081 -0.005658736 0.1504522
0001a0 94 da 6f 3d b5 e0 09 be 0f cb 3c bc 19 b8 66 bc
       0.05855806 -0.13464625 -0.011523022 -0.014081978
0001b0 ad 97 24 be fc 77 1b be ba 27 a3 be 27 a9 39 3e
       -0.16073485 -0.15182489 -0.31866246 0.18130933
0001c0 ce 7e 5f 3c fa dd 8a 3b 96 89 61 3b 97 4f 29 be
       0.013641072 0.0042378874 0.0034414283 -0.16534267
0001d0 ab 98 3f 3d 16 d6 a4 bd e7 41 e8 bc ff 59 16 3d
       0.046776455 -0.08048646 -0.028351737 0.03670692
0001e0 dd 95 c0 bc f7 a0 04 3e da 53 77 3e ef 24 da 3d
       -0.02350896 0.12952028 0.2415308 0.10651576
0001f0 ad 80 a8 bb 62 a8 ff 3d b0 54 2b 3e bf 3b 05 bb
       -0.0051422925 0.12483288 0.16731524 -0.00203298
000200 2d 0e 45 3d af 50 40 bc fb 37 62 3a 99 77 bd bd
       0.048109222 -0.0117379865 0.00086295576 -0.09251327
000210 24 c1 f5 3c 94 49 ba 3d 5f 7a 76 3e 05 de 36 3e
       0.029999323 0.09096065 0.24070118 0.17858131
000220 d4 c1 0d be c4 a8 16 3e 42 fe 08 bd e6 68 9f bc
       -0.13843471 0.14712816 -0.033445604 -0.0194592
000230 fa 70 0c 3e 93 fc 8d bc 35 85 74 bc 72 dc 55 3d
       0.13714972 -0.01733235 -0.014924337 0.052212186
000240 c5 fb b8 3c 9e 54 6d bd e7 6f 52 3e e9 df 75 3e
       0.02258099 -0.057942025 0.205505 0.24011196
000250 ec 46 a1 3d b7 90 20 be 48 79 5b be 7c ca c9 3d
       0.078748554 -0.15680204 -0.21432984 0.09853074
000260 44 5d 83 3d ef c7 aa bd f3 b3 4d be 97 e2 9c 3e
       0.064142734 -0.083389156 -0.20088176 0.30641624
000270 9d 70 e6 bc db 05 c4 be 75 9d 50 3e 8c 2b d9 bd
       -0.02812987 -0.38285717 0.20372565 -0.10604009
000280 cf 6b 55 3e 28 00 8c 3e f2 2e 32 3d c3 f9 19 3e
       0.20841907 0.2734387 0.0435018 0.15036683
000290 bc 15 cd 3d d5 4f 44 be fd 97 2b 3c e1 97 d4 bd
       0.10013911 -0.19171079 0.010473249 -0.10380531
0002a0 42 fd ed be c5 a8 f2 3c c1 df 87 3d fb d2 ca 3c
       -0.46482283 0.029621491 0.066344745 0.024758806
0002b0 2f 47 06 bc 30 88 12 35 8e 36 02 3e 26 c1 8f be
       -0.008195682 5.458742e-07 0.12716123 -0.28077048
0002c0 55 2e b9 bc e9 53 6f 3e 8d 5d ea 3d 16 10 ac 3c
       -0.0226051 0.23371853 0.11443625 0.021003764
0002d0 9f 8e 97 bc 91 47 a6 bd 4d 62 7d be 13 47 1b be
       -0.018500624 -0.08119119 -0.2474453 -0.15163831
0002e0 d5 f7 b7 bd b5 60 dc 3d 68 ff 65 bd 6d 34 b1 3d
       -0.08982817 0.10760633 -0.056151778 0.086525775
0002f0 c2 3f 26 be f3 53 15 be e8 e9 af 3d 7b e8 08 be
       -0.16235259 -0.14582805 0.08589536 -0.13369934
000300 04 a5 db 3d 36 e8 e4 3d c7 e7 41 3e 6b 88 38 3d
       0.107248336 0.11177103 0.18936072 0.045051973
000310 92 29 cf 3c 42 40 39 be de 16 4f 3e d2 17 0a 3d
       0.025288377 -0.18090919 0.20223567 0.033714123
000320 bf 79 ba 3d b4 91 14 bd 6b b0 ec bd 6a 71 6c bd
       0.091052525 -0.036271766 -0.115570866 -0.057725348
000330 aa 2e 12 be 8e 6e 17 3e 00 34 4a 3e f1 13 85 be
       -0.14275613 0.14788267 0.19746399 -0.25991777
000340 8c 0f 0d 3d ed e0 b0 3d e4 d9 1d be 9e a2 b9 3c
       0.034438655 0.08636651 -0.1541515 0.02266055
000350 c1 12 1b 3c 56 db a2 bc 00 60 2a 3e 08 25 ea ba
       0.0094649205 -0.019879978 0.16638184 -0.0017863819
000360 7e 34 e9 bd 07 84 e2 3d 96 fb d2 bd 03 82 89 3d
       -0.11386965 0.110603385 -0.103018925 0.06714251
000370 0e 8a 47 3e 3e af b3 3d a5 11 e0 bc c9 85 2e 3e
       0.19486257 0.08773659 -0.027352164 0.17043222
000380 6b 4c f8 3d 65 70 35 be 27 4b 0a 3b a8 97 0f 3d
       0.121239506 -0.17718656 0.0021101923 0.03505674
000390 86 03 92 3e 4a 8e a0 bd 91 f2 bb bd 45 94 07 be
       0.28518313 -0.078396395 -0.09177125 -0.13240154
0003a0 ff 44 0f be 96 93 94 bd 59 60 9f 3c f2 4c 2e 3e
       -0.13991164 -0.07254712 0.019455122 0.1702154
0003b0 fd ae a9 3d 8c ab a9 3d 04 7e d9 3d 45 b3 94 bd
       0.082853295 0.08284673 0.10619739 -0.072607554
0003c0 5f 53 09 3d 07 89 d5 3b 3e 75 19 3d 84 3b 4f 3e
       0.033526774 0.006516579 0.037465326 0.20237547
0003d0 ea bf 54 3d 1d b0 b6 3d c0 77 47 3e 6e ba 0b be
       0.051940836 0.0892031 0.19479275 -0.13645336
0003e0 53 61 a6 bd 82 27 9f bc a2 f8 b2 3d 96 c6 77 3d
       -0.08124032 -0.019428018 0.08738829 0.06049212
0003f0 67 64 48 3c c7 0f 2f 3d b6 2a 5b bd ab 7c 26 be
       0.012230969 0.042739656 -0.05350753 -0.16258495

decoder.gru.weight_hh_l0 f4 [96, 32]
000000 93 6e 5a bd d8 b1 8c 3c f5 c2 38 3d a2 2e 0c bd
       -0.053328108 0.017174646 0.0451078 -0.03422416
000010 81 d6 ae be 15 c4 44 bd f5 11 d9 bd cb cf 42 3e
       -0.34148028 -0.04803856 -0.10599128 0.19024579
000020 58 cd c7 3c 14 5b b8 bd 0d 5d d3 3d 67 cc 83 3e
       0.024389908 -0.09001747 0.103204824 0.25741884
000030 a0 93 e5 3d 03 45 c5 bd f3 8b 64 bd b2 f2 17 bc
       0.11209798 -0.096323036 -0.05579753 -0.009274172
000040 7c 39 19 bd 47 98 f5 bc 67 38 55 bc 6b c6 9b 3e
       -0.037408337 -0.029979838 -0.013013936 0.30424818
000050 fc c3 58 3d 0c 09 62 3e a2 39 cf bd 0d d9 2f 3e
       0.05292128 0.22073764 -0.101184145 0.17172642
000060 d5 9d 18 bd 2d 8d 04 be 40 a9 34 be 98 38 10 3e
       -0.037259895 -0.1294448 -0.17642689 0.14084089
000070 13 b5 7e bd 01 10 98 3e 08 89 3a be 47 24 83 bd
       -0.062184405 0.2969971 -0.18216336 -0.06403404
000080 40 b8 23 3e 77 fb 8f bd 1c b8 cb bd 09 b7 3f be
       0.15988255 -0.07030385 -0.099472255 -0.18722166
000090 cf b8 8a 3d 28 0b 05 be 54 88 60 bd d0 d1 a6 be
       0.06773531 -0.12992537 -0.054817513 -0.3258195
0000a0 4d b7 88 3b 16 99 2f 3e 1c c2 b8 3d 23 66 5e be
       0.004172242 0.17148241 0.090213984 -0.2171865
0000b0 5f ff 0f 3e 9f 4f 24 3e a2 8a 49 3e 1b fd 1c bc
       0.1406226 0.16045998 0.1968179 -0.009581829
0000c0 6c b8 9e be 8b ec b6 3e 9a a2 9e be 50 a7 8b be
       -0.31000078 0.35727343 -0.3098343 -0.27276087
0000d0 6f c4 2b be 28 a3 e0 3d 43 86 e9 3e 8e e7 63 be
       -0.16774152 0.109686196 0.45610246 -0.222563
0000e0 77 ee 8d bd 21 53 44 3e 56 a5 b7 bd 6e cc 27 3e
       -0.06930249 0.19172336 -0.08967082 0.16386577
0000f0 2b 61 88 bd d9 52 49 be cd 51 dd bd f3 e6 d2 bd
       -0.06659158 -0.1966051 -0.10806618 -0.10297956
000100 c9 12 c1 3d 24 52 1c bd 58 54 5f be 88 b5 27 3e
       0.09427411 -0.038164273 -0.21809518 0.16377842
000110 ef 5f bf bd c0 71 05 bc 50 8e 27 3e 8f 4a db bc
       -0.0934447 -0.008144796 0.16362882 -0.02676895
000120 73 30 2a be 4d a9 b0 bd b9 30 57 bd 6a aa 00 be
       -0.16620044 -0.086260416 -0.0525367 -0.12565008
000130 69 f5 e6 3d 2f 58 28 be 88 86 df 3d d7 41 9c 3b
       0.11277277 -0.1643989 0.10914332 0.004768591
000140 39 de 8d bc 72 b6 d3 3d 0d 14 15 be 3e b7 bd bd
       -0.017317878 0.10337533 -0.1455843 -0.09263466
000150 16 9b f1 3c 1a 2b 8e 3d c4 19 6e be 0a e9 c3 bd
       0.029492896 0.06941815 -0.23252016 -0.09565933
000160 ee 6b 08 be 07 89 54 3e af df 33 be 4d 04 36 be
       -0.13322422 0.20755397 -0.17565797 -0.17775078
000170 fe 3a 4d 3b 33 8d 0a be e5 cf 42 be 75 fe 1a bc
       0.003131568 -0.13530426 -0.19024618 -0.009460081
000180 0f 04 27 3e b2 bb 20 bd 00 61 58 3e 85 e9 57 bd
       0.16310142 -0.0392415 0.21130753 -0.052712936
000190 21 20 86 3d 12 fa 60 3d 80 25 17 3d 6d 7a 99 bd
       0.06549097 0.054925986 0.036900997 -0.07494054
0001a0 a7 66 8c 3e 2a f4 79 3d 28 7c 1b be 52 b1 b0 bc
       0.27422068 0.06102387 -0.1518408 -0.021568928
0001b0 40 79 14 be 86 d9 c2 3c 37 f3 c1 bd 0f b2 5c be
       -0.14499378 0.023785364 -0.09470218 -0.21552299
0001c0 50 74 11 be 28 10 82 3d bd 16 8a bd aa c0 0a be
       -0.14204526 0.06350738 -0.06742618 -0.13550058
0001d0 ee 27 b8 3e da 5c 18 3e cc f5 8d 3e ff 06 44 be
       0.35967964 0.1487917 0.2772659 -0.19143294
0001e0 8c ea 6c 3e a0 85 e4 3d 9b 85 59 3e 44 40 50 3e
       0.23136348 0.111582994 0.21242373 0.20337015
0001f0 d4 28 4e be d9 58 22 be e1 d1 f8 3b 47 86 d7 bd
       -0.20132762 -0.15854205 0.007593379 -0.10523658
000200 3a 2e 02 be f3 57 43 bd 34 dd 58 3c 1c 57 4f bd
       -0.12712947 -0.047691297 0.013236333 -0.050620183
000210 58 1f de 3c 2c 65 5f be 22 93 2f be 21 60 07 3e
       0.027114555 -0.21815938 -0.1714597 0.13220264
000220 a1 27 c6 bd c9 5f a4 bb 4c a0 7f bd ce fd 00 3e
       -0.09675527 -0.0050163013 -0.06240873 0.12596819
000230 77 f4 50 bd 8d 1e 14 3d d9 e3 f2 bd 12 9f c8 ba
       -0.05101439 0.036161948 -0.11859865 -0.0015306196
000240 ef 62 dc 3d e8 ad 19 be bb c6 42 bc f6 80 01 3e
       0.107610576 -0.15007746 -0.011888201 0.12646851
000250 4a 69 ff 3d 2d 7b f8 3d e0 f2 d0 3d 0f 58 a3 bd
       0.12471254 0.12132869 0.10202575 -0.0797578
000260 0b 42 a2 bd 7d 73 8b 3d 2c 7e 23 3d 2d 87 32 bb
       -0.07922753 0.06809137 0.03991525 -0.0027241216
000270 e0 97 22 3e b6 c8 a0 3e ac 16 8d 3d 12 9b 01 be
       0.15878248 0.3140313 0.0688909 -0.12656811
000280 7a d0 4c bd 66 68 74 3e 85 04 9e 3d ab c6 2b be
       -0.050003506 0.2386795 0.07715706 -0.16775005
000290 41 ba be bd 83 63 cf 3d b4 e1 88 bd 42 25 02 be
       -0.09312869 0.10126402 -0.066836745 -0.12709525
0002a0 ef 51 83 3c 8d 07 9a 3d d6 b8 db bd 75 e4 a3 be
       0.01603028 0.075209714 -0.10728614 -0.32010236
0002b0 83 cb 16 be c6 7e ce 3d 35 9c 06 be 79 9d f7 bd
       -0.14726071 0.10082774 -0.13145526 -0.120905824
0002c0 a5 cb 16 3d 64 57 f0 3d 60 e5 1c be a5 40 26 bd
       0.036815304 0.117354184 -0.15321875 -0.040588994
0002d0 e8 1f e4 bb f4 76 93 be 16 bf 0f be ec 7f 0a 3e
       -0.0069618113 -0.28801692 -0.14037737 0.13525361
0002e0 55 74 ad bd 7c 35 cc 3d d4 52 22 3e db b7 be bd
       -0.08469454 0.09971139 0.15851909 -0.093124114
0002f0 d3 db fa 3d 56 ba 3d be 30 e3 e0 3c 22 07 74 bd
       0.122489594 -0.18528113 0.027452081 -0.059577115
000300 46 38 0a 3d e5 47 22 be bf c0 0f be b2 cf 93 bd
       0.033745073 -0.15847738 -0.1403837 -0.07217349
000310 23 18 61 3a d2 76 4f 3d 1a 12 98 3b 58 26 63 be
       0.00085866655 0.050650425 0.0046408297 -0.22182596
000320 29 61 92 3d 1e 3e 9a 3b 51 06 c0 bd 58 25 8a be
       0.07147438 0.004707112 -0.09376205 -0.26981616
000330 d9 e7 2a be 52 a4 27 3d b4 3e 2a be ef 31 4f be
       -0.16690005 0.040928192 -0.16625482 -0.20233892
000340 f4 b2 bc bc c9 ba 88 bd f2 54 c5 bd 81 40 51 3d
       -0.02303455 -0.066762514 -0.09635343 0.051086906
000350 48 53 d1 3e c5 76 10 3d 82 e5 c1 bd b8 e0 02 3e
       0.4088385 0.035269517 -0.09467603 0.12781036
000360 ec 94 35 3e 4f b2 1c 3d cc 7d bb 3d 74 a8 da 3d
       0.1773259 0.038255986 0.09154853 0.10676661
000370 7a 88 71 3c 96 24 52 bd db b0 14 bd 33 d0 c9 bd
       0.014742011 -0.051304422 -0.036301475 -0.09854164
000380 5c 9f 98 be 24 43 f7 bc 24 40 13 3d ae fb 8e 3e
       -0.29809082 -0.030183382 0.03594984 0.2792639
000390 f2 f2 c3 3d 4b c1 86 3d ef 04 85 3c 91 c3 d7 bb
       0.095678225 0.065798365 0.016237704 -0.0065845926
0003a0 9a f4 33 be 31 2a 29 be 52 5d 01 be 6f 4d e1 be
       -0.17573777 -0.16520001 -0.12633255 -0.4400439
0003b0 ae dd a8 3d ac b7 d1 bd e5 cb 4b be b1 cf 62 be
       0.08245407 -0.10240111 -0.19901998 -0.2214954
0003c0 47 9f 26 be 43 4a 01 bd 0b 74 74 be 2b 65 29 3d
       -0.16271697 -0.031564962 -0.23872392 0.041356247
0003d0 d5 83 b8 bd ee e7 97 be e2 82 8d 3c 7d ee c5 3d
       -0.0900952 -0.29669136 0.017274324 0.09664629
0003e0 76 d5 7a 3d b4 ae 94 be 5d d0 2d be 17 41 42 3d
       0.06123873 -0.29039538 -0.16974016 0.047425356
0003f0 4a c0 98 3d 62 87 92 be 52 98 71 3c 0c 30 fa bb
       0.07458551 -0.28618914 0.014745789 -0.007635122

decoder.gru.bias_ih_l0 f4 [96]
000000 3b 8d 9a 3a f9 19 32 3e d4 24 fb 3d e1 ce 81 bd
       0.0011791358 0.1739272 0.12262884 -0.06338287
000010 27 c6 ab 3a 50 91 c7 bd ec 80 47 bd b3 a5 30 3e
       0.0013105319 -0.09744513 -0.048706934 0.17250709
000020 03 54 ad bd 10 86 dd bd 7b dd 17 be d1 93 04 bd
       -0.084632896 -0.10816586 -0.14830582 -0.03236753
000030 df e9 0f 3e 9f 0b 1e be d3 f6 09 bc f7 6f 4e 3e
       0.14054058 -0.1543412 -0.008420664 0.20159899
000040 b8 02 3f be 46 35 1d be 77 0e 90 3d 56 97 19 be
       -0.18653381 -0.15352353 0.07034009 -0.14999136
000050 c7 88 20 be c0 74 c6 3d 89 0d 67 3d 3c 13 8f 3d
       -0.15677176 0.09690237 0.056409393 0.069860905
000060 1e 7b 3c bc 25 ee 3e bb c6 9e 34 3e 00 be 08 be
       -0.011503963 -0.0029133644 0.17638692 -0.13353729
000070 46 51 97 bd 1a ae 32 3e cd 8b 4e be ca db 7d 3e
       -0.073885486 0.17449227 -0.20170517 0.24790874
000080 0f af a1 bd 56 f8 06 bc 7a 72 a1 3d cd 38 99 be
       -0.07894718 -0.008237919 0.07883163 -0.29926148
000090 fb 5a a4 be 43 7b ec 3d 27 92 8a be 19 f2 8d 3d
       -0.32100663 0.11546948 -0.2706463 0.06930942
0000a0 bb 8c 9c be b2 82 21 be a2 fc 6c be 8e a3 7e 3d
       -0.3057612 -0.15772513 -0.23143247 0.062167697
0000b0 1b 8c 0c bf b4 11 4f bf 3a ae 2a 3e 5f 9b a4 3d
       -0.54901284 -0.8088639 0.16668025 0.08037447
0000c0 0d 99 4a be 4d 5b 5c be 76 fe 62 bc ec 7c 9e bc
       -0.19784947 -0.21519203 -0.0138546135 -0.019346677
0000d0 f9 b5 4e be a0 e0 37 3e f7 80 1d bc a0 a6 db be
       -0.20186605 0.17956781 -0.009613267 -0.42900562
0000e0 cc 38 91 be 9b a1 71 bd 20 e2 0d be 07 b1 9b 3d
       -0.28363645 -0.05899201 -0.13855791 0.07602125
0000f0 53 98 61 be f4 4a 37 3e 96 ec 65 be 8a 4e 74 bd
       -0.22030763 0.17899686 -0.22453532 -0.059645213
000100 d6 f1 69 3d 1b 5e a9 3d ea 21 22 bd 5b 64 79 3d
       0.0571154 0.08269902 -0.039583124 0.060886722
000110 7b 9e 7d 3d f7 ef 15 be 49 ba b2 3d ac d3 ea bd
       0.061918717 -0.1464232 0.08726937 -0.114661545
000120 d3 5f bc bd d1 b1 65 bc e4 79 0e 3e 9a 5e 4f 3c
       -0.091979645 -0.0140194455 0.13913685 0.012656832
000130 f3 8d dc 3d 5c f1 ce bd ae 59 ea bd 4a ac e4 bb
       0.10769262 -0.101046294 -0.11442886 -0.0069785463
000140 58 06 c8 3d f6 c9 24 bd 9b 4f ff 3d dd 4f 03 bd
       0.09766835 -0.040231667 0.124663554 -0.032058585
000150 8d 71 f6 bd 49 a4 42 3e 6c 36 5d 3e 13 a1 af 3c
       -0.12033377 0.19007982 0.21602792 0.02143911
000160 3a d1 2a be 81 eb b8 3d f9 ba 18 3d 08 2f 3b 3d
       -0.16681376 0.09029294 0.037287686 0.04569915
000170 68 7b c8 3c ab fa bb 3d 85 d4 d5 3d 22 04 c2 3c
       0.024472907 0.091786705 0.104409255 0.023683611

decoder.gru.bias_hh_l0 f4 [96]
000000 4c 57 18 bd e7 93 3c 3e db 06 2f 3e 73 72 85 3d
       -0.037192628 0.18415795 0.17092459 0.0651597
000010 df ae 4a 3e 1c 4d f7 3d 6e 69 28 3c 15 21 88 3d
       0.1979327 0.12075254 0.010279043 0.06646935
000020 3d 7a 68 3e fa 7b 08 be 6c d3 c1 3d 30 4a da 3d
       0.2270288 -0.13328543 0.09464154 0.106586814
000030 6e b8 9d ba 96 a7 80 3d 27 0a 0e be 13 a4 e7 bc
       -0.0012033114 0.062819645 -0.1387106 -0.028276479
000040 d8 31 f6 3d 26 2a 1c be 01 66 6c 3e c2 81 0d bd
       0.12021226 -0.15250453 0.23085786 -0.034547575
000050 27 5f 24 3e 75 f3 0b 3e 45 ef bf bd c0 e3 05 3e
       0.16051923 0.1366709 -0.09371809 0.13075161
000060 c1 77 ae bd 01 d8 45 3d d9 de 9e 3d a0 83 40 3e
       -0.08518935 0.0483017 0.077573486 0.18800211
000070 c8 7d e4 bd 2a df 09 3d f5 09 43 be a7 c9 e3 bc
       -0.11156803 0.03366009 -0.19046767 -0.027806116
000080 4b b9 da bd f4 fa d8 bc c3 a3 c8 3b 37 69 f7 be
       -0.10679873 -0.026486851 0.0061230375 -0.4832246
000090 e1 f7 90 be 51 fa d6 bd 68 48 64 be a0 5e 26 be
       -0.28314117 -0.10496963 -0.22293246 -0.16247034
0000a0 85 2c a4 be 02 13 55 be ea 56 6c be ef da 4d bd
       -0.32065216 -0.20808032 -0.2308003 -0.05025762
0000b0 e4 a9 80 be a4 ec 5a bf 6c 61 30 3c 8a 8b 26 3d
       -0.25129616 -0.85517335 0.010765415 0.04066042
0000c0 3f c2 39 be 65 cc b6 be af 3f 6e be 18 a7 12 3e
       -0.18140505 -0.35702816 -0.23266481 0.14321554
0000d0 14 07 97 be 7e dd c1 3d f1 98 44 3e aa ee a3 be
       -0.29497588 0.094660744 0.19198968 -0.32018024
0000e0 81 e8 3e be 37 e6 ac 3d 88 4a 26 be e2 60 0f 3e
       -0.1864338 0.084423475 -0.16239369 0.14001802
0000f0 3b 36 71 be 9c f8 dd 3d 57 7e 8b 3b cc 26 17 3e
       -0.23555844 0.10838434 0.0042570042 0.14760894
000100 61 80 82 3d 9c 55 1b bc 47 e6 90 3c c9 3c c7 bd
       0.063721426 -0.00948086 0.01768793 -0.09728391
000110 8e 50 8c bd 15 b3 ae bc d1 ee f7 3d 3a 98 94 bd
       -0.06851302 -0.021325627 0.121060975 -0.072555974
000120 fa 09 38 bd 08 c1 1d 3e 7f 3d 35 be 77 3d 40 3e
       -0.04493139 0.15405667 -0.1769924 0.18773447
000130 df 65 1e be 15 13 22 be 15 30 a2 bd a4 b1 61 bd
       -0.15468548 -0.15827592 -0.07919327 -0.055101052
000140 15 e5 b7 bb c9 2d 11 3e 9e 50 cf 3c e3 59 b8 3d
       -0.0056120255 0.14177622 0.025306996 0.090015195
000150 fb de 0b be b6 51 10 3e f2 79 8c 3d 5d 6c 32 be
       -0.13659279 0.1409367 0.06859197 -0.1742415
000160 21 9b 40 be 2f f5 86 3d 34 11 62 3d 2a 0e b0 bd
       -0.18809177 0.06589734 0.055192187 -0.085964516
000170 39 28 32 bd e7 46 4b bd e6 f7 81 3c 7f b7 36 3e
       -0.04349539 -0.049628165 0.015865277 0.17843436
