trained_models/seq2seq_atn/seq2seq15.pth (torch, 63632 bytes, 13 tensors)

encoder.gru.weight_ih_l0 f4 [96, 13]
000000 b9 7c 91 3e f7 77 7f 3c ea 74 a1 bd 19 4e 13 bd
       0.28415468 0.015592567 -0.07883628 -0.03596315
000010 f2 5c f2 bd b6 b3 10 bd f0 74 d5 3d c3 28 9f bd
       -0.11834134 -0.035327636 0.10422695 -0.077714466
000020 bf 5c 09 3e 86 4f d0 3d 67 eb dc bd 46 01 42 3e
       0.13414286 0.10171418 -0.10787087 0.18945798
000030 94 83 0d be c2 fc 80 bd cd 77 01 be 5e 29 06 bd
       -0.13819724 -0.0629821 -0.12643357 -0.032754295
000040 b4 7b 32 3e 14 67 1f be 67 82 ef bd 76 80 1d bd
       0.17430001 -0.15566665 -0.11694794 -0.038452588
000050 48 05 32 be 9c 34 d0 bd 6a b9 9a bd 96 84 2d 3e
       -0.17384827 -0.101662844 -0.07554896 0.16945109
000060 3c 0b c5 bd ea 6c 26 3e 8a c0 10 3e 32 2b 9e bd
       -0.096212834 0.16252485 0.14135948 -0.077230826
000070 a5 e3 00 3d ec eb b0 3d e6 7b 6b bb 53 50 8b 3d
       0.0314671 0.086387485 -0.0035932004 0.0680243
000080 35 57 c9 bb c4 72 29 bd 53 4b 01 3e e0 02 cb 3d
       -0.006144429 -0.041369215 0.1262639 0.09912658
000090 9d 4c 11 be 52 4e 92 bc 50 c2 38 3d fb 31 52 3e
       -0.14189382 -0.017859612 0.045107186 0.20526879
0000a0 d8 f6 34 be 82 61 a4 bd 7e b0 e9 bd f1 d9 0e bd
       -0.17672288 -0.08026411 -0.11410616 -0.034875814
0000b0 59 02 71 3c 72 04 55 bd 08 f4 ec bb c6 ce 3b 3d
       0.014710032 -0.052006193 -0.007231239 0.04585149
0000c0 a6 1b d8 3d 27 88 af bd 85 1d 9d 3d b4 03 02 3e
       0.105521485 -0.08570891 0.07671646 0.12696725
0000d0 3c 92 54 be 5a 16 9d 3d fe 55 52 3e 82 d9 55 3c
       -0.20758909 0.07670279 0.20540616 0.013052346
0000e0 c6 5c d9 3c ed 2c 21 be e3 2f 3b be a6 32 69 bd
       0.026533496 -0.15739794 -0.18279986 -0.056933068
0000f0 5a db aa bd c2 a7 0c be 98 89 7f 3e b8 d5 cf bd
       -0.08342619 -0.1373587 0.24954832 -0.101481855
000100 66 01 88 be 49 6e 41 3e 47 d7 4a bd 2b 27 69 3e
       -0.26563567 0.18889727 -0.04952171 0.22768848
000110 2c 27 36 bc bd 85 f8 bc 49 45 31 be 9a ce 10 3d
       -0.011117738 -0.030337209 -0.17311586 0.03535328
000120 ab 03 04 bd c2 20 0c bc e8 73 0b 3e 09 c4 ee 3c
       -0.03223006 -0.008552732 0.13618433 0.029146211
000130 be b8 8e be c6 89 0e 3e a0 e5 96 bd d8 19 ed 3d
       -0.27875322 0.13919744 -0.07368016 0.11577195
000140 11 d6 0c bd 04 fd 8b bc 85 36 32 3e 0d 54 05 bd
       -0.034383837 -0.01708842 0.1740361 -0.03255086
000150 26 f3 19 be a5 27 0b 3e ac 57 e4 bd 44 64 29 be
       -0.1503416 0.13589342 -0.111495346 -0.16542155
000160 ff 6c 53 3e 67 1c 58 3d c2 dc 77 bd c8 5d 86 b9
       0.20647047 0.05276146 -0.060513265 -0.00025628344
000170 d6 02 94 3e a8 da d0 bd 99 4d d8 bc af fe 40 3d
       0.28908414 -0.10197955 -0.026404189 0.047117885
000180 c4 cb 26 3d 6c cf 15 be b2 fc 1d be 1e 74 23 38
       0.04072167 -0.14629906 -0.15428427 3.897037e-05
000190 e6 75 e8 3d d4 68 2f 3e 0f 26 e6 3b d9 bf 65 3d
       0.11350612 0.17129833 0.00702358 0.056091163
0001a0 7d 9f 43 bc 3b 6f d8 bb 93 f7 2e 3e ab a9 97 3d
       -0.01193988 -0.0066050566 0.1708663 0.074054085
0001b0 6e 97 95 bd 3b 23 a6 3d da 98 b8 3d e8 4e 10 3e
       -0.073042735 0.081121884 0.09013529 0.140926
0001c0 86 81 15 be ab 0d 9b 3d 13 26 43 3e 8c a6 db bd
       -0.1460019 0.07570966 0.19057493 -0.10725126
0001d0 98 c5 20 3e e5 60 0b 3e e7 8e 8f 3d d6 ef 40 3d
       0.15700376 0.13611181 0.07009678 0.047103725
0001e0 09 b7 be 3d eb 08 31 3d 88 af d1 bd e8 50 53 3d
       0.09312255 0.043221395 -0.10238558 0.05159083
0001f0 c4 77 e0 bd bc 62 55 bd ac 38 04 3e 8d 14 f6 bc
       -0.109603435 -0.052096114 0.12912244 -0.030039096
000200 e0 64 45 3d 9f 4d 32 be 65 05 1a 3d 5a 5f 7b be
       0.048191905 -0.17412423 0.0376028 -0.24548092
000210 f2 ca 93 bd 94 01 25 3d b8 fc 1c be a0 0f da bd
       -0.07216443 0.04028471 -0.1533078 -0.106475115
000220 77 23 00 be cb a2 bc bd d9 0f c4 bc 61 b1 19 be
       -0.12513529 -0.09210738 -0.023933338 -0.15009071
000230 af ed 13 be 80 14 94 3d 7f ad 93 3d c8 70 05 bd
       -0.14446138 0.072304726 0.07210826 -0.03257826
000240 d1 12 0c 3e 0a 47 2f 3e 05 99 d8 bd 4e 2f b7 bd
       0.13679053 0.17116943 -0.10576061 -0.089445695
000250 26 e8 a8 3d a7 1c 05 be fd 54 2c be 44 95 7a bd
       0.08247404 -0.12999211 -0.16829295 -0.061177507
000260 cb fd da bd 4a fd ed bd f6 15 3a 3d c4 a6 ca bd
       -0.106929384 -0.11620577 0.0454311 -0.09895089
000270 e2 d6 d2 3d 2c 9b ab 3c 71 37 c9 3c a6 0c 57 3e
       0.10294892 0.020948015 0.02456257 0.21000919
000280 ee d4 e9 3d ad c7 0d bd 17 c9 92 39 21 70 ae bc
       0.11417566 -0.034614254 0.00027997114 -0.021293702
000290 50 07 a8 bd db 3b 1f be f7 91 b0 3d 5c e4 60 3e
       -0.0820452 -0.15550177 0.086215906 0.21962112
0002a0 0c 99 7d 3d d3 79 26 3e da ba 13 bd 25 08 99 3d
       0.061913535 0.1625741 -0.036066867 0.074722566
0002b0 6c 7a ad 3d f2 a9 c8 bc 4e 2a e6 bd 1e 8c 3a 3e
       0.08470616 -0.024495099 -0.11238538 0.18217513
0002c0 43 c1 09 bd 17 c7 eb bd e4 22 87 bd ce 5c 07 3e
       -0.033631574 -0.11512583 -0.06598452 0.13218996
0002d0 a1 2d 82 3e 94 b1 15 bd 76 54 13 be 62 33 eb 3c
       0.25425437 -0.036546305 -0.14387688 0.028711025
0002e0 fc 98 cf bc 47 53 2c be 3f fa 01 bd 76 18 79 bb
       -0.025341503 -0.16828643 -0.031732794 -0.0038008965
0002f0 1b f0 d9 3d bb 83 3c be 24 a4 98 3c ba e7 91 3d
       0.106414996 -0.18409626 0.018632956 0.071242765
000300 d8 16 e4 3d 29 33 b9 3d 12 71 9a bd 10 e2 be bd
       0.111371696 0.09042961 -0.07541098 -0.09320462
000310 b5 87 58 3c 09 33 e2 bd 30 65 7a 3b a0 58 c3 3d
       0.013215949 -0.110448904 0.0038207285 0.09538388
000320 2d 82 31 bd 9c 66 39 3d e8 86 29 be ac 78 dc bd
       -0.043337036 0.04526387 -0.16555369 -0.10765204
000330 56 87 cf bd a2 cb 2b 3e f6 ae a1 3d 41 48 d4 3d
       -0.10133235 0.16776899 0.07894699 0.10365344
000340 84 0b 27 3d f4 25 e9 bc 98 5d 10 3c e8 18 09 3e
       0.040782467 -0.02846048 0.008811377 0.13388407
000350 d0 24 f9 bd 79 75 91 3d 06 55 56 be 2d c2 9b bc
       -0.121652246 0.07102484 -0.20930871 -0.019013489
000360 3b 59 3b be 8c 23 f7 bd 0d 8f af 3e 02 f9 14 bd
       -0.18295757 -0.12067327 0.34288827 -0.036370285
000370 9d 4f f8 bd 06 18 1d be fa 7c 42 bc 88 4b 78 3e
       -0.1212456 -0.15341195 -0.011870617 0.24247563
000380 0b 1c 47 be 8d 0e 72 3c 9e 41 5a be d0 1b 2a bd
       -0.19444291 0.014773977 -0.21314093 -0.04153043
000390 35 ea fc 3c 56 f6 d6 3d a9 89 f1 3c ae ce f0 3d
       0.030873397 0.104962036 0.029484587 0.11758171
0003a0 28 99 83 bd 15 dc 3d be 14 be 2a 3e 28 00 1c be
       -0.064256966 -0.18540986 0.16674072 -0.15234435
0003b0 a7 01 c8 3a 86 71 bd 3d 7e ae 22 be 3e 06 e1 3d
       0.0015259281 0.092501685 -0.15886876 0.10987519
0003c0 de 6c 2e be 54 02 8b 3d 37 00 86 3b 5b 35 2f be
       -0.17033717 0.067875534 0.004089381 -0.17110197
0003d0 c4 8f 3a 3e e1 d9 37 be 59 4f 05 be d2 a6 37 3e
       0.18218905 -0.17954208 -0.1301855 0.1793473
0003e0 9b ff ca 3d 28 13 84 bd 7c 09 a5 bd d0 67 99 bc
       0.09912034 -0.06448966 -0.080584496 -0.01872626
0003f0 92 bc d6 bd b3 c1 33 be 0e 77 15 3e 8f bb e4 bd
       -0.10485186 -0.17554359 0.14596197 -0.111685865

encoder.gru.weight_hh_l0 f4 [96, 32]
000000 ae 66 21 3e 98 e0 28 3e 68 fc fd 3c 73 eb c2 bd
       0.15761825 0.16491926 0.031004146 -0.095175646
000010 9e f8 d7 3d 66 98 23 3e 23 71 3a be 89 9d a4 bd
       0.10545467 0.15976104 -0.1820722 -0.0803786
000020 63 f4 97 3d b1 2a e0 3d 25 25 53 3d e9 47 81 3d
       0.0741966 0.10945643 0.051549096 0.06312544
000030 29 34 4e bb 76 f9 b4 3c ae ac 4a bc a4 03 04 bc
       -0.0031464195 0.022091608 -0.012370272 -0.008057509
000040 df 1f fc 3d 8f d7 66 bd 8e e9 01 be 38 c8 00 be
       0.123107664 -0.056357916 -0.1268675 -0.12576377
000050 af 8c a7 3d bf ee 6d 3d db 87 a9 bc 96 0b bc bd
       0.0818113 0.058089014 -0.020694664 -0.09181897
000060 ad f4 05 be 8b 67 0c be fd 49 89 3c b6 a5 8a 3c
       -0.13081618 -0.13711374 0.016758913 0.01692472
000070 5d ea a7 bb f2 e0 30 3e 66 b0 02 be 57 89 37 be
       -0.005124374 0.1727331 -0.12762603 -0.17923485
000080 ec 8d fc bd d3 38 44 3c 28 80 d2 3d 85 cf 4e bd
       -0.12331757 0.011976439 0.1027835 -0.050490875
000090 73 bf 16 3e 2e ed 6f bb 90 c3 dc 3c 07 3f dd bc
       0.1472147 -0.0036609876 0.02694872 -0.027007593
0000a0 a9 eb 2f 3e f4 2a 0d 3d 86 eb f6 3c d3 18 59 bd
       0.17179741 0.03446479 0.030141603 -0.05300219
0000b0 64 db 02 be 1a 2b 8f bc 69 20 08 be ce cc 48 3d
       -0.12779003 -0.017476607 -0.13293613 0.049023442
0000c0 a8 7a 63 bd 7d 12 38 3e dd 3f 0f be e2 1f 40 be
       -0.055536896 0.17975803 -0.13989206 -0.18762162
0000d0 3e 4c a2 3c d1 a1 47 bd 2c 69 b2 3d f8 e0 9b 3c
       0.019811746 -0.048738305 0.08711466 0.019028172
0000e0 a8 99 1e bc 91 5d 30 3d de 67 14 3e 7e e1 21 bd
       -0.009680189 0.043057982 0.14492747 -0.039521687
0000f0 e8 0f a0 bc fd 4a 40 3e 9d cd 7e 39 a4 9b c5 3d
       -0.019538835 0.18778606 0.00024299925 0.09648827
000100 9c 64 5f bd e0 2e 1f 3e 6b 80 57 bd 09 d9 3a bd
       -0.054539308 0.15545225 -0.052612703 -0.045617137
000110 d2 b5 dc 3d 93 03 1c 3e 56 b3 84 3b e7 c8 49 3c
       0.10776867 0.15235738 0.004049699 0.012315965
000120 9a a4 e3 38 c3 09 3c be cc f2 06 be 20 f3 3b bd
       0.00010854863 -0.18363099 -0.13178557 -0.04588616
000130 70 0f 1d 3e 84 89 fc 3d 0f 3f 33 bd 4f f1 41 3d
       0.1533792 0.123309165 -0.04376131 0.04734927
000140 b7 83 0a 3d 73 21 aa 3d 6f 04 d3 bd c2 c4 23 bd
       0.03381702 0.08307161 -0.1030358 -0.039982565
000150 b6 c5 33 3c b4 4e 3f be d0 4c 41 3e 54 29 1e bc
       0.010972431 -0.18682367 0.18876958 -0.009653408
000160 78 77 04 be 40 ec 32 be 77 70 2c 3e b6 95 06 bd
       -0.12936199 -0.17472935 0.16839777 -0.03285762
000170 de ec 08 be 7e df e8 3d a1 5a f6 bd 3e dc bc 3d
       -0.13371608 0.11370753 -0.12029005 0.09221695
000180 3f 11 20 be 16 e8 21 be 8f d5 90 bd 14 57 88 3d
       -0.15631579 -0.1581119 -0.07071983 0.06657234
000190 40 0f 15 be 5c 52 ef bc 04 25 85 3d 25 89 de bc
       -0.14556599 -0.029214077 0.06501201 -0.027165005
0001a0 b0 87 c9 3d f2 1a 35 bb 43 d4 21 be 04 b0 05 3e
       0.098403335 -0.002763447 -0.15803628 0.13055426
0001b0 e4 8d bf 3d 11 96 bf 3d 91 6c 2d 3d d2 8d 00 be
       0.09353235 0.09354795 0.042339865 -0.125541
0001c0 d5 f4 bd 3d a7 a0 2a 3c f3 9b 9b bd d7 a1 e3 3d
       0.09275214 0.010414279 -0.07598104 0.11114853
0001d0 b9 ef 8a 3d d2 70 f2 bd 85 7c cc 3d b5 69 15 be
       0.06784005 -0.11837925 0.09984688 -0.14591105
0001e0 ac 4f 11 3e c0 63 13 be f4 56 43 3e 51 b2 12 be
       0.14190549 -0.1439352 0.19076139 -0.14325835
0001f0 36 cb 70 3d 05 01 c1 3d b4 ec 9b bc 22 2a 89 bd
       0.058787547 0.094240226 -0.019033767 -0.06697489
000200 a1 ed 6f 3d bb 27 ec bd 86 d1 c7 3d 29 ef 56 3e
       0.05857623 -0.115310155 0.0975676 0.2098967
000210 96 26 df 3c 23 35 cd bd d1 3c f3 bd c7 c5 e3 3d
       0.027240079 -0.10019901 -0.11876834 0.111217074
000220 c1 3d 7e be bd bb 5c be c3 25 17 be 08 e8 8f bd
       -0.24828245 -0.21555991 -0.14760499 -0.07026678
000230 07 7a 4d be eb fb 05 be 2a 2f 72 be 13 af 24 3e
       -0.20066081 -0.1308438 -0.23650804 0.1608241
000240 73 2c 25 3e 92 c5 d7 bc 43 cd 27 3e 8c cd 1a 3d
       0.16130237 -0.026339326 0.16386895 0.03779368
000250 40 9d 52 3e d5 e5 70 3d c0 50 d1 bd 0f d5 f5 3d
       0.20567799 0.058812935 -0.1022048 0.12003528
000260 c4 0d 48 bd 23 ae f4 bd f6 e7 2f bc 3a 60 ba 3d
       -0.048841253 -0.119472764 -0.010736456 0.09100385
000270 14 ab d3 3c 73 92 8a 3e de ad 42 be 5c 8c 3d be
       0.025838412 0.27064857 -0.19011638 -0.18510574
000280 b4 f3 28 3d 6e 74 1e bc 18 da 16 3e a4 e6 b5 bc
       0.04124804 -0.009671314 0.14731634 -0.022204705
000290 50 2b 1f bd e3 e4 d4 3d 7d 51 0e 3e ae b7 2f 3d
       -0.038859665 0.10395219 0.13898273 0.04289978
0002a0 55 63 eb bc 0c be ee bd 6c c2 62 3e 7e 5f a9 3d
       -0.028733889 -0.11657342 0.22144479 0.08270167
0002b0 a0 6c b5 3b 62 cf 88 3d a5 e4 21 be 39 c6 fb 3d
       0.0055366307 0.0668018 -0.15809877 0.12293667
0002c0 98 b8 49 be f4 8e 44 be bc 30 f4 bd 4e 08 a7 3b
       -0.19699323 -0.19195157 -0.11923358 0.0050974255
0002d0 60 65 27 3d a9 56 76 3e 4c 2b 6b bd 7a 29 a4 bb
       0.040868163 0.24056496 -0.057414338 -0.005009827
0002e0 4b 6b 11 3d 55 61 e8 bc e6 c6 94 bb 52 65 2f be
       0.035502713 -0.028366724 -0.004540312 -0.17128494
0002f0 97 5f fc bd bb ad 8c 3d fb c6 99 bd 7b 40 13 bd
       -0.1232292 0.06869074 -0.07508656 -0.035950165
000300 da c4 e0 bd d2 c1 cf bc cd 50 65 be 52 85 2d bc
       -0.109750465 -0.025360975 -0.22394104 -0.010590868
000310 0f 1b 6c be 97 ce 4c 3d 92 5c 30 3d e2 d6 0e 3e
       -0.23057197 0.050001707 0.043057032 0.13949159
000320 a4 23 de bd 07 4e 9b 3d 85 64 27 be be 72 ca 3d
       -0.10846642 0.07583242 -0.16346939 0.098851666
000330 cf 1b cd 3d 9e b3 e7 3d 1a 3e fa bd 5e 61 a2 bd
       0.1001507 0.11313556 -0.12218876 -0.079287276
000340 84 25 8d bb a4 24 1d 3d 9d b1 49 bd 18 93 44 be
       -0.0043074507 0.03836502 -0.04924165 -0.19196737
000350 f6 9b 15 bd 0f 2f f4 bd d4 d3 7f 3d 61 7a 54 bd
       -0.03652569 -0.11923038 0.062457874 -0.051874522
000360 8c 96 75 3d 16 ca d4 3d f7 f6 f8 bc b7 6e 9f 3d
       0.059958026 0.10390107 -0.0303912 0.07784789
000370 45 04 90 3d 45 73 19 bd b0 4d e5 3d 54 b0 95 bd
       0.07032064 -0.037463445 0.11196458 -0.073090225
000380 f3 79 17 3d 9d 94 af 3d b8 e0 89 be 74 e4 bf 3c
       0.036981534 0.085732676 -0.2692926 0.023424365
000390 bb 1f 2b be c6 90 e0 bc b3 74 08 be cb a6 dd bd
       -0.16711323 -0.027412783 -0.13325767 -0.10822829
0003a0 f6 1a 2f bc 9f 92 af bc 9f 77 db bc ab f3 40 bd
       -0.01068758 -0.02143222 -0.026790438 -0.04710738
0003b0 72 9b 92 bd 39 1c 27 bd 31 3c bf 3b 68 8f e8 3d
       -0.07158555 -0.0407984 0.005836033 0.113554776
0003c0 be 11 56 3e 1a 1d db 3c 63 41 ac 3d b7 f0 8f be
       0.20905206 0.026747275 0.08410909 -0.28113338
0003d0 e5 6c 72 3e 43 c6 a5 bc 1c 47 59 be c5 51 66 be
       0.23674352 -0.02023614 -0.21218532 -0.2249213
0003e0 81 01 0e be 92 e9 33 be 8e 1e 84 3d e2 93 31 3d
       -0.13867761 -0.17569569 0.0645114 0.043353923
0003f0 5c 3c 86 3d be 54 b3 bc 57 92 58 3e 5d 46 f9 bd
       0.065544814 -0.021890994 0.21149574 -0.12171624

encoder.gru.bias_ih_l0 f4 [96]
000000 84 34 bf 3d 40 71 91 bd f8 08 8c 3d 09 b7 79 3d
       0.093361884 -0.07101679 0.06837648 0.06096557
000010 6b 5d 34 3e fe 87 18 be 9c d4 c6 3d a7 e4 e1 bd
       0.17613761 -0.14895627 0.09708521 -0.1102994
000020 39 68 1b be 6d 86 2c 3e ff 61 1e 3e 43 24 27 3e
       -0.15176477 0.16848154 0.1546707 0.16322426
000030 86 39 a8 3d 34 25 85 3d b4 cf 78 bc 7c ef 43 3c
       0.08214097 0.065012366 -0.015186239 0.011958953
000040 c7 7a 28 3e 04 29 a5 bd 2c 16 2a 3e 83 39 e4 bd
       0.16453086 -0.08064464 0.1661002 -0.11143782
000050 9d 03 8d 3d c7 b8 0e 3e 68 7a fe bc 18 55 05 be
       0.06885455 0.13937674 -0.031064227 -0.13020742
000060 21 82 1c 3c a3 5e c7 bd c1 bd cb bd ee e9 ae 3d
       0.0095525095 -0.097348474 -0.09948302 0.08540712
000070 da 99 33 be 79 a9 68 3d bf ac 21 bd 07 77 f0 bc
       -0.17539158 0.056802247 -0.039471384 -0.029353632
000080 55 3d e3 3d 25 26 50 3c e8 01 7a bd 21 c9 30 be
       0.110956825 0.012704407 -0.061036974 -0.17264225
000090 fd f1 6d bd 3c 9d c4 bc 6f ba b3 bd 6c 58 35 bd
       -0.058092106 -0.024000756 -0.08775794 -0.04427378
0000a0 40 a6 49 be ff 10 6b bd d7 a2 f5 bd 8a b7 ad bd
       -0.19692326 -0.057389256 -0.1199395 -0.08482273
0000b0 43 2d 20 be c4 ce 87 3b da 64 7f bc 1c fa 01 be
       -0.15642266 0.0041445214 -0.01558801 -0.12693065
0000c0 d8 13 a1 bd 49 a5 ce 3d ea 59 3a be 29 ba d7 bd
       -0.07865113 0.100901194 -0.18198362 -0.10533554
0000d0 23 2e 9d bd 3f ca 76 bd 2e 62 b6 bd 53 8a bd bc
       -0.076748155 -0.06025147 -0.08905445 -0.023137247
0000e0 96 bd 03 3e 97 04 15 be d2 66 82 3d 03 ae a1 bd
       0.1286529 -0.14552532 0.06367268 -0.07894518
0000f0 aa 79 ad bd 6d 1b e3 bc 82 12 41 3c 09 93 b2 3c
       -0.08470471 -0.027723039 0.011784198 0.021798627
000100 44 00 d1 bd 51 f2 07 be fc 7f db bd d8 18 3c 3d
       -0.10205129 -0.1327603 -0.107177705 0.04592213
000110 9f dd 7a bd 87 4c 1a be 10 31 d9 bd 5c db d7 bd
       -0.06124651 -0.15068255 -0.10605061 -0.10539886
000120 5f 65 eb bc 20 f8 69 bd 11 2f dd bd 45 a2 e0 3d
       -0.028734861 -0.057121396 -0.10799993 0.109684505
000130 86 e4 1f 3d 1b 13 62 3d 1d 8c d2 bd 1c 80 80 bc
       0.039036296 0.055194 -0.10280631 -0.015686087
000140 c6 ff 04 bc fa 3a f1 3d 1f 35 2b 3d 9f f4 0c be
       -0.008117622 0.11778827 0.041798707 -0.1376519
000150 f7 96 c7 3d 31 db e6 bd f8 59 94 3d 1d e7 30 bc
       0.09745591 -0.11272276 0.07243723 -0.010797289
000160 03 0d 3f 3d f3 0b 4e be 98 be ec 3d 26 60 2e 3e
       0.04664327 -0.20121746 0.115597904 0.17028865
000170 ca c3 c7 3c 44 ce be bc 57 b5 12 be d5 89 89 bd
       0.024385352 -0.023291714 -0.14326988 -0.067157425

encoder.gru.bias_hh_l0 f4 [96]
000000 40 c6 31 3e 5d 95 f6 3d 5b ec 2d 3e 6a c9 ab 3c
       0.17360783 0.120402075 0.16984694 0.020970065
000010 7d 1a ed 3d c2 1f a5 3d be ff e4 3c 89 65 43 3d
       0.11577318 0.08062698 0.027953979 0.047704253
000020 3a 81 1f be 5e cb 3c bc f0 a9 67 bd 06 a7 1e 3d
       -0.1557664 -0.011523096 -0.05655855 0.038733505
000030 62 6d 3e 3e 37 b6 9a bc 82 27 b7 3c 3a a8 05 3e
       0.18596414 -0.018885715 0.022357706 0.13052455
000040 1d 90 fd 3d 76 65 d5 3d f5 76 05 3e 43 14 f0 3d
       0.12381003 0.10419743 0.1303366 0.117226146
000050 0a cb 15 be 65 02 d8 bd 67 a5 1e bd 7e 0c 34 be
       -0.14628235 -0.10547332 -0.03873196 -0.1758289
000060 d7 68 3a 3d 01 e5 56 3c e3 9e c2 3d b8 a3 b2 3d
       0.04551014 0.013116122 0.095029615 0.08722633
000070 d5 cd a3 bd 51 a8 12 bd f5 cb 67 bd 03 72 54 3d
       -0.07998244 -0.03580505 -0.056590993 0.051866543
000080 8c 30 9d bd 49 b2 ab bd bb 6d 8a be 8d 26 51 3d
       -0.07675275 -0.083836146 -0.27036843 0.051062156
000090 dd a4 1c be 14 0d 81 bd f2 6d 8f 3d 15 ed 42 3e
       -0.15297265 -0.063013226 0.07003392 0.19035752
0000a0 72 26 b8 3d 12 84 f5 3d 14 56 77 be 2b 60 16 3e
       0.08991708 0.11988081 -0.2415393 0.14685123
0000b0 bf 6a 7e be 12 30 40 3c eb c4 87 be 11 ad c5 bd
       -0.24845408 0.011730211 -0.26517424 -0.096521504
0000c0 61 c4 23 3d 7a 2f f4 3d 8d d5 41 be 34 86 cf bc
       0.039982203 0.11923118 -0.1892912 -0.025332548
0000d0 31 1e 88 bd 80 4a e1 bd e6 44 3b be a8 b3 02 be
       -0.066463836 -0.11000538 -0.18288001 -0.12763846
0000e0 a1 1f bb bd 4a 73 87 bc a6 22 c7 bd d6 b1 bd bc
       -0.09136892 -0.016534466 -0.097234055 -0.023156088
0000f0 b1 aa 14 3c b9 02 77 3c 8e 9f 07 3d 17 c4 be 3d
       0.009073899 0.015076333 0.033111148 0.09314745
000100 15 5a 5f bd bc 7c e4 bd bf 38 b3 bc 7f be 2b be
       -0.05452927 -0.11156604 -0.021877645 -0.16771887
000110 4d b8 2b 3e 51 16 14 bd 10 f8 e0 3d d1 f3 94 bb
       0.16769524 -0.036154095 0.10984814 -0.0045456667
000120 a3 a3 93 3d 72 be d7 bd 97 47 31 3e 6c d4 34 bd
       0.072089456 -0.105343714 0.17312466 -0.044147894
000130 35 5d bf bd 57 63 cb bc 95 a0 24 be ec 6e 3a 3b
       -0.0934395 -0.024827642 -0.16076882 0.0028447462
000140 87 86 05 be f9 c2 a3 3d a2 24 c8 3c 39 99 c8 3c
       -0.130396 0.079961725 0.02443153 0.024487125
000150 03 01 12 3e b4 b1 a2 3d cb 86 3b bd d2 1e 1e be
       0.14258198 0.079440504 -0.045782845 -0.15441445
000160 1a 77 1f 3e 25 02 27 3d f5 cc 09 bd b0 30 2c 3e
       0.15572777 0.04077353 -0.033642728 0.16815448
000170 00 43 55 bd b8 c3 54 3d 2a d0 f4 bd b4 56 45 bd
       -0.05206585 0.051944464 -0.11953767 -0.04817839

decoder.attention_model.attn.weight f4 [32, 64]
000000 e9 c7 b4 3d b9 48 e4 3d 60 a2 d0 3d 35 52 26 bd
       0.08827192 0.11146683 0.101872206 -0.040605742
000010 37 c4 fa 3d c0 c7 cd 3d 83 1b b9 3d 46 35 ac 3d
       0.12244456 0.10047865 0.090384506 0.084085986
000020 e6 52 c7 bd 65 83 af bd b7 0d 23 bb 43 52 a4 b8
       -0.097326085 -0.085699834 -0.002488 -7.835452e-05
000030 12 bd fd bc 32 f6 8e 3d 64 e2 44 bd 68 d9 db 3d
       -0.030973945 0.06980552 -0.048067465 0.10734826
000040 c6 4a 57 bd 83 69 a4 bd 7f 8d a8 bc 9a eb c4 bd
       -0.052561544 -0.08027937 -0.020575283 -0.0961525
000050 fa fe f5 3c b0 14 ee 3c 13 75 03 bd a8 8e 77 3b
       0.030028809 0.029062599 -0.032094073 0.0037774239
000060 87 5f 17 3e 36 1f c8 bd 91 94 ef 3c 11 26 35 bc
       0.14782535 -0.09771578 0.029245647 -0.011056439
000070 ca c1 e3 bd bb 71 1b 3c c9 e5 ce 3d a4 da 93 3a
       -0.11120947 0.009487565 0.10102422 0.001128037
000080 ef 4c 3d be fd df 47 bb e1 59 1f bc 46 ff e6 3c
       -0.18486379 -0.0030498498 -0.009726019 0.028197896
000090 6d ed c9 bd 65 9f 2f 3e 2d 06 49 bc 64 c1 3c bc
       -0.098597385 0.17150648 -0.012269539 -0.011520717
0000a0 27 2e 0e bd 17 b3 b5 bc 41 92 91 bd d6 26 dc 3d
       -0.034711983 -0.022180123 -0.07107974 0.10749595
0000b0 db ac 3a be de 94 be bd 57 30 a4 bc d7 ba b2 bc
       -0.18230002 -0.09305738 -0.020042581 -0.021817608
0000c0 47 e4 a2 3c fb 4d 04 3d 50 48 07 be d4 45 15 be
       0.019884242 0.03230093 -0.13211179 -0.14577419
0000d0 96 e8 ef 3d 5f 74 01 be c1 c5 a1 bb 0f 35 1e be
       0.11714284 -0.12642048 -0.004936904 -0.15449928
0000e0 75 28 be bd bc 47 e4 bd a6 fa b0 bd 2a f6 1c 39
       -0.0928506 -0.11146495 -0.086415574 0.00014969023
0000f0 be 2d fc 3d 26 0a a0 bd 39 5c 75 3d 64 c7 3f 3d
       0.12313412 -0.07814436 0.059902404 0.046821013
000100 22 3a c2 3d d1 c2 c3 3d 04 b1 e8 3b ee 25 57 3d
       0.09483744 0.09558643 0.00710118 0.052526407
000110 71 ae 5a bc 37 76 0b 3e 7a 92 84 bd f5 a3 fb 3c
       -0.013347254 0.13619314 -0.06473251 0.03071783
000120 fb c1 81 3c b0 63 12 3e 07 fc 98 bd cc 52 ed 3c
       0.015839567 0.1429584 -0.074699454 0.028970145
000130 78 d0 b0 3c 60 5e 8f 3d e3 6c 07 be bc c4 2b bd
       0.02158378 0.070004225 -0.1322513 -0.041935667
000140 f7 eb 60 3d cf 84 d1 3c c9 66 09 3c 0b 46 fb bd
       0.054912534 0.025576023 0.008386322 -0.12269219
000150 3a 74 07 bd 53 ca 58 bc 9b f3 ed bd 16 df c0 3d
       -0.033069827 -0.013231832 -0.1161873 0.0941755
000160 fc 6d 5b 3e 99 77 b6 bd 52 e1 02 be 55 40 1e bd
       0.21428674 -0.0890953 -0.12781265 -0.03863557
000170 a9 62 67 bb 3a 62 41 bc 6d 00 81 bd 08 c3 e8 3d
       -0.0035306609 -0.011803204 -0.06298909 0.11365324
000180 96 d0 16 be 5e 81 c1 3d 1c 4e 81 3b 91 4e c0 bd
       -0.14728007 0.09448503 0.003946079 -0.09389985
000190 af 11 02 be 28 9b 8e 3d a9 c3 d3 bd 9d 4b 4c bd
       -0.12702058 0.069631875 -0.103400536 -0.049876798
0001a0 3c 6e f0 3a e5 44 ab bd ab 6c 46 bd 9b 87 aa bd
       0.0018343399 -0.0836275 -0.048443478 -0.08326646
0001b0 99 15 6a bd f8 8a 19 3e be e0 6b 3c 3e ba e2 bc
       -0.057149503 0.14994419 0.014396844 -0.027676698
0001c0 05 3c 08 3e 46 97 13 3d 9c 6e ef bd d2 51 d5 3c
       0.13304146 0.036032937 -0.11691019 0.026039992
0001d0 d8 be f6 3d 09 90 1b 3c 97 79 3d 3d 06 fb 17 be
       0.12048119 0.00949479 0.046258535 -0.14841852
0001e0 0f 3d 0a be 4d 2d 23 bd 77 31 ae 3d 37 a6 21 bc
       -0.13499855 -0.039838124 0.085055284 -0.009866289
0001f0 9c ad a4 3d 80 98 c3 bd 4a 4a 6d 3d 65 85 3e 3c
       0.08040926 -0.095505714 0.057932176 0.011628483
000200 cf 24 99 bd 08 fa 4e be 97 99 8c 3c dc 51 1a bd
       -0.07477724 -0.20212567 0.017163081 -0.037675723
000210 94 c1 b5 bd 0d 29 88 3c 33 a1 97 bd a9 14 77 be
       -0.08874813 0.016621137 -0.07403793 -0.24128975
000220 02 ed 86 bd 18 9f ea 3c ca f5 c5 bd 3a 88 30 be
       -0.065881744 0.028640315 -0.09666021 -0.17239466
000230 80 ee e0 bd 69 9b fd bd a3 ba 2c bd 36 f3 0f be
       -0.1098299 -0.12383158 -0.04217018 -0.14057621
000240 6c 51 ff 3d ca 1a 2e 3c 45 5e 3f bd 80 12 e1 3d
       0.12466702 0.010626504 -0.04672076 0.10989857
000250 b6 40 18 3e c6 55 44 3c 99 fb e8 bc 71 11 3b be
       0.14868435 0.011983341 -0.028440284 -0.18268372
000260 65 be 2e bd 7e 82 86 bd 74 e3 ed bc 2c 70 40 bc
       -0.042662043 -0.06567858 -0.029039122 -0.011745494
000270 1f 61 ae 3d 84 e0 6b 3c 8d 5d eb 3c 10 2d a3 bd
       0.08514618 0.01439679 0.028731132 -0.07967579
000280 11 f5 ad 3c 85 4f ef bc ca 23 1e 3e 27 f5 8b 3d
       0.02123502 -0.029212723 0.1544334 0.068338685
000290 ae 4e a3 3c fb f0 ec bd c7 92 dc 3d ed 0d 7d 3d
       0.019934978 -0.11569401 0.10770183 0.06178086
0002a0 90 b0 9c bd a0 ef 66 3d ca ea 7c 3d a0 cc ef bd
       -0.07650864 0.056380868 0.06174735 -0.11708951
0002b0 18 94 08 3d 30 3e 5a 3d 74 8e 26 3c a9 37 0a 3d
       0.03334436 0.053281963 0.010165799 0.033744488
0002c0 96 0b ee 3a f0 1e 02 be 4d 5f 21 3e 31 8b e9 3d
       0.0018161412 -0.12707114 0.1575901 0.11403502
0002d0 18 f1 81 3c 71 82 08 3e 0f 6d 10 3e 6e f9 b3 3d
       0.015862033 0.1333101 0.14104103 0.08787809
0002e0 e3 d1 fb 3d 47 af f7 3c ec a3 75 bd a0 5c 8e 3c
       0.12295892 0.030234946 -0.05997078 0.017378151
0002f0 27 31 3a bd 4b b3 0b 3c 03 ff af bd 18 94 03 be
       -0.04545703 0.0085266335 -0.085935615 -0.12849462
000300 63 87 bc bc 8a c0 c1 3b 88 41 39 be ee 5b 7f bd
       -0.023013776 0.005912845 -0.18091404 -0.06234353
000310 7a ee 49 bd 5c 5e 9e 3d e8 4a bb 3d 5d a4 1e be
       -0.049299695 0.07732841 0.091451466 -0.15492387
000320 c6 09 97 3d 4f 03 d3 3d 92 78 ba 3d 09 a4 2d 3d
       0.07374911 0.103033654 0.09105028 0.042392764
000330 bb e9 0e be c0 32 c3 bc cb 0b ad 3d 85 19 69 3d
       -0.13956349 -0.02382791 0.08449515 0.056909103
000340 cc df 6d bd 59 6b fe bc 59 67 31 3d cf 07 5f bd
       -0.058074757 -0.031057047 0.04331145 -0.054450806
000350 25 73 bf 3c 51 c2 30 bd 8b 9d 06 be df 80 17 bd
       0.023370335 -0.043154065 -0.13146035 -0.036988135
000360 3b 2c e2 bd 27 f8 07 bb a4 6a 26 be f7 92 f1 3d
       -0.110435925 -0.0020747276 -0.16251618 0.117956094
000370 48 4a eb bd 60 47 8c bd 5a 61 32 bd 95 a8 3c 3d
       -0.114887774 -0.06849551 -0.043549873 0.04605921
000380 21 05 1b be cf 30 ab 3d c6 7f 41 bd 99 89 e0 3c
       -0.15138675 0.08358919 -0.047240995 0.027409362
000390 f2 e1 e6 3d 98 58 91 bd 9a 93 e1 bd 4f b9 3c bc
       0.112735644 -0.07096976 -0.11014481 -0.01151879
0003a0 37 a4 90 3d 80 26 1c be 0e 47 56 bd 01 89 b5 bd
       0.070625715 -0.15249062 -0.052313857 -0.08864022
0003b0 56 5b 23 be 5e 82 d2 bd bf 99 b1 bd 79 92 35 bd
       -0.1595281 -0.10278772 -0.08671903 -0.04432914
0003c0 02 c6 23 3e 2c 30 bd 3c e5 e3 2e 3d 53 2b 90 3d
       0.15993503 0.02309426 0.042697806 0.070395134
0003d0 e8 7d ed 3d 74 9f 2f 3d 3b 46 5e bd 09 f1 66 3d
       0.1159628 0.042876676 -0.054266196 0.056382213
0003e0 50 85 8f 3d 03 e0 2d 3c dd f5 84 3d 7f b9 64 3d
       0.07007849 0.010612491 0.06492207 0.055840965
0003f0 de b0 15 3e 83 76 14 bd ae ae 84 bd ee 4f 3e bd
       0.1461825 -0.036245834 -0.0647863 -0.046462946

decoder.attention_model.attn.bias f4 [32]
000000 e5 db 81 3d 30 ce 62 bd 2b d1 2b bd 34 0d ad 3d
       0.0634077 -0.055372417 -0.041947525 0.08449784
000010 7b b4 af bd 01 8f 05 be aa 97 5d bd 4f 12 8f bc
       -0.08579346 -0.13042833 -0.054099716 -0.017464785
000020 cf 9d ae bd 11 80 c2 3c 35 93 39 3d ed 32 34 bd
       -0.08526193 0.023742707 0.045306403 -0.04399388
000030 a8 63 2a bd ab 98 dc 3d 22 23 12 bd e7 78 ca 3d
       -0.041598946 0.107713066 -0.035678037 0.098863415
000040 8d 15 2f 3d 74 5b 2b 3d b1 81 23 bc 60 3e 7f bc
       0.04274516 0.041835263 -0.009979651 -0.015578836
000050 2a 4f d7 bb d7 73 00 3e 71 88 5a bd 88 5c 3d 3d
       -0.0065707164 0.1254419 -0.053352777 0.046230823
000060 13 da ac bc 85 77 78 3c c7 42 f3 3d 10 bb 03 be
       -0.02110008 0.015165214 0.11877971 -0.12864327
000070 a1 f2 e2 3b 2c 82 f9 3a 9d ab 33 bc f1 55 cb ba
       0.0069258963 0.0019035987 -0.010966209 -0.0015513283

decoder.attention_model.v.weight f4 [1, 32]
000000 0b 10 0b 3e 52 17 98 3d 11 57 5e be f4 80 82 3d
       0.13580339 0.07426323 -0.217129 0.06372252
000010 8c 5e 33 3e 5f 86 69 be fa 0d e5 3d e4 8e 13 3e
       0.17516536 -0.22805165 0.111843064 0.14409977
000020 03 f0 06 be f1 6e 2c 3e c4 69 59 3d e6 a9 9a 3d
       -0.13177495 0.16839196 0.05307938 0.07551937
000030 8b b8 ed 3d 9f 71 0c be aa 6e 97 3d 8e 6b e2 3d
       0.116074644 -0.13715218 0.07394154 0.11055671
000040 fa 5b 1f 3e 35 0f 30 3e df bb 16 be e5 45 22 3d
       0.1556243 0.17193301 -0.14720105 0.039617438
000050 66 aa 4e 3e 72 98 43 3e 10 bf c9 bd 03 36 a7 bd
       0.2018219 0.19101122 -0.098508954 -0.08164599
000060 e6 39 6e 3d 34 de 4f 3e f9 93 fb 3d 55 b6 3d be
       0.058160685 0.20299608 0.12284083 -0.18526585
000070 c8 5b a3 bd cb 4e 61 be 26 61 10 be 59 92 16 be
       -0.0797649 -0.22002713 -0.14099559 -0.14704265

decoder.gru.weight_ih_l0 f4 [96, 45]
000000 8c 47 1d 3d cf 78 83 bd 8c 28 5a 3d 00 e8 96 3d
       0.03839831 -0.06419527 0.053261325 0.07368469
000010 ba 66 ab 3d 2e f1 8d bb 23 ca 38 3e 46 61 a6 bd
       0.08369203 -0.0043317294 0.18045859 -0.08124022
000020 44 f7 3e 3d 9c 21 20 3e 31 f6 4a 3d fd 5d 19 be
       0.04662253 0.15637821 0.049551193 -0.1497726
000030 26 33 88 3d dd f6 2e bd ff eb 98 bd af e8 95 3d
       0.06650381 -0.042715896 -0.07466888 0.073197715
000040 cf ef 35 be 51 46 1f 3e 61 ba cd bd 7d 4d f7 3d
       -0.17767261 0.15554167 -0.100453146 0.120753266
000050 67 4d 15 3e 1e 2c 9c bd 6b 3c 1a be 6c 3c 2d be
       0.14580308 -0.07625602 -0.1506211 -0.1691758
000060 e8 61 51 3d 22 88 b4 3d 61 81 1e 3e 9b 57 b6 bd
       0.05111876 0.08815028 0.15479042 -0.08903428
000070 bd e8 96 bd e7 0f 49 bd 70 13 1d be df a7 88 3d
       -0.0736861 -0.04908743 -0.15339446 0.06672644
000080 c3 16 bd 3d 5e e5 13 3e fc 50 86 bd 0f 60 1d be
       0.09232857 0.14442965 -0.06558415 -0.15368675
000090 5b 9c 08 bc ea 90 b4 3b 3d d7 ed 3d 00 b2 a8 bd
       -0.008338059 0.005510439 0.11613319 -0.08237076
0000a0 79 23 29 bc ec 06 42 3e e9 60 c5 bd ee 0b 14 be
       -0.010323399 0.18947953 -0.09637625 -0.14457676
0000b0 96 56 33 3e e1 3e 3e be d3 cc 82 3d 4f cf a8 3d
       0.17513499 -0.18578674 0.06386723 0.08242666
0000c0 e1 49 aa 3d 46 66 30 bb 56 bf 31 be 77 87 86 3d
       0.083148725 -0.0026916428 -0.17358145 0.065688066
0000d0 67 c7 82 3d 6a 13 4b bc 7a a7 09 be a1 00 15 3e
       0.06385689 -0.012394765 -0.13442793 0.14551021
0000e0 1e c7 c6 3d ea 94 09 be 1d 4e cf bd 1a 6d d2 3d
       0.09705947 -0.13435712 -0.10122321 0.10274716
0000f0 92 4c cc 3d 12 7d 29 bd 3b 38 77 bd 64 82 6f 3d
       0.09975542 -0.041379042 -0.06035636 0.05847396
000100 16 ef a4 3d bf f7 91 bd aa c0 07 bd 56 e9 eb 3d
       0.080534145 -0.07127332 -0.033142723 0.11519115
000110 76 70 25 be b7 b3 af bd 24 e2 67 be 4d c3 28 be
       -0.16156182 -0.085792 -0.2264486 -0.16480751
000120 66 99 67 3d 9d e3 f6 bc 16 c0 16 3e 63 3a b9 3b
       0.056542777 -0.030137831 0.14721712 0.005652712
000130 9b ba 73 bc f3 a1 03 be 72 f5 0d 3e 8a c5 99 bd
       -0.014876033 -0.12854747 0.13863161 -0.07508381
000140 02 fd 1c be b2 7f 1b 3e 53 b7 62 3d 03 dd 9c 3d
       -0.1533089 0.1518543 0.055350613 0.07659342
000150 cb dd 11 3e 58 e1 df 3b a2 57 5b be 0e aa 03 3c
       0.14244764 0.006832283 -0.21420148 0.00803615
000160 27 cb 1d 3e 7e 09 13 3c 8e 31 96 3e 12 68 9c bd
       0.15409528 0.008974431 0.29334682 -0.07637037
000170 bc 93 e6 bd 86 8a cf bd 9e 28 68 bd 2b e5 3f be
       -0.11258647 -0.10133843 -0.05667936 -0.18739764
000180 c8 03 0d 3c eb 33 5e bd 1c 40 0b be c1 10 91 3d
       0.008606859 -0.05424873 -0.13598675 0.07083274
000190 75 5b 85 be 30 e2 26 bd 65 7f 41 be 67 5e 09 3d
       -0.2604634 -0.040743053 -0.18896253 0.033537295
0001a0 9c 08 eb 3c b2 6d 03 bd 48 e4 44 3e b0 d6 00 3e
       0.028690629 -0.032087035 0.19227707 0.12581897
0001b0 69 03 32 be a7 c0 8a bd 41 7c 88 bd 2d 72 48 be
       -0.17384113 -0.06775027 -0.066643246 -0.19574805
0001c0 cd 9b fc 3d 93 41 9b 3d a1 84 6d 3c 68 fb d3 bd
       0.12334404 0.07580867 0.014496953 -0.10350686
0001d0 59 88 dd bd 5e 76 1d bd c5 88 1b 3e 17 cc cd 3d
       -0.10817022 -0.038442962 0.15188892 0.10048693
0001e0 d9 4e 2d 3d 62 2e 12 3e 41 3d cd 3d 04 52 56 bb
       0.042311523 0.14275506 0.10021449 -0.0032702694
0001f0 1e 09 c4 3b 24 10 fd 3d d1 66 4b 3d d6 ab 62 bd
       0.005982532 0.12356594 0.0496586 -0.055339657
000200 ff 5e 28 3e be 6c ce bd d5 b2 29 3b 90 4e be 3b
       0.16442488 -0.10079335 0.0025893946 0.005807705
000210 32 2e 1d 3e 99 c6 9c 3d 7c fe 09 3e e1 03 07 be
       0.15349653 0.07655067 0.13475984 -0.13185073
000220 61 63 d6 bd bc 0a e7 3c 7a a9 a6 3d 5f 27 e5 3d
       -0.10468174 0.02820336 0.08137794 0.1118915
000230 b8 d5 08 be 52 aa 10 bd 78 52 37 bd e0 95 13 3e
       -0.13362777 -0.03531868 -0.044756383 0.14412642
000240 89 81 87 3d b5 13 ea bd 95 00 27 3e ac 58 1a 3e
       0.06616504 -0.1142954 0.16308816 0.15072888
000250 4d 9f f4 3d d6 e3 04 be bf 5f 94 bc 45 89 f3 3d
       0.11944447 -0.12977538 -0.018112062 0.118914165
000260 f5 a4 fd 3c 7e 37 48 3c c7 91 3b bc 0a d7 be 3c
       0.030962447 0.012220262 -0.01144833 0.023295898
000270 46 85 22 3d c8 5a a5 bd 70 96 a4 bd cf 29 17 bd
       0.03967788 -0.08073956 -0.08036506 -0.036905106
000280 eb a0 10 3e de 0b 1f be 81 11 e8 3d bc d0 14 3e
       0.14123885 -0.1553187 0.113314636 0.14532751
000290 58 17 be 3d 46 ba 40 be 51 f2 8b bd 08 61 2d 3e
       0.09281796 -0.18821058 -0.068333276 0.16931546
0002a0 cf 8d 8e 3d c7 cf dd bd 07 e2 d0 bc f5 85 0c 3e
       0.069606416 -0.10830646 -0.025498403 0.13722976
0002b0 37 fa d0 ba 1f 4d e4 bd e9 aa e4 3d 84 cf a9 3c
       -0.001594371 -0.11147522 0.11165411 0.020728834
0002c0 96 bd 21 be 4d 73 9f bc 4d 76 b0 3d 48 21 11 3d
       -0.15794978 -0.01946416 0.08616314 0.03543213
0002d0 97 9d 6a 3e f6 f3 c7 3d 2b 0d 80 3c 5e ce 2c 3e
       0.22911678 0.09763329 0.015631279 0.16875598
0002e0 2e 3b c4 3c b2 a7 b3 3d bd 4e b7 bd e1 ed 0b 3d
       0.023954 0.0877222 -0.08950565 0.034162406
0002f0 a6 d4 08 3e 85 35 7b 3d f5 82 f1 bd ec e9 28 3e
       0.13362369 0.061330337 -0.11792556 0.16495484
000300 a8 a0 aa bd 46 f6 36 3b 7b 97 22 3d 90 63 e9 bb
       -0.08331424 0.0027917787 0.039695244 -0.0071224645
000310 d2 88 17 bc ac 24 ba bd 92 af 04 3e 93 a2 f5 bd
       -0.009248929 -0.09089026 0.129576 -0.11993899
000320 dc 17 08 3e 32 ea 31 3e 72 02 05 3d ed 51 91 bd
       0.13290352 0.17374495 0.032473035 -0.07095704
000330 e9 ad d0 3d ea 26 1b 3e ff d1 85 3d d6 ac da 3d
       0.10189421 0.15151563 0.06534194 0.10677497
000340 d9 78 15 3e b1 02 15 3d 3a 49 f6 3d 34 fa 1c 3e
       0.14596881 0.03637952 0.120256856 0.1532982
000350 27 90 17 bd ac f1 9f bd fe 05 01 3d 16 3d b5 3d
       -0.03700271 -0.07809767 0.031499855 0.08849542
000360 ad 82 26 be 97 c3 c7 3d a7 5c 05 3e bd 2a 18 3e
       -0.16260786 0.09754103 0.13023625 0.14860053
000370 ea 30 12 3e 95 16 0e 3e f1 3a 37 3e aa d8 06 3e
       0.14276472 0.13875802 0.17893578 0.13168588
000380 29 70 d9 3d 8a 97 2a bd 20 9a d9 3d 34 a4 82 bd
       0.10617096 -0.041648425 0.106251 -0.063789755
000390 b8 87 28 3e 29 6b 15 be a1 c2 d2 3d 3a 16 56 be
       0.16458023 -0.1459166 0.10291029 -0.20906916
0003a0 fd 3e b7 bd ff 8b d8 3d 80 5b f3 bd 9a c7 1b 3e
       -0.08947561 0.10573577 -0.118826866 0.1521286
0003b0 59 ad 2f 3e 03 ae 15 be 6d 7f f4 bd 93 ef 76 3d
       0.1715597 -0.14617161 -0.11938367 0.06028707
0003c0 c6 e2 50 3d d3 8b 04 3e 26 46 08 3d 0a b3 c6 bd
       0.050997518 0.12943964 0.033270024 -0.09702118
0003d0 00 c6 15 bd 97 80 ab 3c a4 8d 10 be d3 34 85 bd
       -0.03656578 0.02093534 -0.14116532 -0.06504216
0003e0 af b2 b3 3d 05 68 5c be 2a 0c dc 3d d4 0e 20 be
       0.087743156 -0.21524055 0.107445076 -0.15630656
0003f0 ad 9b 46 3d 0d 18 f0 3d cf eb 86 3d 42 eb 7c 3e
       0.048488308 0.11723337 0.06587946 0.24699119

decoder.gru.weight_hh_l0 f4 [96, 32]
000000 f8 80 40 3a eb ae a9 bc 5a e4 86 3d 9b 45 0d 3e
       0.00073434366 -0.02071329 0.06586523 0.13796084
000010 23 56 41 3d 92 65 d9 3d 48 11 a2 3d cd 68 04 3c
       0.047201287 0.10615076 0.079134524 0.008081627
000020 7e d4 d1 3d e1 4c 4b 3d db e7 d7 bd fc 76 35 3d
       0.10245608 0.049633864 -0.1054227 0.044302925
000030 67 67 b8 3d 94 4a c5 bd 81 9b 07 3e 59 38 e4 bd
       0.090040974 -0.09633365 0.13242914 -0.1114356
000040 7e 5e 87 3d 77 e2 07 be bb e8 0f 3e 18 de bc bc
       0.0660982 -0.13269983 0.14053623 -0.023055121
000050 3f a1 54 be 80 d6 41 3d 7e 4b 33 3e 5a 3b b1 3d
       -0.20764636 0.047323704 0.17509267 0.086538985
000060 a5 a9 8a 3d 2a 7f 17 3d f4 e9 83 bd 52 47 af 3d
       0.067706384 0.036986507 -0.064411074 0.08558525
000070 cf e8 8a 3c ad 23 14 3e 05 f8 94 3d 67 39 98 3d
       0.016956715 0.14466734 0.072738685 0.07432824
000080 a5 f1 f5 3d 5c c1 86 3d f5 e1 af 3d 85 73 d6 bd
       0.12008981 0.06579849 0.0858802 -0.10471252
000090 0a 61 48 3e 0d 7e 44 3c 4c ff b7 bd e0 83 8d 3e
       0.19568267 0.0119929435 -0.08984241 0.27639675
0000a0 94 87 10 3e 70 63 1e 3e 18 11 5b 3d 85 25 64 3d
       0.14114219 0.1546762 0.0534831 0.055699844
0000b0 09 fe d8 3d 88 ce cd 3d 1f 8f f2 3d 19 06 81 3e
       0.10595328 0.10049158 0.118437044 0.25199965
0000c0 55 cd 10 3c 86 ca 99 3d 77 2f a9 3d 04 90 64 3d
       0.0088380175 0.075093314 0.08261006 0.055801407
0000d0 fe 06 d8 bd 40 e4 df bd 58 6c ad 3d b6 96 fb bb
       -0.10548209 -0.10932207 0.084679306 -0.0076778783
0000e0 fd cf 00 be a9 59 e1 bd 05 d5 a5 3d 38 c5 2e 3e
       -0.12579341 -0.110034294 0.08097271 0.1706742
0000f0 17 df 40 be 39 d0 5b bd b5 b9 66 3d 49 4f 57 3e
       -0.18835102 -0.053665373 0.056329448 0.21026339
000100 4e 6a 39 be 27 43 06 bd 4c 49 a1 ba 27 9b 72 3d
       -0.18106958 -0.032778885 -0.0012305169 0.059229996
000110 f7 da 80 3d 40 c1 56 bc 82 a4 2f bd b4 b5 45 be
       0.06291764 -0.013107598 -0.042881496 -0.19307595
000120 77 11 39 3d 48 6a 11 be 52 d0 1b 3e 99 5a 47 3d
       0.04518267 -0.142007 0.15216187 0.048670385
000130 35 d8 5d be 63 12 c6 3d 92 83 54 3d e0 f8 b1 3d
       -0.21664508 0.09671476 0.051883288 0.08690047
000140 ab 8f 95 3d de bf 74 3c 95 f0 cf bc 8d 12 b8 3d
       0.07302793 0.014938323 -0.025383273 0.08987913
000150 8a 72 2a 3d 4f 48 a7 3c 3d 93 7a 3c 56 14 23 3e
       0.04161314 0.020420222 0.015293893 0.15925726
000160 f5 44 47 bd a2 f3 e6 3d 34 31 fa bd 99 a8 cb 3c
       -0.048649747 0.11276938 -0.12216416 0.024860667
000170 25 70 02 be 16 62 ce 3d 16 e9 ea bc 63 04 49 bd
       -0.12738092 0.10077302 -0.028675597 -0.04907645
000180 1c 68 4c 3c 05 58 70 bb 3b b1 ea 3d d5 4e 06 3e
       0.0124759935 -0.0036673557 0.11459585 0.1311601
000190 1a d9 28 bb c8 62 cd bc 15 8e 75 3c 50 d9 41 3d
       -0.0025764168 -0.025071517 0.014987488 0.047326386
0001a0 74 6b 0a 3e 0c b1 cb 3d 41 2b 3a be 9e 9f 04 3e
       0.13517553 0.099458784 -0.18180563 0.12951514
0001b0 f3 85 8c bd b9 cf ce bd e5 5e e2 bc be 85 1a be
       -0.06861486 -0.10098214 -0.02763314 -0.15090081
0001c0 62 65 e5 bd af af 8a bd de a9 de bd bd c0 c0 3d
       -0.11200978 -0.0677179 -0.10872243 0.09411762
0001d0 ac 75 8f bd 2a 7f 38 3e 29 a5 3d 3e 17 01 29 3e
       -0.07004866 0.18017259 0.18520035 0.16504322
0001e0 e2 d6 16 3e f5 ee 9e bd 30 28 cd bd 7f 6f c2 3d
       0.14730409 -0.07760421 -0.10017431 0.094939224
0001f0 d1 31 63 3d be 19 b0 3d a5 ce c8 bd 27 12 01 3d
       0.05546743 0.0859866 -0.09805039 0.031511452
000200 6d ec fd bc 89 77 06 be 2c f4 fe 3d d3 2e c0 bd
       -0.030996526 -0.13131537 0.12448916 -0.09383931
000210 e2 40 cd ba ff c2 88 3c 6e 89 2a 3c 8b 96 e9 bd
       -0.0015659595 0.016694544 0.010408742 -0.11405667
000220 ca 81 bf 3d 69 41 cb bd 08 13 54 bd 5f 62 c0 bd
       0.09350927 -0.09924585 -0.051775962 -0.09393763
000230 5e 65 4d 3c af de 88 3d a9 0b d7 bd d3 02 e8 3c
       0.012536375 0.066830985 -0.10500271 0.02832166
000240 56 12 0c 3e 77 ed 38 bd af 9f 18 3d f0 43 86 3d
       0.1367887 -0.04514834 0.03726166 0.06555927
000250 f4 38 ed bd 1b 7b 22 be a7 34 35 3e 47 c3 bb 3d
       -0.115831286 -0.15867274 0.17695867 0.091681056
000260 d0 88 05 3e 4a e7 1a be 48 ff 13 3e a1 2a 27 bd
       0.13040471 -0.15127292 0.14452851 -0.04081214
000270 94 0a 10 3e 2f f7 af 3b 1d 55 bb bd b5 6a 1c 3e
       0.14066535 0.0053700428 -0.091470934 0.1527508
000280 e7 07 47 bc 64 e6 68 bd 8b 9e 04 3e ac b4 23 3d
       -0.01214788 -0.056860343 0.12951104 0.039967224
000290 14 23 a1 3d f2 63 13 bd 48 51 f8 3d b4 c4 07 3d
       0.07868019 -0.035983987 0.12124878 0.033146575
0002a0 0e a8 13 bd 9d 17 07 be a4 ac 25 3e 97 2f 7a 3d
       -0.03604894 -0.13192602 0.16179138 0.06108054
0002b0 a5 d8 26 3e a2 c9 9e bd b5 b3 42 be 50 ed 43 3e
       0.16293581 -0.07753302 -0.19013865 0.19133496
0002c0 f8 ff 6c 3d 54 b9 cb 3d 22 ee ff bd 70 04 63 bc
       0.0578613 0.09947458 -0.12496592 -0.013856038
0002d0 aa dc 1c be 74 ba a4 bd bb 60 89 bc fb 3b c0 bd
       -0.15318552 -0.080433756 -0.016769757 -0.0938644
0002e0 4d e6 d6 3c a9 be 36 3d a5 cd 9f 3e 04 4a 98 bd
       0.026232863 0.04461542 0.31211582 -0.07435992
0002f0 42 7d b4 3d bd 18 ed bd 9b 5a 04 3d 71 f9 17 bd
       0.088129535 -0.11576984 0.03231297 -0.03710312
000300 67 70 25 be 5a 9e bb 3b 57 f6 e2 3d 98 39 87 bd
       -0.1615616 0.005725664 0.11082142 -0.06602782
000310 c9 69 2b be dd 00 7b 3d 15 57 a1 bd 57 27 b6 3c
       -0.16739573 0.06128012 -0.07877938 0.022235556
000320 fa a9 16 bd fa e9 fd bd fa df df bd a4 f7 21 be
       -0.036783196 -0.12398143 -0.10931392 -0.15817124
000330 1a a2 2e 3e b1 a0 6c bd 40 8d 2d 3d 76 d0 98 3d
       0.17054024 -0.057770435 0.042371035 0.07461636
000340 8a 46 9a bd dc 87 19 3e 37 2c 1c 3b 1d 18 46 3d
       -0.075329855 0.14993232 0.0023830065 0.04836284
000350 69 48 41 3e 82 ff 61 be 8c b1 72 b9 ce 92 57 3d
       0.18875279 -0.22070125 -0.0002314506 0.05263024
000360 f6 00 58 be 6e 23 06 be 02 ce 0d 3d 1e 10 58 3e
       -0.21094117 -0.13099453 0.034620292 0.21099898
000370 1c 95 41 bd 58 90 09 3e 93 dd c2 3d 24 a4 d2 bd
       -0.047261342 0.13433969 0.09514918 -0.102852136
000380 3f ea e1 3d 6f 7e 7c bd 96 3b 3e be a3 bd f2 bd
       0.11031007 -0.061644014 -0.18577418 -0.118525766
000390 ac 89 66 3e 8a 84 2a 3e 2c 2a c2 bd fb a6 e3 bd
       0.22513455 0.16652122 -0.094807 -0.11115833
0003a0 65 c9 52 3e 60 d9 a0 3d 76 93 8d bc c7 e6 bc bd
       0.20584638 0.07853961 -0.017282229 -0.09223705
0003b0 1c e5 32 be 2b b9 6b 3e d0 70 98 bc 29 ab 17 3e
       -0.17470211 0.23019855 -0.01860848 0.14811386
0003c0 a7 a0 fa 3d 28 5c 6a 3e 91 6c 9c bd 1f a3 50 be
       0.12237673 0.22886717 -0.07637895 -0.20374726
0003d0 5c b7 36 bd bc c0 13 3e c5 e9 e3 3d b1 3b 46 3e
       -0.04460846 0.14428991 0.111285724 0.19358708
0003e0 08 cd 08 3e 73 f2 0e 3d a9 2a f1 3d 18 0b ed bd
       0.13359463 0.034899186 0.11775715 -0.115743816
0003f0 38 b8 e7 bd 5e 45 bf 3d ff 98 0b 3e 8c 03 67 3e
       -0.11314434 0.093394026 0.13632582 0.22559947

decoder.gru.bias_ih_l0 f4 [96]
000000 12 2a be 3d 39 05 18 be 95 ca 0e be 6a a9 af bc
       0.09285368 -0.14845742 -0.13944466 -0.021443088
000010 cd aa 0c be 1f 84 61 3e 60 2e cd bd 5a 09 1a 3e
       -0.1373703 0.22023056 -0.10018611 0.1504263
000020 be f8 a2 bd bf a0 30 3e 04 30 31 be 36 05 be 3d
       -0.079576 0.1724882 -0.17303473 0.09278338
000030 3f 95 3f bd cf a1 5d 3d 4f ee c8 3c 89 a3 38 3e
       -0.04677319 0.05410939 0.024527697 0.18031134
000040 f3 96 55 be 76 58 a4 bd 63 51 07 3e 20 2d 03 3e
       -0.20858364 -0.08024685 0.1321464 0.12810183
000050 22 a7 12 3d b9 64 d1 3d 4d 7e 2c be 84 07 6e bd
       0.03580392 0.102242894 -0.16845055 -0.058112636
000060 59 84 a2 3d 59 61 d8 bd 91 e9 98 3d d7 e3 e2 bd
       0.079353996 -0.105654426 0.07466424 -0.11078613
000070 02 51 86 3d 4d 96 23 3e 2c 69 a4 3d f2 07 e2 3c
       0.0655842 0.15975304 0.080278724 0.02759168
000080 59 03 7c bd 62 8d 8b bd cb 81 d7 3d 34 5e 06 be
       -0.06152663 -0.06814076 0.10522803 -0.13121873
000090 f6 03 00 be 2e 94 9d be bc b6 7b bd ac b4 c8 3d
       -0.12501511 -0.30777115 -0.061453566 0.098000854
0000a0 1e c0 8c be 2e af c0 3d 45 b7 7a ba c4 e7 c2 bd
       -0.27490324 0.09408413 -0.00095640525 -0.09516862
0000b0 b5 4d 61 bc 8f b5 fb bd 79 a8 9f 3d 84 4d e2 3c
       -0.013751437 -0.12290489 0.077958055 0.027624853
0000c0 48 4e e7 3d 1f 5c 78 bd 06 71 7f be 05 fe 73 be
       0.11294228 -0.06063473 -0.24945459 -0.2382737
0000d0 b2 81 9a be 16 d0 ab bd 42 bf 1c bc 16 02 12 3c
       -0.30177075 -0.083892986 -0.009567084 0.00891163
0000e0 da 8b bd bd 2c 60 4a be 19 4a 55 be 74 e7 38 3d
       -0.0925519 -0.19763249 -0.20829047 0.045142606
0000f0 03 28 70 be 35 cf 74 be d8 b8 52 3d 0a 15 a0 bd
       -0.23452763 -0.23907168 0.051445812 -0.07816513
000100 41 35 78 3c ff 9a 82 3d 73 dc 90 3d e0 c2 ec bd
       0.0151494155 0.063772194 0.07073297 -0.11560607
000110 55 b8 ab 3d 3a 3b 4b be f1 67 a6 bc 0e 96 17 3e
       0.08384768 -0.19846812 -0.020313235 0.14803335
000120 7c e9 07 3c 89 46 e4 ba b9 20 99 3d 24 b4 c9 bd
       0.008295413 -0.0017416041 0.074769445 -0.09848812
000130 60 3c 13 bd 6f 03 a8 bd d2 4a 8e 39 8d 29 1b 3e
       -0.03594625 -0.0820378 0.00027140096 0.15152569
000140 fb 1d 36 3d 89 23 b4 3d 6b 80 b1 3b 9e b3 2e be
       0.044462185 0.0879584 0.00541692 -0.17060706
000150 3f ef 07 3e a2 7a 34 be e6 9b bb 3d 78 dd cd bc
       0.13274859 -0.17624906 0.09160595 -0.025130019
000160 f5 72 09 be b0 5e 48 be 0f ad 16 3e 96 85 f2 3d
       -0.13422759 -0.1956737 0.14714454 0.11841886
000170 a0 06 be 3d ea c7 d8 bd e2 87 f7 3d b0 ee c2 ba
       0.09278607 -0.105850056 0.120864645 -0.001487216

decoder.gru.bias_hh_l0 f4 [96]
000000 76 55 b5 3d 76 98 e1 bd 63 c9 c6 bd 4a cd f6 bd
       0.08854191 -0.11015408 -0.0970638 -0.120508745
000010 3b d0 04 3e b6 43 4a bd 6e 4d 30 bd 7b 17 7b 3c
       0.12970059 -0.04938098 -0.043042593 0.015325422
000020 86 81 35 3e 4d db df 3d 5e 01 8e bd e2 eb fb bc
       0.1772519 0.109305 -0.069338545 -0.030752126
000030 cc 3a f8 3d 54 ad ed 3d 72 39 3a 3e cd 3e 92 bd
       0.121205896 0.11605325 0.18185976 -0.071408845
000040 9b b8 da 3c c6 14 98 3d 45 5f 24 3c 45 e6 d4 3c
       0.026699355 0.07425837 0.01003248 0.025988707
000050 48 0a c3 3d 71 8b c4 3d 23 55 d0 bd b0 bf 28 3e
       0.09523445 0.09596909 -0.101724885 0.16479373
000060 9e cc 0d 3e 76 25 6e bd 31 d5 84 3d ed 08 86 bc
       0.13847587 -0.058141194 0.064859755 -0.016361678
000070 32 c2 58 39 d1 a7 44 3e a6 e4 12 3e f2 41 5b 3e
       0.00020671709 0.19204642 0.14345035 0.21411875
000080 13 ae 64 bd cc ac 9a 3c 32 ce ab 3c a5 26 92 be
       -0.055830073 0.018881224 0.020972345 -0.28545108
000090 61 ee 87 bd d9 3a e4 bd fa 6c 3f bc a3 84 2f 3e
       -0.06637264 -0.11144037 -0.011683697 0.1714044
0000a0 7e 41 5d be af 83 fa bd 79 b2 bc bd 1d 6c 30 bc
       -0.21607015 -0.12232148 -0.092137285 -0.010767964
0000b0 15 38 fa 3b 5f 28 20 be 19 e2 88 3d 51 8f 31 3d
       0.00763608 -0.156404 0.0668375 0.043349568
0000c0 74 ec 82 bd df 9a 20 be 64 2c 90 be c6 5a 6d bc
       -0.06392756 -0.15684079 -0.28158867 -0.014486974
0000d0 ea 33 74 be af 39 64 be e1 e8 27 be 9c 2b 1f bd
       -0.23847929 -0.2228763 -0.1639743 -0.03885995
0000e0 c8 65 a1 bd 9d 18 b1 bd 15 01 35 be de b5 9c 3d
       -0.07880741 -0.08647273 -0.17676194 0.07651876
0000f0 80 9e ab be c5 8c 55 be 35 74 d6 bd 9d 4d d8 3c
       -0.33519363 -0.2085448 -0.104713835 0.026404196
000100 d1 ef b5 bd 03 fa c6 3d 11 fb 96 b9 f1 00 19 3e
       -0.08883632 0.09715655 -0.00028797289 0.14941765
000110 51 24 49 3e 1c b8 ec bd 4c 1a 51 be eb 96 cd bd
       0.1964276 -0.115585536 -0.20420188 -0.10038551
000120 69 cf 59 bd 4c fe ba 3d 16 3f 15 3e be bc bf 3d
       -0.053176317 0.091305345 0.14574847 0.093621716
000130 43 7a 29 3e 4e 4d dc 3d 05 ff 29 3e 5a f8 00 be
       0.16550545 0.10756932 0.16601188 -0.12594739
000140 d8 14 e2 bd d5 25 42 3e 3f b0 9e bc 56 c1 23 bd
       -0.11039132 0.18959744 -0.01937115 -0.0399793
000150 00 6e 15 be 54 43 19 be 25 e7 37 bd 7d 16 0f bd
       -0.14592743 -0.1496709 -0.04489817 -0.034933556
000160 02 15 1e bd 52 ac 79 3c ae ed 75 bd 54 6e fd bd
       -0.038594253 0.015238838 -0.060041122 -0.12374559
000170 a7 80 a1 bd 6f 54 1a 3e 7f ba 07 bd 6d a7 ea bb
       -0.078858666 0.15071271 -0.03313684 -0.007161072
