trained_models/seq2seq_atn/seq2seq25.pth (torch, 63632 bytes, 13 tensors)

encoder.gru.weight_ih_l0 f4 [96, 13]
00000000: e446 773e e8b9 8f3c 9cd7 9fbd b873 e7bc
00000010: 7e9f f7bd 44b1 18bd c4da d13d c996 a2bd
00000020: 2862 073e a723 cd3d 6d67 bfbd f876 503e
00000030: 3b82 0fbe f993 6dbd 1582 08be 7ca3 b0bc
00000040: cd95 273e 3c61 2ebe d735 fdbd 41e2 55bd
00000050: 0f21 3dbe ebfa e7bd d7cd 9fbd c2dd 3a3e
00000060: 5844 c4bd 0074 1d3e 2620 033e 6d83 8ebd
00000070: 171c 2f3c 526a e33d 3150 543c 1977 9c3d
00000080: c966 3d3c e36a e1bc 12fa 0f3e 7d3d d13d
00000090: b531 17be 6de1 093a 1f03 643d df2c 653e
000000a0: d324 2ebe 805e b8bd 24fb b1bd d7d2 f7bc
000000b0: ec08 453c b2c5 41bd 8c74 d2bb ba97 463d
000000c0: 490b cd3d ae9c a9bd 6639 cd3d c8f1 003e
000000d0: b3d9 63be 2708 b53d 1008 6b3e 684d a43c
000000e0: bc9e ae3c 1eae 18be c6ea 3ebe 1929 62bd
000000f0: ba31 b0bd 5518 f8bd bc69 903e 30ab b8bd
00000100: 0cb7 85be b205 863e c4f7 8bbd fed3 613e
00000110: b895 d9bc c71f 0ebd ed38 3abe 7cc9 023d
00000120: 3b42 20bd 356f 49bc ee5a 053e 0405 483c
00000130: 1fc4 97be e9d3 073e abed 05be ec4b 003e
00000140: 177b 31bd fc68 0ebc 29e7 403e 2f9d 8ebc
00000150: fbaa 0cbe 3b34 1a3e f73e cbbd 6ee0 1bbe
00000160: e23b 533e e0d9 703d 0bd2 3bbd e097 353d
00000170: a175 a43e c2f3 d3bd 4e62 09bc 7ea3 0f3d
00000180: 566d b43c 4bec 25be 113e 2ebe 4955 92bc
00000190: 54c7 b43d 3357 4d3e ad90 f83c 63e3 1b3d
000001a0: aa5b cabd e785 b23c 4dd4 3b3e f37d de3d
000001b0: 6b61 b4bd a217 913d 377c 9d3d 98d4 033e
000001c0: cf16 22be 0488 893d 854f 603e 7d3b 86bd
000001d0: 23fa 143e 0643 453e 83de 473d 33a6 5d3d
000001e0: 54de 853d 7128 2d3d 7feb cdbd 1299 503d
000001f0: 4c23 dfbd 3345 56bd 01ad 083e 4111 1ebd
00000200: 0736 b13c c2df 30be 0b8c 4c3d e18a 85be
00000210: e0ab 80bd c7a5 af3c dea3 19be b232 d7bd
00000220: 7d39 fabd 724c b6bd 281b c3bc 1e45 1bbe
00000230: daa5 22be 4172 273d c532 963d 65bd 69bb
00000240: a253 1d3e e4d7 3a3e abdc bfbd 7ca8 f3bd
00000250: c57a 793d f68c 23be e111 47be eb7e b5bd
00000260: cf61 fcbd 9ee7 98bd a237 813d c36a fbbd
00000270: e8f0 fd3d a765 003d 41f5 c13c 4eab 5f3e
00000280: 9890 f73d 62db e0bc c075 103c 1d07 57bc
00000290: 105d 99bd ad24 18be d900 aa3d 610e 663e
000002a0: 2d9e 8d3d 879f 1a3e 914b 73bd 8966 7a3d
000002b0: 0242 b13d 0c66 4dbc 9cf1 c2bd 1f74 463e
000002c0: 73d9 9cbc ccb0 d4bd 4d99 3cbd cdad df3d
000002d0: 277e 813e 98c6 acbc 5dc5 28be 8f2a 893b
000002e0: a72e b3bb b1c5 58be d484 ecbc c20d 07ba
000002f0: 2e13 d93d 212f 3abe 0541 af3c bff3 9a3d
00000300: f0b1 e43d 24ab 913d 7a98 92bd f86c 0bbe
00000310: 7a78 3ab9 0652 f2bd 09fc 6dbc 38d3 b53d
00000320: 5926 40bd 576f 1a3d b29e 2fbe f771 e8bd
00000330: 5336 d4bd 0df1 2e3e 7667 983d e00b cb3d
00000340: 641d 9c3d 1192 7fbc d846 1a3c 6f70 0f3e
00000350: 2c0a f3bd 2d12 9e3d 14dd 53be 15c6 70bc
00000360: 2601 39be f629 e8bd 7427 b83e aa47 f7bc
00000370: 8c85 eebd 8397 fdbd dfb2 08bc 1616 733e
00000380: 95ec 41be e30a d73c 324c 4cbe 98a6 edbc
00000390: 229b 343d b947 f23d b1df 3a3d b1a3 ef3d
000003a0: d5c3 70bd 9721 30be d9ee 073e df9b 2abe
000003b0: 6692 823c 226c a43d fc5c 2dbe 0b99 d23d
000003c0: d679 39be cc0b 6f3d 8990 9cbb 05f3 33be
000003d0: 9dbf 433e 3626 3ebe a383 0dbe 908e 383e
000003e0: 0eb5 b63d b221 87bd a98f c0bd f6c4 48bb
000003f0: ff40 b5bd 9dc6 25be d09a 253e 67e2 cabd
0.24148136 0.017544702 -0.07804796 -0.028253421 -0.120909676 -0.03727843 0.10246804 -0.07938916
0.13221037 0.10016566 -0.09345899 0.20357883 -0.14014523 -0.058002446 -0.13330872 -0.02156233
0.16365738 -0.1702928 -0.12363785 -0.052217726 -0.18469642 -0.11327156 -0.07802933 0.18248656
-0.09583348 0.15376282 0.12805232 -0.06958661 0.0106878495 0.11104263 0.012958572 0.076399036
0.01156015 -0.027516788 0.14060238 0.10216806 -0.14765055 0.00052597263 0.05566704 0.22380398
-0.17006235 -0.090023994 -0.086904794 -0.030251903 0.012026053 -0.047307678 -0.006422585 0.04848454
0.10011918 -0.082818374 0.100207135 0.12592232 -0.22251014 0.088394456 0.22952294 0.020056441
0.021315925 -0.1491017 -0.18644246 -0.055214975 -0.086032346 -0.12114016 0.2820567 -0.090170264
-0.26116216 0.2617622 -0.06834367 0.22053525 -0.02656065 -0.034698274 -0.18185778 0.03193043
-0.039125662 -0.01229458 0.13022968 0.012208227 -0.29641816 0.13264431 -0.13078944 0.12528962
-0.04333028 -0.008692022 0.1883818 -0.017408935 -0.13737099 0.15058987 -0.09924119 -0.15222332
0.20628312 0.05880153 -0.04585461 0.044334292 0.32120994 -0.103492275 -0.008385254 0.035068028
0.022024792 -0.1620342 -0.17015864 -0.017862933 0.08827081 0.20052795 0.030342424 0.03805865
-0.09880765 0.021792365 0.18342705 0.10863867 -0.088076435 0.07084586 0.07689708 0.12874067
-0.15829013 0.06715396 0.21905334 -0.06554315 0.14548545 0.19263849 0.048796188 0.054113578
0.06536546 0.042274896 -0.10054683 0.05092723 -0.10895404 -0.052312087 0.13347246 -0.038590673
0.021632208 -0.17272857 0.049938243 -0.2608252 -0.062827826 0.021441353 -0.15003917 -0.10507716
-0.12217996 -0.089012995 -0.02381666 -0.15163085 -0.1588358 0.040880445 0.07333902 -0.0035665866
0.15363935 0.18246418 -0.09368261 -0.1189737 0.060908098 -0.15971741 -0.19440414 -0.08862098
-0.12323343 -0.074660525 0.06309439 -0.122762226 0.12399465 0.031346943 0.023676516 0.21842691
0.12088126 -0.02744836 0.008817136 -0.0131242545 -0.074884534 -0.1485774 0.08300943 0.22466423
0.06914935 0.15099917 -0.059398238 0.06113294 0.08655168 -0.012536537 -0.095187396 0.19380234
-0.019146657 -0.10385284 -0.046044637 0.10921822 0.2529156 -0.02109079 -0.16481538 0.0041859816
-0.005468208 -0.21169163 -0.028871931 -0.00051518914 0.10599361 -0.18182041 0.021393308 0.07566022
0.111667514 0.071127206 -0.07157989 -0.13615787 -0.00017783223 -0.11832051 -0.014525422 0.088781774
-0.04691157 0.03770384 -0.17150381 -0.11349862 -0.10361924 0.17084141 0.074416086 0.09914374
0.07622793 -0.01559879 0.0094163045 0.14007734 -0.118671745 0.077183105 -0.20689803 -0.014695664
-0.18066844 -0.113361284 0.359676 -0.03018554 -0.11646566 -0.12382414 -0.008343427 0.23738894
-0.18937905 0.026250308 -0.19950941 -0.029010102 0.04409326 0.11830086 0.045623485 0.117011435
-0.05878051 -0.17200314 0.13274707 -0.16661023 0.015938949 0.08028437 -0.16930002 0.10283097
-0.18112883 0.05836086 -0.004777972 -0.17573173 0.19116063 -0.18569264 -0.13819747 0.18023133
0.08921252 -0.06598224 -0.09402401 -0.0030634976 -0.08850288 -0.16189046 0.16172338 -0.09906464

encoder.gru.weight_hh_l0 f4 [96, 32]
00000000: 38a2 2d3e d5f1 223e c29b f63c 03ab c2bd
00000010: 2d09 d13d 9903 253e ffba 3cbe 7370 b8bd
00000020: 03e4 9e3d ee7c f33d 2251 0d3d 2e9a 7a3d
00000030: b132 9ebc 99ec 883c e0a7 7cbc 9444 a7bb
00000040: b47f f93d 2f15 77bd 6572 febd f227 0dbe
00000050: 2156 d23d c022 653d b184 0ebd b800 b8bd
00000060: 28ea 08be 9905 09be a4fb 943c b4ba d13c
00000070: 141c e5bb 7506 393e 9789 10be 1f31 34be
00000080: 3588 fdbd 3793 053c 5da9 ed3d 5c13 07bd
00000090: 36c4 113e 1d0c 30bc a42e 923c 3e0c bcbc
000000a0: e82c 2b3e b1d0 e93c aea6 043d 7430 7bbd
000000b0: 89db 03be 32d4 d6bc fdab 0ebe bd81 7b3d
000000c0: 76f3 53bd f9ff 3e3e 6479 06be 0d46 3abe
000000d0: df13 ca3c 2d47 0dbd fec1 9a3d 0f4c e03c
000000e0: b182 c9ba 891f 3b3d 7ce0 1a3e 5ec8 1dbd
000000f0: 3eac 23bd 441f 453e 39a6 fe3b 8aed b33d
00000100: faf6 48bd 2c3a 2b3e 8b72 86bd c72d 9ebd
00000110: 6472 d43d 9973 2e3e 6b45 793c c53c 223c
00000120: b1f2 483c 685c 2cbe fa01 1bbe 0f52 b4bc
00000130: 39c7 1d3e 374a 003e 11ca 0abd 567f fe3c
00000140: 131d 1d3d 10e6 9d3d a810 f0bd 1338 74bd
00000150: acc6 283c 76c6 6bbe 365c 403e 95f5 e8bc
00000160: 7709 0ebe 76f7 32be 49b8 283e 50f6 10bd
00000170: 4770 d7bd 344a d93d 0096 fdbd 5ac4 d23d
00000180: 8751 2abe 93dc 23be 448a abbd 21fb 673d
00000190: a773 1cbe e4c5 f0bc afc0 793d f7e3 80bc
000001a0: 27fe b73d f67f 92bc 4df8 26be f118 023e
000001b0: e5a5 b03d fc33 ac3d cdd0 173d 610b 01be
000001c0: 0bdb d73d 8f7e 8c3c 8625 96bd cc27 d23d
000001d0: 17c1 9c3d aa18 10be d0f5 c53d d913 18be
000001e0: 8257 173e 6cfc 1cbe 4761 4c3e 48e9 0bbe
000001f0: 0053 873d f811 cd3d 6614 51bc bf94 94bd
00000200: d58f a63d c5a3 e5bd 416f 093e 086f 5e3e
00000210: 0687 813b b0b8 bcbd 4ffe e6bd 8f86 f43d
00000220: a191 6ebe e0dd 58be ce1b 23be 4eef 99bd
00000230: 5759 42be 4752 48be 989e 6fbe 5f12 223e
00000240: 6406 383e b7dc f2bc dd07 213e 5fb9 823c
00000250: 6d17 673e 32c7 843d 8ecf 13be eaf4 e63d
00000260: 2b76 60bd 8d1b 90bd 59cb 37bc a4dc 973d
00000270: 5216 75bc a502 993e 865b 2dbe 0253 3bbe
00000280: 25e2 f43c 5fcf 24bc 3b64 1e3e 3d5c c7bb
00000290: 1406 19bc 0737 b13d 75e0 0c3e c080 0c3d
000002a0: c5c1 39bd 3df0 0cbe 2346 853e 4b05 6f3d
000002b0: 6369 753c e448 c23d 4532 27be 9bb4 063e
000002c0: ceda 5cbe e4ec 48be 18ae e0bd d3ab 2c3d
000002d0: fd28 dd3c 89a1 843e 8906 abbc e35a 6a3c
000002e0: c863 123d 36dd 2bbd e27c 18bc 2a18 32be
000002f0: 7288 e9bd e433 623d 9f00 a2bd a6ce 19bd
00000300: 7cc8 bbbd 5187 80bc 505b 67be 3c54 f8bc
00000310: 98b6 75be 476a 873d 9ad5 5d3d bcbd 0b3e
00000320: 63cb b4bd eaf2 cc3d d075 40be 9321 f63d
00000330: 4d06 d13d 4c75 dd3d dd28 dfbd a856 c0bd
00000340: 2e71 a5b9 0927 f53c a278 83bd a76f 57be
00000350: 6e7d 12bd f25b 06be 6ae1 4d3d 4362 8dbd
00000360: 3680 463d f33e f73d d761 1ebd ea6c 933d
00000370: 74ae a03d efd9 1dbd 71e1 e03d 7f08 79bd
00000380: 4e65 5d3a 628a ac3d 1274 abbe 05f6 b93b
00000390: 6887 59be bb91 f8bc cc45 22be 9226 55bd
000003a0: f57d febc ca54 27bd ff8b 05bd 4daa a4bc
000003b0: f943 dabd c21c 4ebd 0284 08bc e230 f43d
000003c0: 5d27 843e 7a47 803d 30d2 b83d 064b 9ebe
000003d0: 070d 883e 15be 9abd c815 64be 052a 6fbe
000003e0: bece e2bd 3d4d 67be 69da db3d 6d65 913d
000003f0: 4f44 a93d 763f f3b9 e158 6a3e dfb2 17be
0.16956413 0.15912564 0.030103568 -0.09505274 0.10206828 0.16114654 -0.18430708 -0.09005823
0.077583335 0.11889063 0.034501202 0.061182193 -0.01931128 0.016714381 -0.015420884 -0.0051046107
0.121825606 -0.060322937 -0.12424163 -0.13784769 0.10270334 0.055941343 -0.034794513 -0.08984512
-0.13370574 -0.13381042 0.018186398 0.025601722 -0.0069918726 0.1806887 -0.14114986 -0.17596863
-0.12379495 0.008152775 0.11604569 -0.032977447 0.14235005 -0.0107450755 0.017844506 -0.022955056
0.16716349 0.028541895 0.03238552 -0.061325505 -0.12876715 -0.02622423 -0.13932796 0.061403025
-0.051745854 0.18652333 -0.13132244 -0.18190785 0.024667678 -0.034491707 0.07556532 0.027380018
-0.0015374032 0.04568437 0.15124696 -0.038521163 -0.039959185 0.19250208 0.00777128 0.08785541
-0.04906366 0.1672141 -0.06564816 -0.07723575 0.10373381 0.17036285 0.015214304 0.009902184
0.012264893 -0.16832125 -0.15137473 -0.022011785 0.15408029 0.1252831 -0.03388411 0.031066578
0.038357805 0.077098966 -0.11721927 -0.05962379 0.010301273 -0.23024926 0.18785176 -0.028437415
-0.13870798 -0.17477211 0.16476549 -0.035391152 -0.10519462 0.10609856 -0.12382126 0.10291357
-0.16632663 -0.16002111 -0.083759815 0.05663598 -0.15278493 -0.029391237 0.060974773 -0.015733702
0.089840226 -0.017883282 -0.16305657 0.12704827 0.08625392 0.08408353 0.037064362 -0.12601997
0.10539826 0.017150192 -0.07331376 0.10261497 0.076540165 -0.14071909 0.09666026 -0.14851321
0.14779475 -0.15330666 0.19958983 -0.13663208 0.06607628 0.10013193 -0.012761211 -0.072549336
0.081329025 -0.11212877 0.13421346 0.21722043 0.0039528636 -0.09214914 -0.11278974 0.119397275
-0.2329774 -0.21178389 -0.15928575 -0.07516347 -0.18979393 -0.19562636 -0.23400342 0.1582732
0.17971188 -0.02964626 0.15725656 0.015957532 0.2256753 0.06483306 -0.14434645 0.112771824
-0.054800194 -0.07036505 -0.011217915 0.07415131 -0.014958935 0.2988483 -0.16929445 -0.18293384
0.02989299 -0.010059207 0.15467922 -0.0060839937 -0.009339828 0.08653074 0.13757499 0.034302473
-0.04535081 -0.13763519 0.26030073 0.058354657 0.014978739 0.09486559 -0.1632777 0.13154833
-0.21567842 -0.19621617 -0.10970706 0.04215605 0.026997084 0.25904492 -0.02087714 0.014303896
0.03573969 -0.04195901 -0.009307118 -0.1739203 -0.11402978 0.055225268 -0.07910275 -0.03755059
-0.09169099 -0.015689524 -0.22593427 -0.030313604 -0.23995435 0.06612068 0.054158784 0.13646597
-0.088278554 0.1000727 -0.18794942 0.120181225 0.1020628 0.10813388 -0.10896466 -0.09391528
-0.00031555578 0.02992584 -0.06419493 -0.21038686 -0.03576415 -0.13121012 0.0502638 -0.069035076
0.048462115 0.120725535 -0.038667526 0.07198508 0.07845774 -0.038537916 0.109804995 -0.060799118
0.00084455765 0.08424832 -0.33486992 0.0056750798 -0.2124306 -0.030342927 -0.15846938 -0.052038737
-0.03106592 -0.040852346 -0.032604214 -0.020100737 -0.10657496 -0.050320394 -0.008332254 0.11923386
0.25811282 0.06263633 0.09024465 -0.30916613 0.2657244 -0.075557865 -0.22273934 -0.23355873
-0.11074589 -0.22588058 0.10735018 0.070994236 0.08264982 -0.00046395854 0.22885467 -0.14814328

encoder.gru.bias_ih_l0 f4 [96]
00000000: 60d0 c13d 5ee0 8fbd 194b 883d 6fb3 883d
00000010: 8fd9 1f3e f343 13be 0fc1 af3d 3c47 a8bd
00000020: 17c3 13be 567b 273e 9795 203e 728c 353e
00000030: 8991 993d a48f 323d db2e 91bc d53a 693c
00000040: 8a21 203e 770c c9bd 0eed 2d3e aaf8 02be
00000050: 9373 8c3d 420f 093e 8ee7 bebc c998 03be
00000060: 7a15 c03c ad48 c5bd c485 d6bd 60dc b53d
00000070: f28a 2dbe a7ba 513d 454b 1ebd 7a6f 31bd
00000080: 694d 143e 55dd 93bc 54bc 8bbd e7ae 3abe
00000090: 7591 8abd 5860 5ebd 82bb debd e9c7 4ebd
000000a0: 117b 74be fba9 19bd b9b3 29be ebc7 a0bd
000000b0: 279b 3fbe f240 9abc 66f3 41bd 8451 fbbd
000000c0: 306b a9bd 979f bc3d 28ad 2abe c5bc cebd
000000d0: c1fe abbd baaf 50bd 58ba b0bd 256a bdbc
000000e0: ea58 1d3e 5497 17be febd 5d3d 108c acbd
000000f0: 2c93 bcbd 49ac 86bd e628 d23c e9de acbc
00000100: 1a80 cbbd 27b6 00be d4ce ecbd 751e 303d
00000110: ea3c 80bd 5daa 19be 63d4 d9bd 7290 c2bd
00000120: 95b9 02bd 3085 4cbd c2f9 eabd 0e08 ef3d
00000130: 515a 2f3d efb0 4f3d 9431 d5bd 5650 70bc
00000140: 341b d3bb 9656 003e d4a6 153d e8dc 11be
00000150: 9611 cb3d f23b f4bd 3144 8a3d ba78 02bc
00000160: f4b8 4a3d 379a 51be 5c9e 033e 878b 343e
00000170: c59a f83c d9a5 cbbc a949 17be b739 8abd
0.094635725 -0.070252165 0.06654949 0.06674849 0.15610336 -0.1438139 0.08581745 -0.08216712
-0.1442989 0.16355643 0.15682064 0.17729357 0.07498462 0.043594018 -0.017722538 0.014235218
0.15637794 -0.098168306 0.1698496 -0.1279017 0.068579815 0.13384727 -0.023303773 -0.12851252
0.02344774 -0.096330024 -0.104747325 0.08879924 -0.16947535 0.051203396 -0.038646 -0.043319203
0.14482655 -0.018049875 -0.0682303 -0.18230782 -0.06766025 -0.0542911 -0.10875608 -0.050483618
-0.23875071 -0.03751562 -0.16572465 -0.07850631 -0.1871153 -0.018829796 -0.047351263 -0.12271407
-0.082723975 0.09210127 -0.16667616 -0.10094599 -0.083982 -0.050948836 -0.08629292 -0.023121903
0.1536595 -0.14803821 0.05413627 -0.08425152 -0.09207758 -0.065758295 0.025654268 -0.021102386
-0.09936543 -0.12569486 -0.11562887 0.042997796 -0.062616184 -0.15006395 -0.10636213 -0.09500207
-0.031915266 -0.049931705 -0.11473419 0.11671458 0.04281074 0.050705846 -0.10409847 -0.014667591
-0.006442452 0.1253303 0.036536053 -0.14244425 0.099154636 -0.11925496 0.06751288 -0.007963354
0.04949279 -0.20468985 0.12853378 0.1763135 0.030347237 -0.024859356 -0.14774193 -0.067492895

encoder.gru.bias_hh_l0 f4 [96]
00000000: 1214 333e 3e26 f83d 780d 2c3e 2e29 db3c
00000010: b112 c43d d7a7 af3d 8ab1 883c 4d50 9b3d
00000020: 19dc 17be f0be 86bc 0fdc 5ebd 8947 583d
00000030: 6919 373e f415 25bd 9c60 a23c fdfc 073e
00000040: d8dd ec3d 0582 b13d d84d 093e 665c ce3d
00000050: 3113 16be a855 e3bd 41b8 fdbc 2e50 32be
00000060: 1653 733d 4194 673c ded6 b73d 2a96 b93d
00000070: d8af 97bd 2197 29bd 7e6a 64bd 073e 1b3d
00000080: 20a6 2fbd 6cae eabd 991c 8ebe 7b8f 293d
00000090: 2a71 26be d215 bfbd c2d9 483d 1b91 3c3e
000000a0: 49f9 443d cd1b 0f3e 2c1c 93be b6d7 1c3e
000000b0: 76ec 8ebe fd38 38bc 1408 98be fc09 bdbd
000000c0: b015 133d c429 e23d cb28 32be 9690 abbc
000000d0: cfee 96bd 103d cebd 0e71 38be 93af 02be
000000e0: f4e8 87bd f908 9cbc b1aa dabd dc29 e9bc
000000f0: 09f0 de3a 7714 bcbc 4d6f 403d 49cf 4d3d
00000100: 2acb 4bbd dd87 d7bd 6f38 08bd 7528 2fbe
00000110: c8d0 2b3e 5bb7 13bd d836 e23d 933b c23b
00000120: 4bcc 8c3d 7ac8 cbbd 61b1 2b3e 6a53 21bd
00000130: cee8 b6bd 64dd ebbc 69bf 25be 0ab4 963b
00000140: a76b 06be 8bdc b03d 8bf4 a33c 3bdc a33c
00000150: 8e0c 123e 031d 9a3d b1fb 4dbd f79f 1bbe
00000160: a77f 243e e706 103d ec59 d2bc 12ee 303e
00000170: 71d6 39bd adb0 4b3d ea1d fcbd 8f49 45bd
0.17488125 0.12116669 0.16802013 0.026753034 0.095738776 0.08576935 0.01668622 0.075836755
-0.14830054 -0.016448468 -0.054409083 0.052802596 0.17880787 -0.04030414 0.019821458 0.13280101
0.11565751 0.086673774 0.13408601 0.10076217 -0.14655758 -0.11100322 -0.030971648 -0.17413399
0.05940541 0.014134468 0.089765295 0.09061845 -0.074065864 -0.041403893 -0.05576562 0.03790095
-0.04288304 -0.114590496 -0.27756193 0.0413966 -0.16254106 -0.09330334 0.049035795 0.18414728
0.0480893 0.13975449 -0.2873243 0.15316662 -0.2791478 -0.011244056 -0.29693663 -0.0923042
0.035909355 0.110431224 -0.17398374 -0.020942967 -0.07369768 -0.100702405 -0.18011877 -0.12762289
-0.06636229 -0.019047247 -0.10677088 -0.028462343 0.0017008792 -0.022958977 0.046981145 0.05024651
-0.0497543 -0.10523961 -0.033256944 -0.17105277 0.16778862 -0.036063533 0.11045617 0.005927512
0.06874903 -0.09950347 0.16766883 -0.03938619 -0.08931123 -0.02879209 -0.16186298 0.004599099
-0.13127004 0.08635815 0.020014068 0.020002475 0.14262602 0.07525065 -0.05028886 -0.1519774
0.1606432 0.035162833 -0.025677644 0.17278317 -0.045370523 0.049729038 -0.12310393 -0.048165854

decoder.attention_model.attn.weight f4 [32, 64]
00000000: f47f cd3d 6b5e 093e bdd5 053e 9e04 40bd
00000010: b8e5 083e 9799 f93d 9371 a33d edc3 013e
00000020: a7f9 a6bd 1b08 84bd 32d7 6e3c 146e ca3c
00000030: 624f c6bc 9c49 b23d ad67 76bd 0503 073e
00000040: 75d0 15bd 137f 8bbd 8c3b bfbc 2b3a e4bd
00000050: 790d b73c 283e 403d 4018 23bd cc51 c23c
00000060: 63ce 323e 8890 a4bd c3da 9c3c 15da 04bd
00000070: a469 f6bd 80f3 e13c b1e4 e73d 2954 8b3c
00000080: 6428 3cbe 78d0 5a3b 7a45 67bc 2ee5 c93c
00000090: 167f c2bd d657 313e 02ef 5abc 9538 24bc
000000a0: b638 2fbd e96d d4bc bcab 86bd 8d0f e23d
000000b0: 9979 36be 59c5 a4bd cc43 bebc 5baf a0bc
000000c0: 3853 813c 7ab6 8f3c 7819 07be 84d4 0ebe
000000d0: 7b4b f23d 5e9a 03be 1fb6 e53c dff2 1dbe
000000e0: 36e2 c9bd 4361 06be b598 b4bd 7da9 0f3c
000000f0: 7241 0a3e e2e6 d3bd 6772 4f3d d926 503d
00000100: fc56 d23d ba48 e63d 9614 113d fede 3f3d
00000110: 1561 d0ba e9b3 213e 6b02 9abd 36a5 8d3d
00000120: 2947 003d dcc1 243e 247b 6dbd be9d 1f3d
00000130: 199a cb3c 2cd3 ad3d 7c7b 16be f9f4 a1bc
00000140: d2e6 833d 6888 113d c108 493c 014c 09be
00000150: 02f1 4abd 9cc3 1c3b ba42 05be 7ebe eb3d
00000160: 7e2c 7e3e 3840 8ebd 8693 0dbe a929 75bd
00000170: 5c47 61bc bf1c dd3b 2088 4ebd 1c18 023e
00000180: 037d 1abe e230 ce3d 345e 8639 fccb c7bd
00000190: ed4c fbbd d707 913d 43ca d3bd 1335 49bd
000001a0: b709 cbbb 0624 b7bd 15bc 2bbd b395 a6bd
000001b0: d055 4ebd fcfd 263e 0baa 4b3c 5a93 dbbc
000001c0: 09b7 033e 219c 943c fa3a f0bd dba6 053d
000001d0: defd f03d 985a 013c f41b 9e3d 0f51 18be
000001e0: 6f79 12be d571 75bd 6535 a93d 02aa a6bb
000001f0: 4e5c be3d fd5b fabd ce7d 4d3d c8f3 803c
00000200: e0a2 9ebd 146e 59be 8e9c 3f3b 2595 15bd
00000210: aff5 c4bd 856c dabb 95bf 89bd c277 89be
00000220: 495e 9ebd 0947 8d3c f90c dfbd 2d18 33be
00000230: 9c97 ddbd 140f 0abe 78a0 f9bc bc34 20be
00000240: 5898 063e c329 923b 6301 43bd e704 f13d
00000250: 823b 1b3e b13f feb8 9dc7 57bc f27e 4abe
00000260: caa2 8cbd b351 a3bd c8ae 7dbc 9b86 fd3a
00000270: d72f b93d 6234 09ba 47a8 a93c 06db acbd
00000280: 24f7 c73c 4ceb 11bd 0b5e 243e f1ad 983d
00000290: 413d 783c 9737 f1bd f895 da3d 5f44 753d
000002a0: d5d0 92bd 2f2c 6f3d 95f2 6c3d 338f f7bd
000002b0: af13 e53c 097b 183d 70e9 1e3c 8138 103d
000002c0: 1e5b d33b 3e07 e1bd bcac 233e e2f8 de3d
000002d0: 3967 8f3c dd85 0b3e 3421 e03d e4df b83d
000002e0: f2ab 063e df82 5e3d 470c 71bd 2c7f 333c
000002f0: 359c 76bd 0406 033d b951 9abd 629a 08be
00000300: 1315 8fbc fbe9 30b9 5f1d 49be 9b44 81bd
00000310: 942c 26bd a21d 453d be7d a63d 6913 69be
00000320: 0329 8a3d 02eb c03d 8174 bf3d 7e79 ba3a
00000330: 305d 13be 1a92 d8bc 8421 a73d 96ba 453d
00000340: 5e99 8abd 5515 d0bc c6ba 1c3d c109 69bd
00000350: 3d29 a13c eb4f 54bd 9adf 08be 4157 3fbd
00000360: a2b9 1fbe aebe 28bc 4369 16be 0cb5 0b3e
00000370: fa72 fdbd b9bd 8cbd 1744 40bd f12e 243d
00000380: 71c7 15be 7477 a63d 1910 1fbd 0172 183d
00000390: 8aff ff3d 9e67 a5bd 7f68 f9bd 840e abbc
000003a0: 942d 2a3d 90b2 33be 1305 05bd bcb7 c7bd
000003b0: 961c 14be a22a c4bd 28e4 d8bd 4fd4 e4bc
000003c0: 2089 163e 5e09 813b bfee 663d c294 b73d
000003d0: 5912 d63d aab2 523d 4801 5bbc 2c28 913d
000003e0: 82d0 903d 9461 563b eb1e 5e3d b9e7 363d
000003f0: 77ea 153e 42bc 8cbd e771 9bbd dee6 4cbd
0.10034171 0.13414924 0.13069816 -0.046879403 0.13368881 0.12187498 0.07980647 0.12672396
-0.08153086 -0.064468585 0.014577674 0.024710692 -0.024207775 0.08705446 -0.060157467 0.13184746
-0.036575753 -0.06811347 -0.023343824 -0.11143907 0.022345291 0.046934277 -0.03981805 0.023720644
0.17461543 -0.0803538 0.019147282 -0.03243454 -0.12031868 0.02758193 0.11322916 0.017007904
-0.18374783 0.0033388417 -0.014115686 0.024645414 -0.09496896 0.17318663 -0.013362648 -0.010023256
-0.042778693 -0.025931315 -0.065757245 0.11038122 -0.17819823 -0.080454536 -0.023225687 -0.019614866
0.015786752 0.017543066 -0.1319331 -0.13948256 0.11830803 -0.12851855 0.028040944 -0.15424679
-0.098575994 -0.1312304 -0.08818189 0.0087684365 0.13501528 -0.10346772 0.050646212 0.050818298
0.10270497 0.1124434 0.035420023 0.04684352 -0.0015898073 0.15791287 -0.075199924 0.06916277
0.031317864 0.16089576 -0.057978764 0.038968794 0.024853753 0.084875435 -0.14695543 -0.019770132
0.0644051 0.035530478 0.0122701535 -0.134079 -0.04954625 0.0023920303 -0.13013735 0.11510943
0.2482166 -0.069458425 -0.13825807 -0.059854183 -0.013749924 0.0067478116 -0.050422788 0.1270451
-0.1508675 0.100679174 0.00025628658 -0.09755704 -0.12270532 0.070815735 -0.10341313 -0.04912288
-0.0061962265 -0.08942418 -0.041927416 -0.081340216 -0.050374806 0.16307825 0.012430678 -0.026803661
0.12862791 0.018140854 -0.11729999 0.03262983 0.11767171 0.007895134 0.077201754 -0.14874671
-0.14304136 -0.05992301 0.08262137 -0.0050861845 0.092949495 -0.122245766 0.050168805 0.015741244
-0.0774591 -0.21233398 0.00292376 -0.03651919 -0.09617173 -0.0066657686 -0.067259945 -0.2684918
-0.07732827 0.017245786 -0.10891146 -0.17489691 -0.10819933 -0.13482314 -0.030472025 -0.15645117
0.13144052 0.004460545 -0.047608744 0.11768513 0.15159419 -0.00012123527 -0.01317015 -0.19774988
-0.06866987 -0.07974567 -0.015483566 0.0019342484 0.09042328 -0.0005233941 0.020710124 -0.08440213
0.024409838 -0.035624787 0.160515 0.07455052 0.015151323 -0.11778181 0.106731355 0.059879657
-0.07168738 0.058391746 0.05784853 -0.1208786 0.027963487 0.03722671 0.0096992105 0.035210136
0.006450071 -0.109877095 0.15983862 0.108873144 0.017505275 0.13625284 0.10943833 0.09027079
0.1315153 0.054324027 -0.0588496 0.010955613 -0.060207564 0.03198816 -0.075351186 -0.13340142
-0.017466104 -0.00016871832 -0.1964011 -0.063119136 -0.040569857 0.048123963 0.08129452 -0.2276131
0.067461036 0.09419824 0.09348393 0.0014226881 -0.14391017 -0.026436854 0.081606895 0.048273645
-0.06767534 -0.025400797 0.03826406 -0.056894068 0.019672984 -0.05183403 -0.13366547 -0.04671407
-0.15598157 -0.010299368 -0.14688592 0.13643283 -0.12375446 -0.06872124 -0.046939936 0.04008383
-0.14626862 0.081282526 -0.03883371 0.037218098 0.12499912 -0.08076404 -0.12178134 -0.020880945
0.041547373 -0.17548585 -0.032475542 -0.097518414 -0.1446403 -0.09578444 -0.10590392 -0.027933268
0.14700747 0.0039378842 0.05638003 0.0896392 0.10452718 0.05143992 -0.013367005 0.0708774
0.0707102 0.003271197 0.054228704 0.04465458 0.14640222 -0.06871845 -0.075900845 -0.05002486

decoder.attention_model.attn.bias f4 [32]
00000000: 665b 963d ac75 38bd 22e6 4dbd f9c2 bd3d
00000010: ae18 c7bd 49f9 10be bf04 4fbd 1b72 e2bc
00000020: 7452 c1bd 801a 4a3c d126 143d b24e 82bd
00000030: babd 4bbd a82d d73d a1cf cebc 6797 c93d
00000040: 05a6 233d 4cec 6b3d d705 b0bc 2a4a 88bc
00000050: 3fb5 db3a 223a 083e 5a17 81bd 162b 2a3d
00000060: b680 68bc 4fe8 763c a383 073e b513 09be
00000070: 62e1 653b 3392 393c d64e acbc e69a 1abb
0.073416516 -0.045034096 -0.0502683 0.09265704 -0.09721504 -0.14157595 -0.050541636 -0.0276423
-0.09439555 0.01233542 0.03616983 -0.06362666 -0.049741484 0.10506755 -0.02524549 0.09843331
0.03995325 0.057598397 -0.02148716 -0.016636927 0.001676239 0.13303426 -0.06303282 0.041544996
-0.014190843 0.015070035 0.13233809 -0.13386424 0.0035076966 0.0113263605 -0.021033686 -0.0023590862

decoder.attention_model.v.weight f4 [1, 32]
00000000: a482 0a3e c978 9d3d fd9d 5fbe 132a 903d
00000010: 05da 383e 9602 6abe f7b1 e33d 8ece 1a3e
00000020: 2e59 0bbe f465 373e fefe 753d 05cc ce3d
00000030: 3f0a fb3d 0421 1abe 46b1 a03d f17f e63d
00000040: 9c17 173e 0f3e 2f3e a12f 17be eb69 6a3d
00000050: 934f 4f3e 9f27 473e 8915 d7bd 8f1c aabd
00000060: c9aa 6e3d c37c 4e3e 0dfe ff3d 586a 40be
00000070: 0bae a5bd e9d1 68be bdbe 10be 190c 12be
0.13526398 0.076890536 -0.21837611 0.07039275 0.18051918 -0.22852549 0.111179285 0.15117857
-0.13608238 0.17909986 0.060057633 0.100975074 0.12257814 -0.15051657 0.07846312 0.11254872
0.147551 0.17113517 -0.14764263 0.057229917 0.20245199 0.19448708 -0.105021544 -0.08306228
0.058268342 0.2016478 0.12499628 -0.18790567 -0.08089837 -0.22736324 -0.14135261 -0.14262427

decoder.gru.weight_ih_l0 f4 [96, 45]
00000000: c0db 253d 2314 93bd 7fcc 103d 59af 8e3d
00000010: 2d4f ad3d 8c65 5bbb c211 3a3e 7898 a4bd
00000020: 845b 463d b734 223e be4c 543d 973c 1abe
00000030: 912f 8a3d 6ecd dfbc 59eb 9dbd 473f 9e3d
00000040: c6e0 39be 8150 1b3e 457d c5bd 6bba f83d
00000050: c576 133e e858 94bd de8d 11be 47bc 3bbe
00000060: 12dc 643d a74f a63d 1669 153e e428 b9bd
00000070: 39cc 92bd 6b3d 52bd d990 24be 3d19 863d
00000080: d503 a73d b7b0 243e 6477 7cbd 841d 25be
00000090: 4118 ffbb e8de 3ab8 4fad 013e 51d3 b2bd
000000a0: 8250 c2bb d0a5 3a3e 42f6 b9bd 229a 23be
000000b0: 4d3d 3b3e 6883 73be aa59 543d 8e86 b93d
000000c0: 1df0 993d 129d fdbb 9601 38be 5a4c 783d
000000d0: a762 6e3d 803d 8fbc 2b7c 10be 8dcf 043e
000000e0: d25e ab3d 85ab 0fbe c3f3 f7bd 79b6 c43d
000000f0: cc2c f03d 4271 02bd 243b 30bd 0921 3d3d
00000100: be81 9d3d e38e a4bd 9335 40bd ea8c c33d
00000110: 2615 0ebe 3e6c ccbd bd98 4cbe eec5 1abe
00000120: da84 513d 978f cfbc 8b69 083e 287a 243b
00000130: 6778 e3bb 5e9d d8bd e83a db3d 43eb 7ebd
00000140: 37f0 06be f286 243e f17e 7a3d 81e3 8e3d
00000150: 291a 113e 6925 8f3b beb3 5fbe 5f66 b6ba
00000160: 029c 1b3e 9eda 9939 1703 a23e faa0 0fbe
00000170: f030 5abd c23f 28be 3ed3 b9bd 9c5b 55be
00000180: 2b67 b2bc ae4a a4bd 20cc 27be 33b6 7d3d
00000190: 2b65 77be 002c a7bd 937a 58be 1e4e 2f3d
000001a0: 3705 ab3c 9f9b 15bd fcb5 463e 2f6f ca3d
000001b0: 9c99 30be 2b5a 9cbd f285 3bbd 533c 46be
000001c0: e4a1 053e c223 293d 5e4d 823c e113 fcbd
000001d0: 6a49 12be 71ef 36bd b388 203e 027e f73d
000001e0: 5796 543d 143c 153e e65e 853d 493e dc3c
000001f0: f007 303a c264 ab3d 2276 4a3d 7686 45bd
00000200: b3dc 353e c4c4 b0bd 22b9 4a3c 464f 9fbc
00000210: 25e3 363e 29df 973d e453 053e bba1 28be
00000220: ccb5 a8bd a385 ef3c b7c0 d53d d0f5 f13d
00000230: c66e 02be b94e f2bc b0a8 1ebd 9453 183e
00000240: 6ebd 8e3d 0d81 f2bd e8a9 2e3e bbaa 1f3e
00000250: 7ca8 e73d 6d8d 01be fd44 abba 16ef 023e
00000260: 792f 193d 86a2 063c 5722 07bc fe46 a63c
00000270: d8e3 163d 3485 b2bd cdc5 7bbd a8d7 3dbd
00000280: 0a66 1d3e 8fff 1bbe 85b5 e83d 1fde 143e
00000290: 7a93 b73d d3c7 42be 18c3 89bd dc59 3d3e
000002a0: df2a 6b3d cb26 ccbd 7145 9bbc c382 0f3e
000002b0: e849 8cba a95e d9bd d532 dd3d 85f7 2d3c
000002c0: 7611 2cbe e9e8 cfbc 0fb6 ca3d 2c2e 0b3d
000002d0: 0628 8e3e 8dfa c53d b9e1 5c3c 7319 2e3e
000002e0: cbff d53c 6a92 b63d 8b90 b4bd 36d1 113d
000002f0: a206 0b3e a2c9 833d b5e2 01be 7e55 293e
00000300: ebee a4bd 3dee 693c 54d9 193d da5e b23b
00000310: 7cc9 0bbb 0c03 c2bd 1876 043e 171c f4bd
00000320: 3af9 003e 2f18 373e 543e 363d 8af6 b5bd
00000330: 46f0 c73d a65a 1d3e c653 803d 659a da3d
00000340: d2a5 183e 9c81 0d3d d74c ee3d ece7 1e3e
00000350: 4fda 30bd 967f 9cbd 1b5f 0d3d 2e80 993d
00000360: 145d 23be bec7 c13d e8b6 0e3e 9a2f 153e
00000370: c19d 0f3e 6ed3 023e 4b69 363e 41ff 023e
00000380: 9f25 e13d 21cd f3bc 247c d43d 8a62 55bd
00000390: 87e9 2a3e 3f24 23be 49a3 af3d fa63 62be
000003a0: fd48 d6bd ab8a b63d 9e39 10be 9715 233e
000003b0: 112a 273e fb4d 27be 4956 08be ea2c ee3c
000003c0: eda4 413d a84d 173e 0059 633d 6eee fbbd
000003d0: 0d82 67bd 4125 da3c 551b 29be 809a 9bbd
000003e0: 7197 ad3d 0d64 6cbe 9304 bc3d 5254 19be
000003f0: 1b71 c03c a1a1 113e c1ef 363d 3ea5 853e
0.040492773 -0.07181575 0.035351273 0.06967039 0.08462367 -0.0033477275 0.18170837 -0.080368936
0.04842712 0.15840422 0.051831 -0.15062176 0.06747354 -0.027319636 -0.07710905 0.07726913
-0.1815215 0.15167429 -0.09643034 0.121449314 0.14400776 -0.0724352 -0.14214274 -0.18333541
0.055873938 0.08120661 0.14590868 -0.090410024 -0.07167859 -0.051328104 -0.1607088 0.065477826
0.08155028 0.16083036 -0.061637297 -0.1612454 -0.0077848737 -4.4553453e-05 0.12663768 -0.08731712
-0.0059300074 0.18227315 -0.09080173 -0.15976766 0.18285103 -0.23780596 0.051843323 0.090588674
0.07516501 -0.0077396715 -0.17969355 0.06061969 0.05819955 -0.01748538 -0.14109866 0.129698
0.08367695 -0.14030273 -0.12107041 0.096051164 0.11727294 -0.031846292 -0.04302515 0.046174083
0.07690762 -0.08035066 -0.046926092 0.095483616 -0.13875255 -0.09981583 -0.1998014 -0.15114567
0.051152088 -0.025337024 0.13321511 0.0025097225 -0.0069418433 -0.105768904 0.10704595 -0.06223608
-0.13177572 0.16067103 0.061156217 0.06976987 0.14170136 0.0043684733 -0.2184591 -0.0013916007
0.15196231 0.00029345317 0.31642982 -0.14026251 -0.053269327 -0.16430572 -0.090734944 -0.20835727
-0.02177771 -0.080220565 -0.16386461 0.061941337 -0.24159686 -0.08162689 -0.21140508 0.042799108
0.02087651 -0.036525365 0.19405359 0.09884488 -0.17246097 -0.07634386 -0.045782037 -0.1935895
0.13050038 0.041293867 0.015906032 -0.12308479 -0.14285818 -0.044661943 0.15677147 0.12084581
0.051901188 0.14573699 0.06512241 0.026885169 0.000671505 0.083688274 0.049429066 -0.048223935
0.17759971 -0.0863128 0.012373241 -0.01944698 0.17860086 0.07415611 0.13020283 -0.16467945
-0.082378 0.029238528 0.10437148 0.11814463 -0.12737569 -0.029578554 -0.03873509 0.14875633
0.069697246 -0.11841021 0.17057002 0.15592472 0.11311433 -0.12651606 -0.0013066825 0.12786517
0.03739879 0.00821746 -0.008247933 0.020297524 0.036838382 -0.08716813 -0.061467934 -0.046348244
0.15370956 -0.15234207 0.11362747 0.14537857 0.08963676 -0.1902154 -0.06726664 0.1849131
0.057413932 -0.09968337 -0.01895401 0.14014725 -0.0010703178 -0.10613758 0.10800711 0.010618095
-0.16803536 -0.025379615 0.09898006 0.03397958 0.2776491 0.096669294 0.013481551 0.17001896
0.026122948 0.08914645 -0.08816632 0.03559991 0.13576749 0.06434943 -0.12684138 0.16536519
-0.080533825 0.014277992 0.037560776 0.005443436 -0.002132981 -0.094732374 0.12935674 -0.1191942
0.12595072 0.17880319 0.044493034 -0.08884914 0.097626254 0.15366611 0.062659785 0.1067398
0.14907005 0.034547433 0.1163575 0.15518159 -0.043176945 -0.076415226 0.034514528 0.074951515
-0.15953475 0.09461926 0.1393696 0.1456894 0.14025022 0.12775967 0.17813604 0.12792684
0.10993504 -0.029760899 0.103752404 -0.052095927 0.16690646 -0.15931796 0.08576066 -0.2210845
-0.1046314 0.089131676 -0.14084479 0.15926205 0.16324641 -0.16338341 -0.13314165 0.029074151
0.047276426 0.14775717 0.0555048 -0.12301336 -0.05652051 0.026629092 -0.16514333 -0.07597828
0.08476151 -0.23085041 0.0918056 -0.14973572 0.023491433 0.14221813 0.04466224 0.26102632

decoder.gru.weight_hh_l0 f4 [96, 32]
00000000: e153 083c bc15 8abc b849 8c3d 58d8 143e
00000010: b574 463d c443 dc3d fb73 a13d 2059 de3c
00000020: 6d02 dc3d 66b5 733d 9b17 d8bd dafc 523d
00000030: 0215 d13d 7ba3 b9bd 6af5 073e 5488 b5bd
00000040: 14b2 983d be31 00be a5b2 0f3e 629b d0bc
00000050: 468d 43be 6b9f 823d 9fa6 373e 565e b73d
00000060: 645e a83d 0cff 1d3d a6f1 92bd d9c3 b13d
00000070: 1475 9c3c 1cc0 163e 6498 9a3d 3933 ac3d
00000080: 6fee 003e 6e4c 703d cae1 983d 3489 dabd
00000090: cb7a 433e 169a 083d 7b0a c0bd 7b3a 823e
000000a0: 6206 163e ad3f 1e3e b76d 4f3d 9aac e83c
000000b0: b1a0 aa3d 2f89 db3d 6dbe e63d 5da2 813e
000000c0: 624e a4bb d9f8 a73d 80e9 923d 4b31 543d
000000d0: bd68 9fbd b3b9 c6bd d48d 9f3d a0bd ecbb
000000e0: 309f 14be 3039 d4bd c63b 873d 9e44 3a3e
000000f0: c86e 43be de4f 4dbd 0c17 823d 501c 2a3e
00000100: 44f1 1abe 3626 0dbd e48c 6f3c ca92 0e3d
00000110: d608 993d a68f 953d e9f0 70bd 73ba 76be
00000120: 679b 9f3d 83c5 fdbd 725a 383e 615f 44bc
00000130: 85b7 8fbe e248 f63d 6281 b23c 53bb e33d
00000140: c111 293d 28b0 c93c fc5e bfbc fca7 cb3d
00000150: ab60 56bd 67b6 5c3d d4d4 98bc 07b7 3d3e
00000160: 66fe 5ebd 650d 213e 0c44 43be 9805 58bd
00000170: 4ba6 23be 35ba cd3d 73f6 2ebb 7938 b0bc
00000180: 43da 923c bc6f aabb dbf2 fa3d 3de4 0a3e
00000190: d3e8 d2bb 4d76 54bd 6131 cb3c ccd3 923d
000001a0: b858 093e fd94 b93d a8f3 3ebe 32f7 053e
000001b0: 1274 77bd 8e3a d2bd 062e b2bc c403 1bbe
000001c0: a9f1 cfbd c5ac 8ebd cad6 e4bd 60b9 c33d
000001d0: fe72 57bd b27c 423e 671e 483e 5ce7 253e
000001e0: 3d59 253e 1a18 a5bd 261e c0bd 330e b83d
000001f0: bca3 723d 376a b03d 78eb d4bd 5323 e63c
00000200: 7b41 44bd 9e71 15be dc73 043e 5e62 bfbd
00000210: 3ede f9bb 22ff 953c dc95 853c dd49 09be
00000220: 6045 a93d f09a f1bd f260 44bd 8280 cebd
00000230: 6bef 093c 456b 603d 5231 ccbd 5b9f ac3b
00000240: ecdf 013e bfcb 74bd b7dd 443d 3821 9e3d
00000250: 732d 08be a79c 37be 13a1 393e 7733 ac3d
00000260: 0ee1 ff3d e896 2abe c537 233e ae3d 04bd
00000270: e789 153e 114e 22bb 43c3 d8bd f999 173e
00000280: ece3 b6bb 5449 febc 9ba0 fa3d f3f5 ad3c
00000290: c599 cd3d d7db a0bd fee9 db3d 18b2 8f3d
000002a0: d07c a2bc e87c f3bd 7703 403e 4bbe b73d
000002b0: 15b8 383e fc84 81bd 979a 50be 3e14 4d3e
000002c0: c081 9b3d dee9 fa3d 20ca 16be abd2 15bd
000002d0: 36b9 fcbd bdf9 7bbd a4d0 18bd 07a1 93bd
000002e0: ad00 523d 3e5b 703d fabf a83e 35a6 afbd
000002f0: c9b6 8f3d 296f babd 454e 393d 811a a4bc
00000300: 076c 2dbe 57c6 f5bb 3c98 f43d 6f58 8ebd
00000310: d316 2fbe 71ca d63d 19db 9fbd 5e40 acbc
00000320: a0cb 24bd d432 0cbe 618e cfbd 47e1 42be
00000330: 9c1b 103e 0ab2 89bd 3be7 2f3d e334 883d
00000340: 45c8 b0bd 9a8d 113e 600e 373c f3bf 763d
00000350: ba91 243e b59e 6ebe d3de b4bb a62b 363d
00000360: 7c76 6dbe 2be9 0ebe d831 be3c b5b9 513e
00000370: 5a74 46bd 262d fd3d a884 b13d b036 cabd
00000380: d98c ed3d d4b9 8cbd 10e5 43be d073 00be
00000390: c9d1 653e de3c 553e 0cc3 d7bd 01a6 23be
000003a0: 9b62 543e 272c 9e3d 5c1a 1cbc 6a6b 01be
000003b0: cebd 58be ece1 6e3e c7c1 eabc d265 173e
000003c0: 6471 d93d 8ab6 6e3e cd14 a1bd 90c3 4dbe
000003d0: 3ab7 7fbd fa90 113e 4ac5 cc3d f46c 443e
000003e0: 0557 953d 9300 2d3d 057f c83d 3345 edbd
000003f0: dd34 ffbd 2736 b73d 1d55 0e3e 40ca 523e
0.00832078 -0.016856067 0.06849998 0.14535654 0.048451144 0.10755113 0.0788345 0.027142107
0.1074265 0.059499167 -0.105513774 0.05151067 0.10209085 -0.090643845 0.13277212 -0.08863893
0.07455841 -0.12518975 0.14032991 -0.025464717 -0.1909686 0.06378063 0.17934655 0.0895354
0.082211286 0.03857331 -0.07174997 0.08679933 0.019098796 0.14721721 0.075485975 0.084082074
0.12590955 0.05866664 0.07464941 -0.10670701 0.1908981 0.033350073 -0.09376999 0.25435242
0.14650872 0.15453978 0.05064174 0.028402615 0.08331431 0.10719525 0.112667896 0.25319186
-0.005014227 0.08201761 0.07173443 0.051804822 -0.07783649 -0.09703388 0.077907234 -0.0072247535
-0.1451385 -0.1036247 0.06603198 0.18190238 -0.19085228 -0.050124995 0.06352052 0.16612363
-0.15131098 -0.03446027 0.014620993 0.034807958 0.074723884 0.073027894 -0.0588235 -0.24094562
0.077933125 -0.12391188 0.18003252 -0.011985631 -0.28069702 0.1202562 0.02179021 0.11119714
0.041276697 0.02462013 -0.023360722 0.0994415 -0.052338284 0.05388489 -0.018656172 0.1852685
-0.054441832 0.15727766 -0.19068927 -0.05273971 -0.15981404 0.10045282 -0.0026697188 -0.021511303
0.01792634 -0.005201308 0.12253352 0.13563628 -0.006436446 -0.051870633 0.02480382 0.07169303
0.1341275 0.090616204 -0.18647635 0.13082579 -0.060413428 -0.10265075 -0.021750461 -0.15138155
-0.10153515 -0.06966547 -0.1117378 0.09556842 -0.0525999 0.1899288 0.19542848 0.16201538
0.16147323 -0.08061238 -0.0938075 0.08987083 0.05923818 0.08614009 -0.103964746 0.028093016
-0.04791401 -0.14594123 0.12934822 -0.09344934 -0.0076253703 0.018310133 0.01630681 -0.13407083
0.08265185 -0.1179713 -0.047944017 -0.10083105 0.008418898 0.0547898 -0.099703446 0.00526802
0.12683076 -0.05976462 0.048063006 0.0772118 -0.13298588 -0.17930852 0.18127851 0.08408254
0.12494098 -0.16659129 0.15939243 -0.032285385 0.14603387 -0.002476577 -0.10584118 0.1480483
-0.0055813696 -0.031040825 0.12237664 0.021235442 0.10039095 -0.07854431 0.1073799 0.070163906
-0.019834906 -0.11889058 0.18751322 0.089718424 0.18038972 -0.06324193 -0.20371471 0.20027253
0.07593107 0.12251638 -0.14725542 -0.03657786 -0.12340014 -0.061517466 -0.03730835 -0.07208448
0.051270176 0.058680765 0.32958966 -0.08576623 0.070172854 -0.09103233 0.04524066 -0.02003217
-0.1693574 -0.0075004506 0.11943099 -0.06950461 -0.1709855 0.104878314 -0.078054614 -0.021026786
-0.040233254 -0.13691264 -0.101345785 -0.19031249 0.14073032 -0.067234114 0.042945128 0.06650712
-0.086319484 0.14214173 0.011172861 0.06024165 0.16071215 -0.2330273 -0.005519727 0.04447522
-0.2318973 -0.13956134 0.023217127 0.20480998 -0.048450805 0.12362127 0.0866788 -0.09873712
0.1159913 -0.068713814 -0.19130349 -0.12544179 0.22443308 0.20824 -0.10535249 -0.15981294
0.2074074 0.07723265 -0.009527769 -0.12638631 -0.21166155 0.2332837 -0.028656853 0.14784935
0.10617331 0.2331182 -0.078652956 -0.20094132 -0.062430598 0.1421546 0.099985674 0.19182187
0.07291988 0.042236876 0.09789852 -0.11585464 -0.12461255 0.089458756 0.13899656 0.20584965

decoder.gru.bias_ih_l0 f4 [96]
00000000: 1584 b73d f159 10be d569 0dbe 1a6b cfbc
00000010: c2ea 0fbe a1e9 7c3e 7082 d1bd 9d86 213e
00000020: 5498 9fbd 8ca3 443e 072b 2dbe 5353 cc3d
00000030: 88b4 11bd 16d2 273d 31b6 cb3c 336b 373e
00000040: 67e0 5cbe eb50 a7bd 4e87 083e ac18 e33d
00000050: afb1 343d b94a c63d 5da6 20be 3ea6 35bd
00000060: 1f4f c23d aaf5 b5bd 37e4 a03d 7d3f ddbd
00000070: 916f 7a3d a391 273e 1253 c63d e0b1 b53c
00000080: c0b0 8fbd 7760 b7bd 7ee8 5b3d c3b4 c7bd
00000090: 9bc2 56be c6fc 98be e5c1 b0bd 14ac c13d
000000a0: 9042 abbe ca41 c63d e6ed 8c3c 0010 adbd
000000b0: 6c3f 9838 5eff 57be 3a8f f03d c05a 193c
000000c0: 0c79 063e fc81 91bd 7263 92be fae6 5cbe
000000d0: b55f a2be 296a cebd b6b3 d3bc ceed e1bc
000000e0: 182e cebd 818f 7fbe 8388 64be c674 423d
000000f0: c668 a6be 3713 9bbe 9eb8 7c3d 2c83 e1bd
00000100: dd1a 723c f78c 873d e7c5 993d e6f1 f3bd
00000110: 6ad9 ae3d ad75 57be 69a9 aabc ae10 1a3e
00000120: b1ac 353c 0ebc 8ebb ea91 923d cf5b c9bd
00000130: 2eb0 15bd 453d aabd 82f0 60b9 c401 183e
00000140: 9c45 3c3d cd50 b13d 82b2 b63b ac79 2cbe
00000150: 475c 0e3e 1b87 34be a824 c43d 6750 cebc
00000160: 54b4 08be 4f37 4dbe 2c67 1e3e 322b f13d
00000170: 17d4 c03d 7dd2 d6bd 1163 e43d 328e 0a3b
0.089607395 -0.1409681 -0.13809903 -0.025319625 -0.14054397 0.24698497 -0.10229957 0.15774007
-0.07792726 0.19203013 -0.16910945 0.0997683 -0.03557256 0.040971838 0.02486715 0.17911987
-0.21569978 -0.08169731 0.13332865 0.1108869 0.044114765 0.09682221 -0.15688463 -0.044347994
0.094877474 -0.08884747 0.078560285 -0.10803125 0.061141554 0.1636415 0.09683813 0.022179544
-0.07016134 -0.08953946 0.05368852 -0.097512744 -0.20972674 -0.2988035 -0.086307324 0.094566494
-0.3344922 0.09680517 0.017203283 -0.084503174 7.259738e-05 -0.21093509 0.11746068 0.009360015
0.13132113 -0.07104871 -0.28591496 -0.21572486 -0.31713644 -0.10078842 -0.025842529 -0.027579214
-0.100673854 -0.24957086 -0.223177 0.047474645 -0.3250181 -0.30288097 0.061699502 -0.11011347
0.0147769125 0.06618684 0.0750845 -0.11911373 0.08537562 -0.21040983 -0.020832734 0.15045425
0.011088536 -0.004355914 0.07156737 -0.09831964 -0.03654497 -0.083124675 -0.00021451901 0.14844424
0.045964822 0.0865799 0.005575479 -0.16843289 0.13902389 -0.17629664 0.09577304 -0.025184823
-0.1335004 -0.2004063 0.15469044 0.11775817 0.09415453 -0.10489366 0.11151708 0.0021141884

decoder.gru.bias_hh_l0 f4 [96]
00000000: 79af ae3d 9841 d2bd 1608 c4bd a6bd febd
00000010: 4390 013e c85a b9bc 96f5 38bd da76 b93c
00000020: ad31 373e 7af0 033e 42f7 85bd d2b2 c2bc
00000030: 8095 073e 6fc5 d23d 6f92 3a3e 84af 94bd
00000040: 726d a03c 511c 953d adba 373c 33c0 0f3c
00000050: 620f d43d 7171 b93d 18a5 b8bd 14d8 363e
00000060: 24b2 1d3e 0c4e 29bd d7cf 8c3d fced 5ebc
00000070: 28cf 8abb 27a3 483e b7d9 233e 1bb7 553e
00000080: 0a06 84bd 70fe 24bb bf67 fabc b3e4 80be
00000090: e3b5 1abe 88dc d1bd 2ba8 15bd 3800 2c3e
000000a0: 1523 8dbe 14f1 f4bd ac81 97bd 7c83 d6b8
000000b0: 27cd af3c fa4c 7abe dac8 d93d 937e cd3c
000000c0: ca90 3abd 0345 2bbe 58d7 a2be cf14 043c
000000d0: 00f8 81be b686 75be 7093 38be 7e51 9abd
000000e0: 0608 b2bd b3bb 0dbe 7f3f 44be 7f7c a13d
000000f0: 4af3 d9be e371 8bbe 5174 c1bd 91ab b5bb
00000100: 1308 b6bd 7e5e c93d 14d6 5c3b fa67 153e
00000110: fa75 4e3e 7a09 02be d35f 54be 6fda cbbd
00000120: 8ef1 4abd 31d7 b93d 5a92 113e 6bcb c03d
00000130: 9447 2a3e 490f dc3d 2c10 2a3e 2b7c 05be
00000140: e389 d6bd 8a1a 413e 4770 9ebc 9338 19bd
00000150: 8198 10be dae9 19be 0926 31bd 91fd 08bd
00000160: 18e5 1cbd 10af 483c 0350 5dbd bb82 00be
00000170: ed32 9ebd fdc5 1b3e 9d34 2ebd cf11 6bbb
0.085295625 -0.10266417 -0.09571855 -0.12438516 0.12652688 -0.022626296 -0.045156084 0.02263968
0.17890044 0.12884703 -0.06541301 -0.023766909 0.13240623 0.10291564 0.18219922 -0.072600394
0.019583438 0.072807916 0.011213941 0.008773851 0.103544965 0.0905484 -0.09015864 0.17855865
0.15399987 -0.041334197 0.0687558 -0.013606545 -0.0042361207 0.19593488 0.1600102 0.2087063
-0.06446464 -0.002517607 -0.030567048 -0.25174484 -0.15108447 -0.10247141 -0.03653733 0.16796958
-0.27565828 -0.119600445 -0.0739778 -0.00010228806 0.021460129 -0.24443427 0.106340125 0.02508477
-0.045548238 -0.16725545 -0.3180492 0.008061602 -0.2538452 -0.2397717 -0.18024993 -0.07535075
-0.086929366 -0.13841133 -0.19164847 0.07885074 -0.42568427 -0.27235326 -0.09446014 -0.005544134
-0.08888259 0.09832476 0.0033696936 0.14590445 0.20162192 -0.12698928 -0.20739679 -0.09953772
-0.04954677 0.09074248 0.14215985 0.09413799 0.16628867 0.10745103 0.16607732 -0.13035648
-0.104755186 0.1885778 -0.019340647 -0.03740747 -0.14120676 -0.15030614 -0.043249164 -0.033444945
-0.03830442 0.012248769 -0.054031383 -0.1254987 -0.07724557 0.15212245 -0.042530645 -0.003586877

decoder.out.weight f4 [13, 32]
00000000: bda1 5fbd 72e8 283e 28b3 d9bd 8fa5 1ebe
00000010: cb49 523d 76c8 bcbd 9516 84bd 225c 1fbe
00000020: cf8b 25be c8fa 5dbd 44a8 3a3e c523 833c
00000030: 23e9 923d 6fa9 cabd abca 3abd 8831 54be
00000040: 2ffb 833c 3666 28be 74a2 f43d 5e80 c63d
00000050: 354e 8fbe c733 45be b9ea 2abe 226d acbb
00000060: 5e40 d13c 27ea 56bc 5d5d 443e 2fe3 f6bd
00000070: fda5 47bd 3ad6 8fbc 2ced b43c 8695 0a3e
00000080: 106c 063e faa3 503d 1fb7 0abd a191 4d3e
00000090: efa6 7e3d 8a87 7abc a874 19be d531 d03d
000000a0: 5ab6 cdbd 831b 38be 3624 c5bd f10c 0d3e
000000b0: abf9 9dbd b563 b33d b6f4 923d 44fa 913d
000000c0: 2697 863e 3139 91bc 54f6 91bd 81a6 39bd
000000d0: b1f0 65bd 2fdb 08bd d794 fe3d 262c 3fbe
000000e0: 10fe 323d f04a 2dbe 96aa 6c3c a885 86bd
000000f0: f7b9 ccbd fc94 df3b 2c9d 88bd 3753 4e3d
00000100: e152 c73d 5a15 4b3d d99e 9f3d d6ce 86bb
00000110: b81e 23bd 06e9 363e 0389 fe3d 8874 92bd
00000120: 0552 3e3e 8f2a eabd eed6 213e 58c4 2bbe
00000130: de9c 80be 0435 f53d ae14 17be a932 c93b
00000140: bcef 73bd 2ad2 0abd 788d 6e3d 6437 e23d
00000150: d80c 22be 266e 8e3d 6b6a b6bd 24c1 893d
00000160: 6977 fa3d 52e6 e23d 6682 5bbe 1966 36be
00000170: 1d16 8fbd 2482 86bd 74ac 313d 3292 253e
00000180: 7eb5 463e 4c86 20be e0a3 1f3e b23b ca3d
00000190: f89c 183c a6d8 21be 7b5d 2a3e ca8b df3c
000001a0: a467 783d 4bce 11be 4abb e9b7 e0d2 31bd
000001b0: 6ad1 df3d ba6a 0e3c 0c48 4f3d d7a0 093e
000001c0: f59b 523e 3785 153e e6ae ffbd 675a c3bd
000001d0: ba5b 9ebd 8e5d 0dbe f4df b93d 19b3 66bd
000001e0: fc32 c9bc b5ec 6cbd 32e6 893d e047 4b3d
000001f0: 4047 0fbe 6acd ffbd 4aaa 10bc 2f63 0abe
00000200: 849d 3cbd aeb5 00be 5d31 f83d 6bfd f7bd
00000210: 31f7 abbd 50b6 2ebe 361b 7cbd 37dc d3bc
00000220: 0609 6abe 5b83 f6bd cf57 abbd 142d cfbc
00000230: ab28 4e3d 3aff 4fbe 01d7 143e 23c7 66bd
00000240: 765d e7bd 8964 873d c484 a8bd c4cb 6c3e
00000250: 1cc4 a83d 76ed f93d d8e6 013d a5ff 2fbe
00000260: 9374 85bd 33ab e0bd 0715 793d 8cad b63d
00000270: 5635 123e 7473 d73d 1c9c 3ebe 7219 923d
00000280: d327 96bd a89f dfbc f862 2a3e 4b01 723d
00000290: 58f4 3ebd f6e7 1dbe b85b b53d 1003 503c
000002a0: eea2 0bbe 51cd 3cbe 13c9 00be b051 86bc
000002b0: 7757 31be 2527 34be ffa4 503e 4dcf abbd
000002c0: 8993 cabc 111a c03c 4e72 a93d 8f53 513e
000002d0: c26e fe3c 7ca9 653c 21d9 de3d 09e9 07be
000002e0: e9cd 8bbd 02c3 ab3d 022e 0c3d 735d a83b
000002f0: 3c6f 0c3e a321 b5bc 726d 463d cc22 783d
00000300: b388 b3bd 0b63 8d3d 0afe 6b3d afe9 fcbb
00000310: ee62 02bd 3893 fbbb ff84 483e 9f28 b9bd
00000320: 7813 3abe 2bb2 27be cdc4 863d 369c 7cbd
00000330: 9ed9 81bd cb88 edbd bd6a 3bbd 4374 a43d
00000340: 0fd8 573e 1dd0 87bd 23be 133e 9d92 593d
00000350: e91f 503e 2dd1 29be 3ded d73c b4e3 e9bc
00000360: 41b9 d1bd 8f51 83be 9df2 c5bb 8606 7ebd
00000370: 05b6 603e c5ff 24be 4535 18bc 2893 dfbd
00000380: ef07 eabd 468c 26be 0cfd 303e ee25 673e
00000390: 477a debc f680 93bd d7ad 953d 3bb5 193d
000003a0: fe25 40be bf18 8fbc b185 85bd d2af 26bd
000003b0: e32c 0fbe a4fb 22be b990 533e 4e2c 3fbe
000003c0: 5e29 923d 9714 fbbb 5fab bf3c 20bc bcbc
000003d0: f7a2 4a3d 8669 8bbd 34a5 4f3d c8c9 54be
000003e0: 57ec 8f3d ae9f f93c d6c9 403c d0ef 653d
000003f0: b476 fbbd c0f7 32be 5ac3 4ebe ea24 4fbd
-0.054597605 0.16494921 -0.106298745 -0.15492843 0.051339906 -0.092179224 -0.0644962 -0.1556249
-0.16166614 -0.05419424 0.1822825 0.016008267 0.071733736 -0.09895598 -0.045603435 -0.2072202
0.016110985 -0.1644524 0.11945048 0.09692453 -0.27989355 -0.19258033 -0.16691102 -0.005262033
0.025543388 -0.01311735 0.1917624 -0.120550506 -0.048742283 -0.017558206 0.022085749 0.13533601
0.1312716 0.05093763 -0.033866044 0.20075084 0.06217092 -0.015291104 -0.14985907 0.10165755
-0.100445464 -0.17979245 -0.09626047 0.13774468 -0.07713636 0.08759252 0.07175581 0.071278125
0.26287192 -0.017727466 -0.071270615 -0.045324806 -0.056137744 -0.033412155 0.12430733 -0.18669185
0.043699324 -0.16923118 0.014444968 -0.06568462 -0.099964075 0.0068231802 -0.06670603 0.05037233
0.09732605 0.04958091 0.0779397 -0.0041140122 -0.039824218 0.17862329 0.12428477 -0.07151133
0.18585975 -0.11433899 0.15804645 -0.16774118 -0.2511968 0.119730026 -0.14753982 0.0061400724
-0.0595548 -0.033891834 0.058240384 0.11045721 -0.15825212 0.06954603 -0.08907016 0.06726292
0.12229807 0.11079086 -0.21436462 -0.17812385 -0.0698664 -0.06567791 0.043377355 0.1616905
0.19405171 -0.1567623 0.15589857 0.09874667 0.009314768 -0.15805301 0.16637222 0.027288336
0.060645714 -0.14238851 -2.7862978e-05 -0.043413997 0.109286144 0.008692438 0.05060582 0.13440262
0.20567305 0.14601599 -0.12484531 -0.09538727 -0.07732339 -0.1380522 0.09075919 -0.056323145
-0.024560444 -0.05784293 0.067333594 0.049629092 -0.13992023 -0.124903515 -0.008829663 -0.13514398
-0.046048656 -0.12569305 0.1211879 -0.121088825 -0.083967574 -0.17061734 -0.061549388 -0.025861843
-0.22855005 -0.12036773 -0.083663575 -0.02529005 0.050331753 -0.20312205 0.14535142 -0.056342255
-0.11297123 0.066109724 -0.08228448 0.23124605 0.0824053 0.12203495 0.03171429 -0.17187364
-0.065163754 -0.10970154 0.06081107 0.0891982 0.14278159 0.10520068 -0.18614239 0.071337596
-0.073318146 -0.02729781 0.16639316 0.059083264 -0.046619743 -0.15420517 0.088553846 0.012696043
-0.13636371 -0.18437697 -0.12576704 -0.016396374 -0.17318521 -0.17593057 0.20375441 -0.08389149
-0.024728553 0.02344993 0.08273755 0.20442031 0.031058673 0.014017459 0.10881258 -0.1327249
-0.068263836 0.08386804 0.034223564 0.005138093 0.13714308 -0.022110766 0.04844422 0.06058006
-0.08766308 0.069036566 0.057615317 -0.007718287 -0.031832628 -0.007677462 0.19581984 -0.09040951
-0.18171489 -0.1637656 0.065805055 -0.06167241 -0.06340335 -0.11598357 -0.04575609 0.08029988
0.21078514 -0.06631491 0.14428 0.053118337 0.20324673 -0.165837 0.026358241 -0.02855096
-0.102404125 -0.25648162 -0.0060408846 -0.06201794 0.21944435 -0.16113193 -0.009290044 -0.1091674
-0.114272945 -0.16264448 0.1728403 0.22573063 -0.027157916 -0.07202332 0.07308548 0.03752635
-0.18764493 -0.017467855 -0.0651964 -0.04069502 -0.13981967 -0.15916306 0.20660676 -0.18669245
0.071367964 -0.0076623666 0.023397146 -0.023038924 0.04947182 -0.068072364 0.05069466 -0.20780098
0.070275 0.030471649 0.011766871 0.056136906 -0.122785 -0.17477322 -0.20191708 -0.050572313

decoder.out.bias f4 [13]
00000000: 2e06 b9bb 6068 113e d1d2 2e3e 08b0 d33d
00000010: effb eebd 07b4 a8bd 1324 843d c3b1 eabb
00000020: e390 70bd 59b5 b4bd 3817 9dbd e5ce 973c
00000030: 054c babc
-0.0056464886 0.14199972 0.17072608 0.1033631 -0.11669146 -0.082374625 0.06452193 -0.007162304
-0.058731925 -0.08823652 -0.07670444 0.018531272 -0.022741327
